m2_afd_cvae/Condition2 Camber/batch_size512/best_cvae.pth (torch, 492496 bytes, 14 tensors)

encoders.0.weight f4 [200, 200]
0	0xbd1ddecc	-0.038542554
1	0xbd9e63db	-0.0773389
2	0x3d3e4461	0.04645193
3	0xbc4db547	-0.012555427
4	0x3c03ffa1	0.008056552
5	0xbd326c2b	-0.04356019
6	0xbb5868c2	-0.0033021425
7	0xbd21a0b4	-0.0394599
8	0x3d41e90f	0.047341403
9	0xbd7cd516	-0.061726652
10	0x3cd9ad74	0.026571967
11	0x3abf16c7	0.0014578932
12	0x3bbf2567	0.005833316
13	0x3d29e6b4	0.04147978
14	0x3cfbb6bc	0.030726783
15	0x3a90e29f	0.0011053866
16	0xbc860bea	-0.016363103
17	0x3af8c105	0.0018978423
18	0x3c98a921	0.018635334
19	0xbd19ea83	-0.037577163
20	0xbd5941f5	-0.053041417
21	0xbcafdb75	-0.02146695
22	0x3d5edf81	0.05441237
23	0x3d090d97	0.033460226
24	0xbcd2b0e2	-0.02571911
25	0xbd589056	-0.052872024
26	0xbce4e109	-0.027939336
27	0xbcd6a257	-0.026200457
28	0xbd97f948	-0.074205935
29	0x3d2bab71	0.041911546
30	0x3a193d36	0.0005845608
31	0xbd1c722a	-0.038194813
32	0xbc6dd4ab	-0.014516036
33	0xbc7038d3	-0.014661985
34	0x3c7968da	0.0152227525
35	0x3d6866a5	0.056738514
36	0x3c843c81	0.016142132
37	0xbc66a50f	-0.014077439
38	0xbd995d91	-0.074885495
39	0xbc1e7bb8	-0.009673052
40	0x3d644f63	0.05573977
41	0xbd85aaee	-0.06526743
42	0xbd6e99f0	-0.058252275
43	0x3a7c1b1e	0.0009617078
44	0xbd8ffd16	-0.07030694
45	0x3ce20664	0.027590938
46	0x3d7b2f47	0.061324384
47	0xbce9197f	-0.02845454
48	0x3d2c2087	0.042023208
49	0x3cb44bea	0.022008855
50	0xbc39a99f	-0.011331945
51	0x3d3f2701	0.046668056
52	0xbccddc74	-0.025129534
53	0x3d093b1f	0.033503648
54	0xbc1d910f	-0.009617104
55	0x3d7a91e7	0.0611743
56	0xbd63d4eb	-0.055622976
57	0xbd9629a5	-0.07332162
58	0xbd375ff9	-0.04476926
59	0x3c488fa7	0.012241281
60	0x3d700509	0.058598552
61	0x3d70c38e	0.058780245
62	0x3a92912f	0.0011182184
63	0x3d1aa421	0.03775418
64	0x3cbfad09	0.02339794
65	0x3ca83754	0.020534195
66	0x3cd1b2a4	0.025597878
67	0xbd84f2c0	-0.064916134
68	0xbd6e4bfb	-0.05817793
69	0x3d2f1c49	0.042751584
70	0x3cb09b07	0.021558298
71	0xbd6ed73a	-0.058310725
72	0xbd2b3aff	-0.04180431
73	0xbc36ab3e	-0.011149226
74	0xbd9b202d	-0.075744964
75	0x3d1b1afd	0.037867535
76	0x3cfe7c27	0.03106506
77	0x3d7ab23a	0.061205126
78	0x3d3df320	0.04637444
79	0x3d20106e	0.03907817
80	0xbd303f44	-0.043029085
81	0xbd4b00c8	-0.049561292
82	0xbd2bb54a	-0.041920938
83	0xbd8fb7c0	-0.070174694
84	0xbd972621	-0.073803194
85	0xba555485	-0.00081378996
86	0xbcec2f3d	-0.028831119
87	0x3c551638	0.013005786
88	0x3cebbb1c	0.028775744
89	0x3bd820bb	0.0065956987
90	0xbc4773f4	-0.0121736415
91	0xbd5d3fea	-0.05401603
92	0xbce867e9	-0.02836986
93	0x3d5c57ec	0.053794786
94	0xbcc6e842	-0.024280671
95	0xbd0616af	-0.032736477
96	0xbd5cd4f6	-0.053914033
97	0xbd4e5ac1	-0.05037952
98	0x3d71a680	0.058996677
99	0xbc23d27d	-0.009998915
100	0x3cd23d4c	0.025663994
101	0x3d6f2191	0.05838162
102	0x3d5822cf	0.05276757
103	0xbd234026	-0.0398561
104	0xbc041633	-0.008061933
105	0x3d713341	0.05888677
106	0x3d02ffbc	0.03198217
107	0x3d63cfd5	0.055618126
108	0x3d36801a	0.04455576
109	0x3ccf0aec	0.025273763
110	0xbcf566b3	-0.029956197
111	0xbd8a6a8d	-0.06758604
112	0xbb893ab2	-0.004187905
113	0x3d0bade2	0.034101374
114	0xbd0a74ca	-0.033802785
115	0xbd227688	-0.03966382
116	0xbd5aa0cb	-0.053376
117	0xbd8d13f4	-0.068885714
118	0x3d4d825b	0.050173145
119	0x3d22efe8	0.039779574
120	0xbd889278	-0.06668562
121	0xbd724e20	-0.059156537
122	0xbc97cc3d	-0.018530006
123	0x3b5c7b4f	0.0033642834
124	0xbd57c0ab	-0.052673977
125	0x3bfa8fa6	0.0076465188
126	0x3d07f1a6	0.03318944
127	0xbaf49a59	-0.0018661722
128	0xbce75037	-0.028236492
129	0x3cc834c6	0.024439227
130	0x3d7b1f56	0.06130918
131	0x3cbf1cb6	0.02332912
132	0x3c9d2432	0.019182298
133	0x3d073d2b	0.03301732
134	0xbd9dd19b	-0.07705995
135	0x3cee5eef	0.029098002
136	0x3d7f0f80	0.06227064
137	0xbca9a8cc	-0.020710371
138	0xbbc1565b	-0.005900187
139	0xbd9bf95d	-0.07615922
140	0xbd96408e	-0.073365316
141	0xbb57675c	-0.0032868003
142	0x3d011306	0.031512283
143	0x3c8d776d	0.01726886
144	0xbd754b2b	-0.05988614
145	0xbd1051f1	-0.035234395
146	0x3a31094d	0.00067534
147	0x3d0378dc	0.032097682
148	0xbd8a3b06	-0.06749539
149	0xbd255a6a	-0.04036943
150	0x3d6c9ff2	0.057769723
151	0xbd26f686	-0.040762447
152	0x3d2e9b68	0.042628676
153	0x3c066798	0.00820341
154	0x3d808907	0.06276136
155	0xbd8dafe8	-0.06918317
156	0x3d381842	0.04494501
157	0xbcb6e295	-0.02232484
158	0x3c913519	0.017725514
159	0xbc682180	-0.014168143
160	0xbd400d1c	-0.046887502
161	0xbcf7994d	-0.030224467
162	0x3c1d5733	0.009603309
163	0xbc94da0f	-0.018170385
164	0xbcd85b70	-0.026410788
165	0x3be8cec4	0.0071047265
166	0xbcee788d	-0.029110217
167	0x3d12504a	0.0357211
168	0x3cd9770b	0.026546022
169	0x3d3bb7a7	0.04582944
170	0x3bb5b7d3	0.005545595
171	0xbd4a05bb	-0.04932187
172	0x3d28cc50	0.041210473
173	0xbd8cb056	-0.06869571
174	0xbd691c1f	-0.056911584
175	0xbd9475fc	-0.07249066
176	0x397e834f	0.00024272244
177	0xbd957e82	-0.0729952
178	0x3ba08ace	0.0048993593
179	0xbd46f448	-0.04857281
180	0xbd2e5c8f	-0.04256874
181	0x3c560fa8	0.013065256
182	0x37e7d853	2.763808e-05
183	0x3d50cfd1	0.05097944
184	0xbcb18821	-0.021671357
185	0xbd80ce2b	-0.062893234
186	0x3d1fdf69	0.03903142
187	0x3c1df062	0.009639831
188	0xbd244d20	-0.040112615
189	0x3d1e478d	0.038642455
190	0xbcb46bfa	-0.022024143
191	0x3bb2e0b5	0.005458916
192	0xbd5e87d8	-0.05432877
193	0x3cbcd10b	0.023048898
194	0x3d18a8c3	0.03727032
195	0xbd8ce240	-0.06879091
196	0xbd3b31db	-0.045701843
197	0xbbf89361	-0.0075859283
198	0xbcd1c66b	-0.025607308
199	0x3c784919	0.015154147
200	0x3d080386	0.033206485
201	0xbd0a356f	-0.033742364
202	0xbbb75b30	-0.005595587
203	0xbc8d355a	-0.017237354
204	0xbd40eddd	-0.047101844
205	0x3d150286	0.03637936
206	0xbd107a5f	-0.035272952
207	0x3d530aea	0.05152408
208	0xbd0f9492	-0.035053797
209	0xbd87e76c	-0.06635937
210	0xbb748260	-0.0037309155
211	0xbd01acbb	-0.03165887
212	0x3c58f870	0.013242826
213	0x3d0b1a0c	0.033960387
214	0xbc0a8740	-0.008455098
215	0x3bbdcb30	0.005792044
216	0xbd122eac	-0.03568904
217	0x3cf53950	0.029934555
218	0xbc58822c	-0.013214629
219	0xbcbdeee0	-0.023185194
220	0x3d33c652	0.043890305
221	0x3ba7af50	0.0051173344
222	0x3d195a02	0.037439354
223	0xbd5c3a56	-0.05376657
224	0xbcce17d6	-0.02515785
225	0x3caba85c	0.020954303
226	0x3c382cb0	0.011241123
227	0xbd3d68da	-0.046242572
228	0xbd623310	-0.05522448
229	0x3b7b6020	0.0038356856
230	0x3d585748	0.052817613
231	0xbcef39e8	-0.029202417
232	0xbd036235	-0.03207608
233	0xbc5ffb0c	-0.013670694
234	0xbbbac620	-0.005699888
235	0x3d1780de	0.03698813
236	0x3cae7a98	0.021298692
237	0xbb37e5e0	-0.00280606
238	0xbcd87862	-0.02642459
239	0x3caf4978	0.021397337
240	0x3d2cf3e6	0.042224787
241	0x3d8e16bf	0.06937932
242	0xbd505b9d	-0.05086862
243	0x3d25a67a	0.040441968
244	0x3d633f7e	0.055480473
245	0xbd686f76	-0.056746922
246	0x3d1e44fc	0.038640007
247	0xbd4972a0	-0.04918158
248	0xbd7ca201	-0.061677936
249	0x3c367ec8	0.011138625
250	0xbd810a59	-0.06300802
251	0x3d21497a	0.039376713
252	0xbd89f3c7	-0.0673595
253	0x3cf27474	0.029596545
254	0x3d889731	0.066694625
255	0xbd713eb8	-0.058897704

encoders.0.bias f4 [200]
0	0x3d01d055	0.03169282
1	0xbbdd2b70	-0.006749563
2	0xbb0b4ee0	-0.002125673
3	0xbca0386d	-0.019558156
4	0xbd208d3d	-0.039197195
5	0x3d990875	0.07472316
6	0x3d6bb573	0.05754609
7	0xbd8437fb	-0.0645599
8	0xbd5ee006	-0.054412864
9	0x3d272f33	0.040816497
10	0x3d4afcb7	0.049557414
11	0xbd1269b9	-0.035745356
12	0x3bc82a23	0.0061085387
13	0x3c63d878	0.013906591
14	0xbcc58cc1	-0.024114968
15	0xbc5908d0	-0.01324673
16	0xbb8fe27d	-0.004391013
17	0xbd549183	-0.051896583
18	0xbd40e784	-0.04709579
19	0xbdd30789	-0.103041716
20	0xbd2b36e6	-0.041800402
21	0x3d28b232	0.041185565
22	0x3cb5ef1e	0.022208747
23	0xbc1bf3d0	-0.009518579
24	0xbe503910	-0.20334268
25	0xbc8c9402	-0.01716042
26	0xbc17e892	-0.009271758
27	0xbe1dbb49	-0.15403475
28	0xbd37e07a	-0.044891812
29	0x3d5adc2c	0.05343263
30	0xbd7ab2ee	-0.061205797
31	0xbd02d4e5	-0.031941313
32	0x3c4ef87c	0.0126324855
33	0xbdde89b1	-0.10866106
34	0xbd8b4db4	-0.0680193
35	0x3f9471c0	1.1597214
36	0x3eb149bc	0.34626567
37	0xbace6a93	-0.0015748314
38	0xbdac6551	-0.08417762
39	0xbd0cc693	-0.034369063
40	0x3cf34d64	0.029699989
41	0xbbc44725	-0.0059899264
42	0xbd1ecd4b	-0.03877
43	0xbd6146a7	-0.05499902
44	0xbccec69a	-0.025241185
45	0x3d734a1e	0.059396856
46	0xbd727d92	-0.059201784
47	0x3d513294	0.051073626
48	0x3cf5ee6d	0.030020917
49	0xbd6d505f	-0.057937976
50	0x3a6693fc	0.0008795855
51	0xbce856a4	-0.028361626
52	0xbd814d24	-0.063135415
53	0xbcc6105c	-0.024177723
54	0xbeaa917d	-0.33314124
55	0xbd7b0fe0	-0.061294436
56	0xbd50f1c0	-0.0510118
57	0xbd468dd1	-0.04847509
58	0xbc8a0936	-0.016850095
59	0x3c581bd0	0.013190225
60	0xbce79d39	-0.028273212
61	0xbd89f2e8	-0.06735784
62	0xbdc03889	-0.09385783
63	0xbbe8cd10	-0.0071045235
64	0xbd4ae47f	-0.049534317
65	0xbcbee5e4	-0.02330298
66	0xbb88299a	-0.00415535
67	0xbd37193c	-0.0447018
68	0xbd1c0827	-0.038093712
69	0xbd82cf35	-0.06387178
70	0x3d222726	0.039588116
71	0xbd136bed	-0.035991598
72	0xbd6e5719	-0.05818853
73	0xbc1e66d0	-0.009668067
74	0x3cc39c87	0.023878349
75	0xbed888ea	-0.42291957
76	0xbd63ff7a	-0.055663563
77	0xbd7a1357	-0.0610536
78	0x3d643406	0.055713676
79	0x3c9d8383	0.019227749
80	0xbd5ee998	-0.05442199
81	0x3cd4fde2	0.025999967
82	0xbe0dc976	-0.13846382
83	0x3cf67f18	0.0300899
84	0x3cb94dfe	0.022620197
85	0xbfb86b26	-1.4407699
86	0x3d931ee6	0.07183628
87	0x3d668672	0.05628056
88	0x3bc461a0	0.005993083
89	0xbd8fa9c6	-0.070148036
90	0xbd55e27a	-0.052217938
91	0xbc43e24f	-0.011955812
92	0xbd53e7ed	-0.051734854
93	0xbd60f154	-0.05491765
94	0x3ca0d27d	0.019631619
95	0x3c69e1d9	0.014275038
96	0x3dec359d	0.115336634
97	0xb9daae00	-0.0004170984
98	0x3d8e9dbb	0.069636784
99	0x3cab499b	0.020909121
100	0x3f280b9e	0.65642726
101	0xbc32da13	-0.010916251
102	0x3c896d05	0.016775617
103	0x3d9fd015	0.078033604
104	0xbf9fda31	-1.2488462
105	0xbd6a1448	-0.057148248
106	0x3c777a12	0.015104787
107	0xbf5d2f04	-0.86399865
108	0x3cc389e8	0.02386947
109	0xbd39d4f6	-0.04536911
110	0xbd54840a	-0.051883735
111	0xbd8155e5	-0.06315211
112	0xbc9825e6	-0.018572759
113	0xbca20459	-0.019777464
114	0x3e957065	0.29187313
115	0x3d8eca2b	0.06972154
116	0xbcccc4de	-0.024996217
117	0xbd112a51	-0.035440747
118	0xbdbbaec4	-0.09164193
119	0xbd86002b	-0.06543001
120	0x3cab7127	0.020927979
121	0xbd286f01	-0.041121487
122	0xbd3f9e53	-0.04678185
123	0x3d3c7d5d	0.046017993
124	0xbcf94590	-0.030428678
125	0xbd22918c	-0.039689586
126	0xbd63efaa	-0.055648483
127	0xba0a9d00	-0.0005287677
128	0x3ed69625	0.41911426
129	0x3f1f829e	0.6230868
130	0x3f497db8	0.78707457
131	0xbec000df	-0.37500665
132	0xbb1f1f60	-0.0024280176
133	0xbc86fbe2	-0.016477529
134	0x3cb3076a	0.021854121
135	0xbc85b2d6	-0.016320627
136	0xbd2970c0	-0.041367292
137	0x3ced3066	0.028953742
138	0x3d424548	0.047429353
139	0x3c29073f	0.010316669
140	0x3bb32650	0.0054672137
141	0xbc9cee68	-0.01915665
142	0xbd5e5183	-0.054276954
143	0xbd876943	-0.06611874
144	0x3d4ec9ca	0.05048541
145	0xbd530a39	-0.05152342
146	0xbc829090	-0.015938073
147	0x3c9993a8	0.018747166
148	0xbd4d1712	-0.05007083
149	0x3d004925	0.031319756
150	0x3c9a9620	0.018870413
151	0x3d01332c	0.031542942
152	0x3d2b3086	0.041794322
153	0xbcd01fa6	-0.025405716
154	0xbe12e816	-0.14346346
155	0xbd28a4a0	-0.041172624
156	0x3f44a36a	0.7681185
157	0xbb3adef9	-0.002851425
158	0x3bed3700	0.0072392225
159	0x3e79cb8c	0.24394053
160	0xbd36c6cc	-0.04462318
161	0xbc937cc5	-0.01800383
162	0x3d5a2266	0.05325546
163	0xbc5280c8	-0.012848087
164	0x3d3b379e	0.045707338
165	0x3d9badb2	0.07601489
166	0xbefe1f02	-0.49633032
167	0x3d5faca4	0.054608002
168	0xbd527ce2	-0.05138863
169	0x3d5db5bc	0.054128394
170	0xbe10901d	-0.14117475
171	0xbd853616	-0.06504457
172	0xbd056932	-0.032571025
173	0x3ce6a8af	0.028156606
174	0xbd44787e	-0.047966473
175	0xbd63f320	-0.055651784
176	0xbc61a63b	-0.013772543
177	0xbd5204da	-0.051274158
178	0xbdc3d991	-0.09562982
179	0x3de6c29d	0.11267588
180	0xbd73f147	-0.059556272
181	0xbd268857	-0.040657368
182	0xbc8c2717	-0.017108483
183	0xbb0db9c3	-0.0021625615
184	0xbd873eff	-0.066038124
185	0xbdab8103	-0.083742164
186	0xbd0d3298	-0.034472078
187	0xbd2afd43	-0.041745435
188	0x3d9ef848	0.077622
189	0xbd0781a0	-0.033082604
190	0x3baafcf4	0.0052181426
191	0x3d39e11c	0.045380697
192	0xbd84010c	-0.06445512
193	0x3bf2e027	0.007411975
194	0xbe81fa4d	-0.25386277
195	0xbcb1dae4	-0.02171082
196	0xbd2f8ecf	-0.042860802
197	0x3ea8f730	0.3300109
198	0xbd8c6187	-0.06854539
199	0x3e4173b5	0.18891795

encoders.1.weight f4 [100, 200]
0	0xbca44d76	-0.020056468
1	0x39f75c00	0.00047180057
2	0xbcfb3ca6	-0.030668568
3	0x3ccea14b	0.025223395
4	0x3cfa93f8	0.030588135
5	0x3d1c4a8c	0.03815703
6	0x3db055fa	0.08610149
7	0xbd0f31a7	-0.03495946
8	0x3cbb2c31	0.02284822
9	0x3d1c227c	0.038118824
10	0x3ce6deb3	0.028182363
11	0x3c920068	0.01782246
12	0x3d204ca2	0.039135583
13	0xbcb527ac	-0.022113644
14	0x3d5fa27d	0.05459832
15	0x3d29af30	0.041426837
16	0x3d8474e1	0.064676054
17	0x3d8ae296	0.06781499
18	0x3d758a2a	0.059946217
19	0x3d8b217b	0.06793495
20	0x3d8225ce	0.06354867
21	0x3cca51f0	0.024697274
22	0xbd761e86	-0.060087703
23	0xbbf57fd0	-0.007492043
24	0x3b652356	0.0034963689
25	0xbcd77f14	-0.026305713
26	0xbcde76de	-0.02715629
27	0x3c38583c	0.011251505
28	0x3da61a17	0.08110445
29	0xbc037923	-0.008024487
30	0xb9bfd641	-0.0003658999
31	0xbd364e27	-0.044508126
32	0x3d7a1e1e	0.06106388
33	0xbbf9d85c	-0.007624669
34	0xbb917b48	-0.004439745
35	0x3f90978a	1.1296246
36	0xbd02a27b	-0.031893235
37	0xbcfdd5d8	-0.030985758
38	0x3c2024e2	0.009774419
39	0x3ce48319	0.027894543
40	0xbd030654	-0.031988457
41	0x3d817190	0.063204885
42	0x3c9169d0	0.01775065
43	0x3c547db7	0.012969426
44	0xbcd55092	-0.026039395
45	0xbd785c32	-0.0606348
46	0xbca1f553	-0.0197703
47	0xbca6e5c5	-0.020373235
48	0xbd81846f	-0.06324088
49	0xbd01502e	-0.031570606
50	0xbc042138	-0.008064561
51	0xbc0f8090	-0.008758679
52	0x3ca0572c	0.019572817
53	0x3d759fba	0.05996678
54	0xbefcb59b	-0.49357304
55	0xbd44f951	-0.04808933
56	0x3d606c3a	0.054790713
57	0x3d88649f	0.06659817
58	0xbb8a7489	-0.004225318
59	0x3cc07e3a	0.02349769
60	0x3b913b50	0.0044321194
61	0xbd13d020	-0.036087155
62	0xbc39f229	-0.011349239
63	0xbab0d780	-0.0013491958
64	0x3d3e2eb4	0.04643126
65	0x3d640c37	0.05567571
66	0xbd316bea	-0.043315805
67	0x3c133eba	0.008987123
68	0xbd3cf74c	-0.04613428
69	0x3cf4fc8b	0.029905578
70	0xbd015aa2	-0.031580575
71	0x3c62b3b2	0.013836788
72	0x3d443d31	0.04790992
73	0x3cb10291	0.02160767
74	0x3ccb0bb2	0.02478585
75	0xbe865799	-0.26238707
76	0xbd098cb4	-0.03358145
77	0x3d3ac1a7	0.045594838
78	0xbd037311	-0.032092158
79	0x3d188815	0.037239153
80	0xbc62763f	-0.013822137
81	0x3d9bc983	0.07606795
82	0x3d495a5d	0.049158443
83	0x3d45d846	0.048301958
84	0x3ba08a9a	0.004899335
85	0xbf81b3e0	-1.0133018
86	0x3a955964	0.0011394438
87	0x3d3d0c7e	0.04615449
88	0xbd4588ba	-0.048226096
89	0xbd67ef7a	-0.056624867
90	0x3c69de86	0.014274245
91	0x3d3a2ec7	0.045454767
92	0xbd75131f	-0.05983269
93	0xbd594416	-0.053043447
94	0x3cd7e205	0.026352892
95	0xbd8304a0	-0.063973665
96	0xbbed516a	-0.0072423713
97	0xbc1e06dc	-0.00964519
98	0xbc667576	-0.014066091
99	0xbc02babf	-0.007979094
100	0xbff7abed	-1.9349343
101	0xbd15fbd5	-0.03661712
102	0x3d4ebf23	0.05047525
103	0x3d9c54fd	0.07633398
104	0xbfd950a4	-1.6977735
105	0xbd89fea8	-0.06738025
106	0x3bfc3b85	0.007697525
107	0x3cfc12a4	0.030770607
108	0x3e3727a7	0.1788622
109	0x3d15bdf4	0.036558107
110	0xbd500c59	-0.050793026
111	0xbd1b99b5	-0.037988383
112	0x3c79a408	0.015236862
113	0xbce1b9db	-0.027554443
114	0x3e0cd92d	0.13754721
115	0xbc6c56ac	-0.014424961
116	0x3c37a051	0.011207656
117	0xba3b2b3e	-0.00071399275
118	0x3d061f66	0.032744788
119	0xbd803d5b	-0.062617026
120	0xbd0c6070	-0.034271657
121	0xbce23797	-0.027614398
122	0x3d0f5fe9	0.035003576
123	0x3cc74223	0.024323529
124	0x3c14dcd0	0.009085849
125	0x3c696a10	0.014246479
126	0xbd512ace	-0.051066212
127	0x3d1f303a	0.03886435
128	0x3e7ad7d6	0.24496397
129	0xbe0aca53	-0.13553743
130	0x3e8a6f56	0.27038068
131	0x3dcbdfce	0.09954797
132	0x3d8a20b1	0.06744517
133	0x3ce316de	0.027720865
134	0xbd6fc56a	-0.058537878
135	0xbbcbdab7	-0.006221141
136	0x3bbd6e1d	0.005780949
137	0x3d655556	0.055989586
138	0x3d47da4b	0.048792165
139	0xbc57a475	-0.013161768
140	0xbc0b4234	-0.008499671
141	0x3d0df11c	0.034653768
142	0xbc8d8b99	-0.01727848
143	0x3cbdb13a	0.023155797
144	0x3d5baa01	0.053628925
145	0xbd1006f2	-0.035162874
146	0x398f319b	0.00027312044
147	0x3d928f99	0.07156295
148	0xbd891090	-0.06692612
149	0xbb4f0100	-0.003158629
150	0x3b75fcff	0.003753483
151	0xbd5af97c	-0.053460583
152	0xbd7d264c	-0.0618041
153	0xbca0f882	-0.019649748
154	0x3d577cbe	0.052609198
155	0xbcd485d8	-0.025942728
156	0xbe3dbf0d	-0.18529911
157	0x3d826930	0.06367719
158	0x3d216db6	0.03941127
159	0x3d519261	0.05116499
160	0x3c8d37e5	0.017238567
161	0xbd820039	-0.06347699
162	0x3d1490ee	0.03627103
163	0x3d8f02a9	0.06982929
164	0xbd57563c	-0.052572474
165	0x3d35179b	0.044211965
166	0x3eccfece	0.4003815
167	0xbd7709ac	-0.06031196
168	0x3d16b9da	0.036798336
169	0x3cd52050	0.026016384
170	0x3c2cd069	0.010547736
171	0xbc961ef2	-0.018325303
172	0xbd674eeb	-0.056471746
173	0xbce6e75e	-0.028186496
174	0xbd72f3f2	-0.059314676
175	0x3cdbaf71	0.026817055
176	0xbd125f1e	-0.035735242
177	0x3cf24768	0.029575065
178	0x3cab7412	0.02092937
179	0xbd6b0321	-0.05737603
180	0x3d7b5160	0.061356902
181	0xbb55c70e	-0.0032619867
182	0xbd3f7f1e	-0.046752088
183	0xbd5b7b27	-0.053584244
184	0xbd367e52	-0.044554062
185	0x3d763111	0.060105387
186	0x3d823da4	0.06359413
187	0xbd48e165	-0.049043078
188	0x3da78c6e	0.08181082
189	0x399bad00	0.000296928
190	0x3cb23fbe	0.02175891
191	0x3d31db96	0.043422304
192	0xbb891603	-0.004183532
193	0x3dcf2a5f	0.101155035
194	0x3cafa2d6	0.02143995
195	0xbd0bb1e7	-0.034105208
196	0x3c4f2c49	0.012644836
197	0x3e5b1c41	0.21397497
198	0x3d38eb7a	0.045146443
199	0x3dcbb9de	0.09947561
200	0x3d45f387	0.04832795
201	0x3d89ce87	0.06728845
202	0xbd53d0bc	-0.051712736
203	0xbcac2d0c	-0.021017574
204	0xbcd0d4d8	-0.025492117
205	0x3db9953e	0.09061669
206	0xbd78400b	-0.06060795
207	0xbd46d4ce	-0.04854279
208	0xbd0af5bc	-0.033925757
209	0xbc193365	-0.009350632
210	0xbcd65f7f	-0.026168583
211	0x3d3b695b	0.04575477
212	0x3d9d72fc	0.07687947
213	0x3c888c8c	0.01666858
214	0x3d8db738	0.06919712
215	0x3d686796	0.056739412
216	0x3d330f9c	0.043716058
217	0x3bebb015	0.0071926215
218	0xbd8b10c6	-0.06790309
219	0x3dfe8f93	0.12429728
220	0x3d5ee1a6	0.054414414
221	0xbcec703c	-0.028862111
222	0xbc32cccd	-0.010913086
223	0x3c79cc28	0.015246429
224	0x3db11191	0.08645929
225	0x3d4b5724	0.04964365
226	0xbd0219ca	-0.031762876
227	0x3dedd8db	0.116136275
228	0x3e0f4b94	0.13993675
229	0x3e1a958e	0.15096113
230	0x3cc52ca0	0.02406913
231	0x3db81028	0.089874566
232	0x3c821e0f	0.015883474
233	0x3da8dd7f	0.08245372
234	0x3cda1e09	0.02662565
235	0xbf262f37	-0.64915794
236	0x3dd31388	0.1030646
237	0xbd58cf54	-0.0529321
238	0x3db7c628	0.08973342
239	0x3ce52e90	0.027976304
240	0xba100675	-0.0005494126
241	0x3d20cf58	0.03926024
242	0xbd16bf73	-0.036803674
243	0x3d5700fc	0.052491173
244	0xbca13d38	-0.019682512
245	0x3d62c1e1	0.05536068
246	0xbd89b4ba	-0.06723924
247	0xbcd2dab9	-0.02573906
248	0xbd5f18a0	-0.054466844
249	0x3d3b11f0	0.045671403
250	0x3dc73e05	0.09728626
251	0x3d80d8eb	0.06291374
252	0x3d79ac1e	0.06095516
253	0xbd082b71	-0.033244554
254	0x3ea0a109	0.3137286
255	0xbd5f0b71	-0.05445427

encoders.1.bias f4 [100]
0	0xbe403967	-0.18771897
1	0xbf3e17ad	-0.74254876
2	0x3c67c98d	0.014147175
3	0x3f3a000b	0.72656316
4	0xbdd9e383	-0.106390975
5	0x3ce8ed33	0.028433418
6	0xbde0f9b1	-0.10985125
7	0x3d01392a	0.031548657
8	0xbd9d16e2	-0.0767038
9	0xbc00e53f	-0.0078671565
10	0xba9aea87	-0.0011819162
11	0xbc9203f7	-0.017824156
12	0xbd6915ed	-0.056905676
13	0xbbc48f50	-0.0059985295
14	0xbdab1f9e	-0.0835564
15	0xbcce1cca	-0.025160212
16	0xbd1fcddd	-0.039014686
17	0x3f8cb9b5	1.0994173
18	0x3ee8a0b5	0.4543511
19	0xbd807c13	-0.06273665
20	0xbcd39eb1	-0.025832506
21	0x3e86aefe	0.26305383
22	0xbee09646	-0.4386465
23	0xbd34a4af	-0.044102367
24	0xbd130f38	-0.035903186
25	0xbe110597	-0.14162289
26	0xbad3e4e8	-0.0016166242
27	0x3eee45c8	0.46537614
28	0x3f5e27a3	0.8677923
29	0xbd203d86	-0.039121173
30	0xbc8eaf7e	-0.017417666
31	0xbd3b413a	-0.0457165
32	0xbd6cbf54	-0.057799652
33	0xba09cb72	-0.0005256451
34	0xbf0e5cbf	-0.5561027
35	0x3cc1ad69	0.023642259
36	0xbdcae8d9	-0.099076934
37	0xbcbf225b	-0.023331812
38	0xbc81407b	-0.015777817
39	0x3f716786	0.9429859
40	0xbd13a14d	-0.0360425
41	0xbe31bb82	-0.17356685
42	0x3e963df5	0.29344144
43	0xbef653ae	-0.48110718
44	0x3846442f	4.727038e-05
45	0x3c875bba	0.01652323
46	0x3ea21a51	0.31660703
47	0xbe2ba528	-0.16762221
48	0x3d181384	0.037127987
49	0xbe16fee9	-0.14745678
50	0xbbcad6b7	-0.006190147
51	0x3be859af	0.0070907692
52	0xbdaad568	-0.08341485
53	0xbda559c4	-0.08073762
54	0xbd697a97	-0.057001676
55	0x3c866239	0.016404258
56	0x3b18b3f0	0.002330061
57	0xbdebb4a4	-0.11509064
58	0xbdd994fa	-0.10624118
59	0xbdd1facc	-0.10252914
60	0xbd04c90b	-0.032418292
61	0xbddaa2d5	-0.10675589
62	0xbd91ab0e	-0.07112704
63	0xbe51d0ea	-0.2048985
64	0xbdcdf1c1	-0.100558765
65	0xbdaff730	-0.08592069
66	0xbd5d03c6	-0.053958677
67	0xbfbb66af	-1.4640712
68	0xbc45a6a4	-0.012063656
69	0x3c80e479	0.015733944
70	0xbcd30d6e	-0.02576324
71	0xbd519b4d	-0.051173497
72	0xbd7d8675	-0.061895806
73	0xbcb14141	-0.02163756
74	0xbebfe1ec	-0.37477052
75	0x3f63af0d	0.8893898
76	0xbdc8f7eb	-0.098129116
77	0x3cbdb523	0.023157662
78	0xbd63de09	-0.05563167
79	0xbdfb1ee6	-0.12261753
80	0x3dc90a87	0.09816461
81	0x3d8a5910	0.067552686
82	0xbdc2be32	-0.09508933
83	0xbf61607a	-0.88037837
84	0xbdf8bbcf	-0.12145197
85	0x3d80ebb3	0.06294956
86	0xbe11a8ad	-0.14224501
87	0xbe61d7d1	-0.22054984
88	0xbdc6ea0a	-0.09712608
89	0x3f46fe05	0.77731353
90	0xbd031721	-0.03200448
91	0x3caff011	0.021476777
92	0x3f489f10	0.7836771
93	0x3bab7503	0.0052324547
94	0x3cf695d1	0.030100735
95	0xbdb1abff	-0.08675384
96	0xbd0eb355	-0.034838993
97	0xbeda5582	-0.42643362
98	0xbe164322	-0.14674047
99	0x3c9671e0	0.018364847

fc_mu.weight f4 [4, 100]
0	0x3c55e9dc	0.013056245
1	0x3a57188a	0.0008205256
2	0x3be48d8b	0.006974881
3	0x3bd5f84a	0.0065298425
4	0xb7b081a2	-2.10412e-05
5	0xbc2fecff	-0.010737657
6	0xbd93aa0b	-0.072101675
7	0x3dd84046	0.10559134
8	0xbd2d5a1d	-0.042322267
9	0xbd5032f0	-0.050829828
10	0x3d1c75a3	0.038198125
11	0x3cbe1349	0.023202555
12	0x3d471558	0.04860434
13	0x3c93afd3	0.018028175
14	0xbd6bd4f5	-0.05757614
15	0x3c3a43d7	0.011368713
16	0xbd88e712	-0.06684698
17	0x3c9fe919	0.01952033
18	0xb93026e0	-0.0001679915
19	0x3cda3d2a	0.026640493
20	0x3d894a45	0.06703619
21	0xbb9f890a	-0.0048686313
22	0x3d4f2504	0.05057241
23	0xbc3224d8	-0.010873042
24	0x3cf66149	0.030075686
25	0xbd6411d6	-0.055681072
26	0xbca0e916	-0.019642394
27	0xbc6b1d3a	-0.01435023
28	0x39ced31d	0.00039448673
29	0x3bb465e2	0.0055053094
30	0x3c3a1220	0.01135686
31	0xbbb2b842	-0.005454094
32	0x3dd366b5	0.10322324
33	0xbd25afc6	-0.040450834
34	0x3b73cfea	0.0037202784
35	0x3d42959c	0.04750596
36	0xbcc49458	-0.023996517
37	0x3d11523c	0.035478815
38	0x3d62f863	0.05541266
39	0xb8b5a76a	-8.661936e-05
40	0xbe0334ce	-0.12813112
41	0x3d308163	0.043092143
42	0x3dca2d05	0.09871868
43	0xbaaafa92	-0.0013044646
44	0xbcf3323a	-0.029687036
45	0xb7579999	-1.2850761e-05
46	0xbcf38747	-0.029727591
47	0x3cd72a05	0.026265154
48	0xbdae2f70	-0.08505142
49	0xbd8c66fd	-0.06855581
50	0xbd9192cd	-0.07108078
51	0xba8a9492	-0.0010572842
52	0x3c44c659	0.01201018
53	0xbceda86a	-0.02901097
54	0xbccf84ad	-0.02533182
55	0x3bb85b7b	0.0056261397
56	0xbca91588	-0.02064015
57	0xbc5570ca	-0.013027379
58	0xbd5056aa	-0.0508639
59	0xbb13848e	-0.0022509429
60	0xbd4af94d	-0.049554158
61	0xbd4f3953	-0.050591778
62	0xbdddda79	-0.10832686
63	0xb99c6f3a	-0.0002983751
64	0x3db83368	0.0899418
65	0xbc53b150	-0.012920693
66	0x3d7eb372	0.06218285
67	0x3af20b67	0.0018466533
68	0xbd3e0524	-0.04639162
69	0x3d04c8c1	0.032418016
70	0xbd012af8	-0.03153512
71	0xbcb82723	-0.0224796
72	0x3d2a58cc	0.04158859
73	0xbb9c4b6e	-0.004769734
74	0x3b45e479	0.0030195995
75	0xbb577f74	-0.0032882364
76	0xbc7f40db	-0.015579428
77	0x3d9e76be	0.07737492
78	0x3b9ac6b8	0.004723396
79	0x3d3f2c05	0.04667284
80	0x3c068dd2	0.008212524
81	0x3dab07c8	0.083510935
82	0xbc0d4b45	-0.008623903
83	0xbc26461c	-0.010148551
84	0xbc9a42d9	-0.018830704
85	0x38782577	5.91627e-05
86	0xbd3a040e	-0.045414023
87	0x3d207797	0.03917655
88	0x3cd52564	0.026018806
89	0xbb2bbecf	-0.002620626
90	0x3a4a2299	0.0007710844
91	0xbd10630e	-0.035250716
92	0x3b539143	0.0032282628
93	0x3d707f8a	0.05871538
94	0x3d8d0ade	0.068868384
95	0xbccd4efc	-0.025062077
96	0xbd7e1983	-0.06203605
97	0xbb7b711a	-0.0038366974
98	0x3d8027fa	0.06257625
99	0xbdafb825	-0.08580045
100	0xbb238ff4	-0.002495763
101	0x3a27322d	0.0006378021
102	0xbd81af17	-0.06332224
103	0xbbb01be9	-0.005374421
104	0x3d81be39	0.0633511
105	0x3d8acf1b	0.067777835
106	0xbcce6b48	-0.02519764
107	0x3c1b87f5	0.009492864
108	0xbdd6b7cd	-0.10484276
109	0xbd4376d4	-0.047720745
110	0x3cc55e7c	0.024092905
111	0x3cac0cbc	0.021002166
112	0x3dbbbf09	0.091672964
113	0x3dd09443	0.10184529
114	0x3d4cf3c9	0.05003718
115	0xbda34f73	-0.07974138
116	0xbb62a9a1	-0.003458597
117	0xbc755384	-0.014973525
118	0x3bd5173a	0.006503013
119	0x3ccb510c	0.02481892
120	0xbdda7973	-0.10667696
121	0xbb5bc26d	-0.0033532635
122	0xbd0b3ee4	-0.033995524
123	0x3d183335	0.03715821
124	0xbceb4f5e	-0.028724369
125	0xbd9e39cd	-0.077258684
126	0x3ca252b4	0.019814827
127	0x3cbfe74e	0.023425724
128	0x3b374797	0.0027966255
129	0x3bf298f1	0.007403486
130	0xbd8d6034	-0.06903115
131	0x3cfebce8	0.031095937
132	0xbcd2b72d	-0.02572211
133	0x3d2b62cd	0.04184227
134	0xbc0f367f	-0.00874102
135	0xbd93e649	-0.07221658
136	0x3b9b2097	0.0047341096
137	0x3de674a0	0.11252713
138	0x3d2c2ac9	0.04203299
139	0xbae443f6	-0.0017415273
140	0xbd16a3f6	-0.03677746
141	0x3cb25ab4	0.021771766
142	0x3d50aca6	0.0509459
143	0xbcabf208	-0.020989433
144	0xbdbc7025	-0.09201077
145	0xbcc98bcb	-0.024602791
146	0x3daa1c89	0.08306224
147	0xbdb734b5	-0.089456
148	0xbd3df945	-0.0463803
149	0xbcbaa95d	-0.022785837
150	0xbd5129e2	-0.051065333
151	0xbc795b2f	-0.015219494
152	0x3d022faa	0.031783737
153	0x3de7feea	0.11327918
154	0x3d489912	0.048974104
155	0xbdf0301f	-0.11727928
156	0x3d770401	0.060306553
157	0x3be1a0f3	0.0068856417
158	0x3d8f0a9c	0.069844455
159	0x3bbbc31c	0.005730046
160	0xbc887f9e	-0.016662415
161	0xbd4b149b	-0.049580198
162	0xbdcd5e9c	-0.10027811
163	0xbb95eb0d	-0.0045751394
164	0xbba74b47	-0.0051054093
165	0xbcd7a638	-0.026324376
166	0xbdaa989c	-0.08329889
167	0x3ba16862	0.0049257735
168	0xbca9f464	-0.020746417
169	0x3d1d4a51	0.03840095
170	0xbd980572	-0.074229136
171	0xbd9aecbf	-0.07564687
172	0x3db13519	0.08652706
173	0xbccc5dba	-0.024947036
174	0x394686d4	0.00018932979
175	0x3bb9e549	0.005673085
176	0x3d3641d5	0.044496376
177	0xbd920a3d	-0.07130859
178	0x3da2d2f7	0.079503946
179	0x3d445be5	0.0479392
180	0x3ba2b08f	0.004964895
181	0xbd1b38fc	-0.03789614
182	0x3c4c759a	0.01247921
183	0xbbc6f944	-0.0060721952
184	0xbccadfd0	-0.024764925
185	0x3b3b4b00	0.002857864
186	0x3c893dfe	0.016753193
187	0x3c898239	0.016785728
188	0xbdbfcc69	-0.0936516
189	0xbabc1ddc	-0.001435216
190	0x3d1bed18	0.038067907
191	0x3bda33b0	0.0066589937
192	0x3ba59942	0.00505367
193	0x3d7129ec	0.05887787
194	0xbd0cbcf2	-0.03435988
195	0xbcb71a14	-0.022351302
196	0xbd1f7d6a	-0.038937964
197	0x3ae38866	0.0017359375
198	0x3c2e3119	0.010631823
199	0x3dcb0e6e	0.099148616
200	0x3cb1932b	0.02167662
201	0xb83e00cc	-4.5300272e-05
202	0xbbdc7e7c	-0.0067289453
203	0x3b38f804	0.0028224
204	0x3ca65868	0.020305827
205	0xbdaa95f6	-0.08329384
206	0x3de6d1c1	0.11270476
207	0x3bb54f0d	0.005533105
208	0x39761f24	0.00023471989
209	0xbd17197b	-0.036889534
210	0x3cac1021	0.021003785
211	0xbd8c8e33	-0.0686306
212	0xbd8f1c48	-0.06987816
213	0x3cc81914	0.02442602
214	0xbb32a5c9	-0.002725946
215	0x3cc0d594	0.023539342
216	0xbd534cca	-0.051586904
217	0xbb1babaf	-0.0023753454
218	0xb9db5ea7	-0.00041841457
219	0x3d70763f	0.05870652
220	0xbdb2a0c4	-0.0872207
221	0xba23d7e0	-0.00062501244
222	0xbc9509b5	-0.018193105
223	0xbd5b1328	-0.053485066
224	0x3d0d3307	0.03447249
225	0xbc8de898	-0.017322823
226	0x3c64aa85	0.013956671
227	0x3c859252	0.016305123
228	0xbb966327	-0.0045894566
229	0x3d2399f6	0.03994175
230	0x3e15d8a2	0.1463342
231	0xbd4a19ae	-0.049340896
232	0xbd95dda9	-0.07317669
233	0xbc5bd571	-0.013417588
234	0x3c3fcec6	0.0117070135
235	0x3bd11cdc	0.006381614
236	0x3bcc279c	0.0062303077
237	0x3cd3b646	0.02584375
238	0x3cba5994	0.022747792
239	0xb9f12045	-0.00045991145
240	0xbd87c9e5	-0.06630305
241	0xbcd67e6d	-0.026183331
242	0xbdd61a68	-0.10454255
243	0xbc58c51a	-0.013230586
244	0x3e3ad141	0.18243887
245	0xbd6d245a	-0.057895996
246	0xbc3a4163	-0.0113681285
247	0x3d543550	0.051808655
248	0xbdb6a870	-0.08918846
249	0x3c827caa	0.015928585
250	0x3ae88591	0.0017740001
251	0xbc8de3b1	-0.017320486
252	0xbde6c390	-0.11267769
253	0x3d26ee4c	0.0407546
254	0xbd837988	-0.064196646
255	0xbd58dc24	-0.052944317

fc_mu.bias f4 [4]
0	0xba2b01e3	-0.00065234135
1	0xbab22aff	-0.0013593136
2	0x3afa31a7	0.0019088284
3	0x3f12aad0	0.5729189

fc_logvar.weight f4 [4, 100]
0	0x3b96de75	0.0046041557
1	0xba27f0ac	-0.00064064073
2	0x3c93c620	0.01803881
3	0x3a8b14a1	0.0010611006
4	0x3b4ba02b	0.003107081
5	0x3d2122e4	0.039339915
6	0x3e0f365b	0.13985579
7	0xbd2eedb9	-0.04270718
8	0x3a790642	0.00094995287
9	0x3d897fa1	0.067137964
10	0xbc972b75	-0.01845334
11	0xbcde3757	-0.027125997
12	0x3d49e907	0.049294498
13	0x3db8f2bf	0.09030675
14	0xbc8f7ac7	-0.0175146
15	0xbb16377d	-0.0022921257
16	0x3d357408	0.04430011
17	0xbbc300eb	-0.005951037
18	0xbb0b3ac7	-0.002124475
19	0xbcd8072f	-0.026370613
20	0x3c2d6103	0.010582211
21	0xb918f85f	-0.00014588375
22	0xbcf16934	-0.02946911
23	0x3db9fa5c	0.090809554
24	0x3da2a47d	0.0794153
25	0x3ce933d0	0.028467089
26	0xbd08a48b	-0.033360045
27	0x3becd2c3	0.007227273
28	0xbaa34f34	-0.0012459517
29	0xbc230ab8	-0.009951286
30	0xbd1021bb	-0.035188418
31	0x3e06f484	0.13179213
32	0x3cbe1029	0.023201065
33	0x3cc21d46	0.0236956
34	0xbb81c54e	-0.003960288
35	0x3d93ba71	0.07213295
36	0x3b652c61	0.003496908
37	0xbd0ea68c	-0.0348268
38	0x3db9f9bc	0.09080836
39	0x3a7d753c	0.00096686534
40	0xbd5ab2ee	-0.053393297
41	0x3cb9609b	0.022629073
42	0x3c6b7aa1	0.014372499
43	0xbbd838bc	-0.00659856
44	0x3d082b22	0.03324426
45	0x3d1a21f1	0.037630025
46	0x3d0bb46a	0.034107603
47	0x3d36baeb	0.044611853
48	0x3d0a5b92	0.033778735
49	0x3da1506f	0.078766696
50	0xbaca0e5b	-0.0015415655
51	0x3c073e88	0.008254655
52	0xbd1e508a	-0.038651027
53	0xbc61a1b1	-0.01377146
54	0x3db50017	0.08837908
55	0xbd890a90	-0.06691468
56	0x3d522901	0.051308636
57	0x3c293b85	0.010329132
58	0xbdb81d90	-0.089900136
59	0x3a606f4f	0.0008561508
60	0xbd7972b8	-0.06090042
61	0xbdbee62c	-0.093212456
62	0x3d63519b	0.055497747
63	0xbb261d15	-0.0025346924
64	0x3c85e17d	0.016342873
65	0xbdeca815	-0.115554966
66	0xbd3c9053	-0.046036076
67	0x3b8df306	0.004331949
68	0x3dbad9dd	0.091235854
69	0x3c136682	0.008996608
70	0x3cbc8d9c	0.023016743
71	0x3cd172fc	0.025567524
72	0xbd1c2fd0	-0.038131535
73	0x3d9609b4	0.073260695
74	0x3aae0ffb	0.0013279909
75	0x3a861e24	0.0010232371
76	0x3d91c0ed	0.07116876
77	0x3d68896e	0.05677169
78	0x3b4a004a	0.0030822926
79	0xbc00fb7f	-0.007872461
80	0x3c9d2928	0.019184664
81	0xbdc6770f	-0.096906774
82	0x3d4e3849	0.050346646
83	0xbb598a72	-0.0033194092
84	0xbac30760	-0.0014879517
85	0xbac15d86	-0.0014752604
86	0x3d263324	0.040576115
87	0xbd31b6c5	-0.043387193
88	0x39826b01	0.00024875256
89	0x3a8b1676	0.0010611552
90	0xbdbcd4bd	-0.09220264
91	0xbd6191ec	-0.055070803
92	0xb9e072eb	-0.0004281023
93	0x3c96f2f9	0.018426405
94	0x3d8a4115	0.06750695
95	0x3d2eb24c	0.042650506
96	0xbc8de8d7	-0.01732294
97	0xbbdb265b	-0.006687922
98	0x3c85b9cd	0.016323948
99	0x3ca7029b	0.020386985
100	0x3c3b617c	0.011436816
101	0xba2e4983	-0.00066485273
102	0xbce2c7fa	-0.027683247
103	0xba90d7be	-0.0011050624
104	0xbd85114a	-0.06497438
105	0x3d68fcd6	0.05688175
106	0x3e0fa1f4	0.14026624
107	0xbba69901	-0.0050841575
108	0xbc71cc36	-0.01475816
109	0x3db66395	0.089057125
110	0xbd9015ea	-0.0703543
111	0xbd9b1265	-0.07571868
112	0x3c77641a	0.01509955
113	0x3d462de7	0.04838362
114	0xbd9ffa2a	-0.07811387
115	0xbd0cef2c	-0.03440778
116	0xbd26ba19	-0.04070482
117	0xbbb89787	-0.005633298
118	0xbb89dfcd	-0.0042075873
119	0xbd974d06	-0.07387738
120	0x3d51765f	0.051138278
121	0x393945a2	0.00017668915
122	0xbd375134	-0.044755176
123	0x3def65ef	0.11689364
124	0xbd265816	-0.04061135
125	0xbd2263f8	-0.03964612
126	0xbbd0d7ed	-0.0063733966
127	0x3afddc9d	0.0019368116
128	0x3c025d56	0.007956823
129	0xbd04e7ef	-0.03244775
130	0xbd567b44	-0.05236365
131	0xbd5af1d3	-0.053453278
132	0xbd89d563	-0.067301534
133	0xbc3f7ac3	-0.0116869835
134	0xbbb11201	-0.0054037576
135	0x3d0994ee	0.033589296
136	0xbd4b8b6e	-0.049693517
137	0x3d477631	0.0486967
138	0x3bb2b20f	0.005453355
139	0x3aa55138	0.0012612706
140	0x3aa94774	0.0012914971
141	0xbbcf4d91	-0.0063263853
142	0x3d8e45f5	0.06946937
143	0x3a6572c0	0.0008752756
144	0x3c07740b	0.008267413
145	0xbd7a7561	-0.061147097
146	0x3d07b9d7	0.033136215
147	0xbcf9b720	-0.030482829
148	0xbc3beace	-0.011469556
149	0xbce66278	-0.028123125
150	0xbd8339f5	-0.06407539
151	0x3c13129f	0.008976608
152	0xbd08ef3b	-0.033431273
153	0xbd0f657e	-0.0350089
154	0xbd3f8fec	-0.046768114
155	0x3cb894a4	0.022531815
156	0xbd2de6a0	-0.04245627
157	0x3bdea273	0.006794268
158	0x3d92d013	0.07168593
159	0xb7812145	-1.539349e-05
160	0x3d80bed2	0.06286396
161	0xbbcf0676	-0.006317909
162	0x3d400518	0.046879858
163	0xbd012691	-0.03153092
164	0x3cb53fd3	0.02212516
165	0xbcf86d91	-0.030325683
166	0x3dda8651	0.1067015
167	0xbb13f079	-0.0022573753
168	0x3d0b265f	0.03397214
169	0x3cc67fe0	0.024230897
170	0x3bd17d3c	0.006393103
171	0x3d84dace	0.06487046
172	0xbcfc35fc	-0.03078746
173	0xbcb8e1d8	-0.022568628
174	0xba15fd59	-0.00057216507
175	0x3a51b1e5	0.00079992256
176	0xbcaac827	-0.020847393
177	0xbdd2abd1	-0.10286678
178	0xbcfa0ed9	-0.030524658
179	0x3d77daf9	0.060511563
180	0x3d8a7a4f	0.0676161
181	0x3d8c6777	0.06855672
182	0x3dd3d925	0.103441514
183	0x3bbf9a7b	0.005847273
184	0xbd01f070	-0.03172344
185	0x3834f3f3	4.314254e-05
186	0x3da1ff0d	0.07909975
187	0xbcbf5632	-0.02335653
188	0x3ce50294	0.02795533
189	0xba069da8	-0.0005135187
190	0x3b516f11	0.003195707
191	0xbce9ba44	-0.028531201
192	0xbaa4e917	-0.0012581673
193	0x3b8a0d2d	0.0042129965
194	0x3c52cd40	0.012866318
195	0xbd32a9fc	-0.04361914
196	0x3b7a9ba2	0.0038239737
197	0x3b36b6fe	0.0027880068
198	0xbd16fc87	-0.036861923
199	0xbdfb459f	-0.122691385
200	0x3c507b2d	0.01272468
201	0xb8c70a1d	-9.490943e-05
202	0xbc74fe7a	-0.01495325
203	0x39f1095d	0.00045974078
204	0xbd8c09ef	-0.06837832
205	0xbd91ef48	-0.071257174
206	0x3c73e2c6	0.01488561
207	0x3d111fab	0.03543059
208	0xbd426f67	-0.047469523
209	0x3cea8868	0.028629497
210	0x3b301dad	0.0026873157
211	0x3c145f9f	0.009056001
212	0xbc95a6ab	-0.01826795
213	0xbc9fab92	-0.01949099
214	0xbd3d08f5	-0.04615112
215	0x3d202c8f	0.039104994
216	0xbc5fbf4d	-0.0136564495
217	0xbbd636d5	-0.006537298
218	0xbb8e2d37	-0.004338886
219	0xbd31b4ce	-0.04338532
220	0xbd8445a4	-0.064585954
221	0x3aefdfd2	0.0018300957
222	0xbcec949d	-0.028879458
223	0xbc94d709	-0.018168943
224	0x3d722b0c	0.059123084
225	0x3da1354c	0.07871494
226	0x3d93b9da	0.07213183
227	0x3bb3ed82	0.0054909596
228	0x3ac5ec8d	0.0015100405
229	0x3d26ad2f	0.040692504
230	0xbb1ad77b	-0.0023626972
231	0x3da1721b	0.07883092
232	0x3d156a4d	0.03647833
233	0xbd99b6e9	-0.075055905
234	0xbbe389d3	-0.00694392
235	0x3c7293b7	0.014805726
236	0xbd040659	-0.032232616
237	0x3cb2a235	0.021805862
238	0x3dd9a08c	0.10626325
239	0x3aa5f1a4	0.0012660515
240	0xbdab349d	-0.083596446
241	0xbcb95c45	-0.022627005
242	0xbda57281	-0.080784805
243	0xbbba788a	-0.005690639
244	0x3c764569	0.015031197
245	0xbc35701d	-0.011074093
246	0x3dccd898	0.100022495
247	0x3d1c10f5	0.03810211
248	0xbcc5f299	-0.024163531
249	0xbda3652d	-0.07978282
250	0xbd265c6c	-0.040615484
251	0xbb2f1d56	-0.0026720366
252	0xbcfcd5c6	-0.030863654
253	0x3bd4d2af	0.006494842
254	0xbd5e84cd	-0.054325867
255	0xbdd4c0e3	-0.10388353

fc_logvar.bias f4 [4]
0	0x3a2cd583	0.0006593095
1	0x3b14d60d	0.0022710592
2	0x3a3b2291	0.00071386347
3	0xbf10f26f	-0.56619924

decoders.0.weight f4 [100, 5]
0	0x3d30a91c	0.043130025
1	0x3ca2044e	0.019777443
2	0xbc2b8b81	-0.010470272
3	0xbc977a33	-0.018490886
4	0xbf02d930	-0.5111265
5	0xbbbb2be1	-0.005712018
6	0xbc3b844f	-0.011445119
7	0x3cd33c9b	0.025785735
8	0xbb85e91f	-0.004086628
9	0x3fb0ab38	1.3802252
10	0xba8f6980	-0.0010941476
11	0xbc390f2e	-0.011295123
12	0x3c3dafb2	0.011577534
13	0x3ea252b8	0.31703734
14	0xc0e2019d	-7.062697
15	0x3bc7db7d	0.006099163
16	0x3c6f8ddd	0.014621225
17	0xbaa990ae	-0.0012936795
18	0x3b424431	0.0029642696
19	0x3fcc09de	1.5940511
20	0x3c91c818	0.017795607
21	0xbca77bef	-0.020444838
22	0x3d087fc9	0.03332499
23	0xbc770b6a	-0.015078405
24	0x3fd6f2b4	1.6792817
25	0xbc2b3686	-0.010450011
26	0xbd504f2e	-0.05085676
27	0x3d538de7	0.051649
28	0xbd999f3c	-0.07501075
29	0x3fb0696f	1.3782176
30	0x3adb2356	0.0016718905
31	0xbc1f7ddd	-0.009734598
32	0xbaf6869f	-0.0018808431
33	0xbafc5cec	-0.0019253767
34	0x3f0b5e56	0.5444082
35	0x3c5e621f	0.013573199
36	0x3b5a0499	0.00332669
37	0xbb59302d	-0.0033140287
38	0x3ba58148	0.005050812
39	0xbf8269d3	-1.0188545
40	0x3c4afbe3	0.012389156
41	0xbc0f25bd	-0.008737025
42	0xbc207619	-0.009793782
43	0x3ea4ae60	0.32164288
44	0x406dc57b	3.7151783
45	0xbb74e2e3	-0.003736668
46	0xbb8cf55b	-0.0043017096
47	0xbd296c72	-0.041363187
48	0xbcbfc20d	-0.02340796
49	0xbf46deb7	-0.77683586
50	0xbaa2396c	-0.0012376732
51	0xbb285625	-0.0025686112
52	0x3ba67ff8	0.005081173
53	0xbc5b274e	-0.01337607
54	0xc0421985	-3.0328076
55	0x3b42c834	0.002972138
56	0x3a47f078	0.000762708
57	0x39d1517f	0.00039924306
58	0x3b4ce3cc	0.0031263707
59	0xbe1debc7	-0.15421973
60	0xbc9071bc	-0.017632358
61	0x3d2acbeb	0.041698378
62	0x3da3667f	0.07978534
63	0x3bafc316	0.005363832
64	0xbf5cae17	-0.8620314
65	0x3c02de1e	0.007987527
66	0xbaecb348	-0.0018058801
67	0x3b9ef153	0.0048505454
68	0x3b5e9d9f	0.0033968461
69	0xbfa440f7	-1.2832326
70	0x3cc9dc96	0.024641316
71	0xbc10d573	-0.008839953
72	0xbb508757	-0.003181895
73	0xba88fa52	-0.0010450578
74	0x3f1c76b7	0.61118644
75	0xbc1a78a4	-0.009428177
76	0x3cb00d58	0.021490738
77	0x3b242ac1	0.0025049897
78	0x3c12d926	0.008962905
79	0xbf918ddc	-1.1371417
80	0x3befe32b	0.0073207817
81	0x3d0530bb	0.032517176
82	0xbb92ebc1	-0.0044836705
83	0x3de9ced6	0.11416404
84	0xc04f5402	-3.2395024
85	0xbc1b4889	-0.009477743
86	0xbb7c4924	-0.0038495744
87	0xbc026c13	-0.007960337
88	0x3da8d76b	0.08244213
89	0xc082dd40	-4.089508
90	0x3b8f9e53	0.0043828874
91	0x3acaf085	0.0015483057
92	0x3a867b9f	0.0010260231
93	0x3d9f09b4	0.077655226
94	0xc16492e3	-14.285861
95	0xbd046322	-0.032321103
96	0x3c06d224	0.008228812
97	0x3c39fdef	0.011352046
98	0x3eb69438	0.35659957
99	0xc05f1802	-3.4858403
100	0xbc7a810b	-0.015289555
101	0xbb83b769	-0.004019667
102	0x3c2ed85d	0.010671702
103	0xbc8573bf	-0.016290544
104	0x3fb49e26	1.4110763
105	0x3c7c1d9a	0.015387917
106	0x3cf603c8	0.0300311
107	0xb9dfc6d7	-0.00042682022
108	0xbc0ebd48	-0.00871212
109	0xc0188707	-2.3832414
110	0x398b5ecb	0.00026582772
111	0xbb737fd9	-0.003715506
112	0xbac53ebb	-0.0015048602
113	0xbb1cc7f7	-0.00239229
114	0xbf250ae8	-0.64469767
115	0xbaa0da5f	-0.0012272111
116	0xbbd72ac5	-0.006566378
117	0xbc0589ee	-0.008150561
118	0xbb87eec2	-0.004148335
119	0x40578920	3.3677444
120	0xbae50f0d	-0.0017475799
121	0xbb123868	-0.0022311453
122	0x3bde45ef	0.006783239
123	0x3eb46746	0.3523504
124	0x40146921	2.3189166
125	0xbab5c8fb	-0.0013869101
126	0x39533580	0.00020142458
127	0xbb4c4353	-0.0031168058
128	0xbd3e6e99	-0.046492193
129	0x4105d193	8.363666
130	0x3b9e21a8	0.0048257895
131	0xbb50df87	-0.0031871514
132	0xbb83045f	-0.003998324
133	0xbe193deb	-0.14965026
134	0x408d2aa6	4.411456
135	0x3c38dd0c	0.01128317
136	0xbd27adb9	-0.04093716
137	0x3bb57c1a	0.0055384757
138	0x3eaca9df	0.3372335
139	0xbe03441a	-0.12818947
140	0x3bc53b5f	0.0060190405
141	0xba9cd193	-0.0011964313
142	0x3c0bb282	0.008526446
143	0x3c549ec0	0.012977302
144	0x40ae80cc	5.4532223
145	0xbabb39ef	-0.0014284233
146	0xba383a0b	-0.0007027692
147	0x3ac9b257	0.0015388232
148	0xbb53d8fa	-0.0032325373
149	0xbe9da954	-0.3079325
150	0x3aef43cf	0.0018254461
151	0xbb827011	-0.0039806445
152	0xbb7e45bf	-0.0038798896
153	0xbd078477	-0.033085313
154	0xbfa504ad	-1.2892052
155	0xbb406f01	-0.0029363038
156	0x3a6b4cf5	0.0008976006
157	0x39de9f65	0.00042461898
158	0x3c8619b5	0.01636968
159	0xc15a34df	-13.637908
160	0x3d1afbc0	0.037837744
161	0x3c436d0a	0.011927852
162	0xbce4d89c	-0.027935319
163	0x3c1828cb	0.00928707
164	0x3fa90f46	1.3207786
165	0xbbe39737	-0.0069455164
166	0x3b9dd2d4	0.0048163924
167	0x3d31d363	0.043414485
168	0xbadde3b1	-0.0016928819
169	0x3ffd874e	1.9806917
170	0xbbb92904	-0.0056506414
171	0x3c255cf5	0.010092963
172	0x3bd7c3b4	0.006584609
173	0xbeb5a22d	-0.35475293
174	0xc0958177	-4.672054
175	0x391e1443	0.00015075602
176	0x3c0b92bc	0.008518871
177	0x3a8041f5	0.0009785282
178	0xbe27f25d	-0.16401048
179	0xc03c48eb	-2.9419506
180	0x3c52b52b	0.012860577
181	0x3b7d1fcc	0.0038623689
182	0x3ca3436f	0.019929616
183	0xbdc7019a	-0.09717102
184	0xbe3511cc	-0.1768257
185	0xbbf0977f	-0.0073422785
186	0xbc2d7792	-0.01058759
187	0xbbbff4d8	-0.005858045
188	0xbe2c30d4	-0.16815501
189	0xc15ad38d	-13.676648
190	0x3c615807	0.0137538975
191	0x3bb681b7	0.0055696624
192	0xbbfe6480	-0.0077634454
193	0x3e779d92	0.24181202
194	0xc0f68c6e	-7.7046423
195	0x3d11bac3	0.0355785
196	0x3d95eb74	0.073203
197	0xbcc6270c	-0.02418854
198	0xbd494b03	-0.049143802
199	0xbfa15792	-1.2604849
200	0xbc43ac19	-0.011942887
201	0xbc8dc1ba	-0.01730429
202	0x3c774ad2	0.015093522
203	0xbd0a8c0e	-0.033824973
204	0xc05e9532	-3.4778562
205	0x3cee97a8	0.02912505
206	0xbd26e7d9	-0.04074845
207	0x3c8c6ccb	0.01714172
208	0xbc8fb7d2	-0.017543707
209	0xbf9cceef	-1.2250651
210	0x3b7fddb7	0.0039042064
211	0x3be6e2a1	0.0070460592
212	0x3b7616c5	0.0037550193
213	0xbb095b88	-0.0020959098
214	0xbe0edddf	-0.13951825
215	0xbba6ef38	-0.005094435
216	0xbbce18da	-0.0062895836
217	0xba283c1b	-0.0006417648
218	0xbc5e3ec1	-0.013564766
219	0xc0225c5e	-2.5368876
220	0x3b9fea56	0.00488023
221	0xbc49d2dc	-0.012318339
222	0xbb079ffa	-0.0020694719
223	0xbb7fd0c2	-0.0039034341
224	0x40910985	4.532412
225	0x3cee1b78	0.029065832
226	0xbc48298e	-0.012216939
227	0x3d8892ce	0.06668626
228	0xbcb6a20c	-0.022294067
229	0xbf7f1725	-0.9964469
230	0xbc88b521	-0.016687931
231	0x3b058f5e	0.0020379643
232	0xbb37cb0c	-0.002804461
233	0xbea9fc82	-0.3320046
234	0x409407f6	4.625972
235	0xbc803c0c	-0.015653633
236	0xbc1163c1	-0.008873881
237	0x3c9e531d	0.01932674
238	0xbec46b53	-0.38363132
239	0xc0818850	-4.0478897
240	0x3b00652c	0.0019591553
241	0xbb35f735	-0.0027765755
242	0xb9dde6ca	-0.00042324356
243	0xbaa14587	-0.0012304046
244	0xbf95bb40	-1.1697769
245	0xbc2c56c8	-0.010518737
246	0x3a94ec3d	0.0011361908
247	0xbba62eb1	-0.005071484
248	0xbc5be5fe	-0.013421534
249	0xbfeec825	-1.8654829
250	0x3b00ac8f	0.0019634103
251	0xb9fcb9f8	-0.00048203743
252	0x3a655b84	0.00087492936
253	0xbb823f19	-0.003974807
254	0xbd3542ac	-0.044253036
255	0x3bbd9a95	0.00578625

decoders.0.bias f4 [100]
0	0xbea81478	-0.32828116
1	0xbe9010d7	-0.28137848
2	0xbedd5131	-0.43226007
3	0xbe84d800	-0.25946045
4	0xbec478ae	-0.3837332
5	0xbf3271be	-0.69704807
6	0xbe13ce06	-0.1443406
7	0xbdc2e816	-0.09516923
8	0xbf4d5b7e	-0.8021773
9	0xbe9f7f4f	-0.31151816
10	0xbd755a3c	-0.059900507
11	0xbd496011	-0.04916388
12	0xbf0e8232	-0.5566741
13	0xbdd856ad	-0.10563407
14	0xbe7ba9ea	-0.24576536
15	0xbe52f74e	-0.20602152
16	0xbf449282	-0.76786053
17	0xbec22336	-0.3791749
18	0x3e2e5951	0.17026259
19	0xbfa3e90f	-1.2805499
20	0xbe846046	-0.258547
21	0xbe77b37b	-0.2418956
22	0xbd05b3c5	-0.032642145
23	0xbed0a643	-0.40751848
24	0xbf8e51cf	-1.1118716
25	0x3bcbee09	0.0062234444
26	0xbe14fbb2	-0.14549139
27	0xbf7cce2a	-0.9875208
28	0xbe6fe404	-0.23426825
29	0xbd107fd6	-0.035278164
30	0xbe367af0	-0.17820334
31	0x3e7a1880	0.24423409
32	0xbebae9b2	-0.3650642
33	0xbedae194	-0.42750227
34	0xbdbd520b	-0.09244164
35	0x3f156cdf	0.5836925
36	0xbf4241f7	-0.75881904
37	0xbe32f3f1	-0.17475869
38	0xbdbaaaa1	-0.09114576
39	0xbf18c889	-0.5968099
40	0xbeaed8af	-0.3414969
41	0xbed74292	-0.42042977
42	0xbdbfb68d	-0.09360991
43	0xbdc203ee	-0.09473406
44	0xbe97aa3b	-0.29622063
45	0xbee89caf	-0.4543204
46	0xbee678d1	-0.4501405
47	0xbed01152	-0.40638214
48	0xbc938fd6	-0.018012922
49	0xbdaf80ae	-0.085694656
50	0xbcc1ac28	-0.02364166
51	0xbe915faa	-0.28393298
52	0xbeb71bbb	-0.35763344
53	0xbe59ba4d	-0.21262474
54	0xbe8f9695	-0.28044572
55	0xbf53ab1e	-0.8268298
56	0xbe8b6600	-0.27226257
57	0xbef5c7d1	-0.4800401
58	0x3e1c44be	0.15260598
59	0xbee7e575	-0.4529225
60	0xbf963bd9	-1.1737014
61	0xbf03c807	-0.5147709
62	0xbefb1364	-0.4903823
63	0x3e9faa66	0.3118469
64	0xbed4d8a8	-0.41571546
65	0xbedb7e67	-0.42869875
66	0xbcbae841	-0.022815825
67	0xbf500bff	-0.81268305
68	0xbd18d41f	-0.03731167
69	0xbd5c93a8	-0.053851753
70	0xbe96025f	-0.29298684
71	0x3dbd0c98	0.09230918
72	0xbd740e65	-0.05958404
73	0xbed5b12b	-0.4173673
74	0xbe85470c	-0.26030767
75	0xbf2550c8	-0.6457639
76	0xbf24f178	-0.6443095
77	0xbe92cb4f	-0.28670737
78	0xbee4f0e2	-0.4471503
79	0xbcae73f5	-0.021295527
80	0xbe2e08ea	-0.16995588
81	0xbee33a33	-0.4438034
82	0xbee3f4d5	-0.4452273
83	0xbe3adc7d	-0.18248172
84	0xbf0045d3	-0.50106543
85	0xbef032c5	-0.46913734
86	0xbd13ecbe	-0.036114447
87	0xbf0d3ab2	-0.55167687
88	0xbea10e12	-0.31456047
89	0xbe1a5bf2	-0.15074137
90	0xbe40dc67	-0.18834077
91	0xbef92d71	-0.48667482
92	0xbee010a0	-0.43762684
93	0xbed385d4	-0.4131304
94	0xbe530418	-0.2060703
95	0xbe6a6da5	-0.22893389
96	0xbeaf7dd1	-0.34275678
97	0xbecb1fe1	-0.3967276
98	0xbc07cc4b	-0.008288453
99	0x3e649f30	0.2232635
