m3_apd_cvae/Condition5 Thickness cl/best_cvae.pth (torch, 493648 bytes, 14 tensors)

encoders.0.weight f4 [200, 201]
0.034114577 0.06788905 -0.00198918 -0.016016163 -0.02562026 0.024670634 0.06309068 -0.0010523432
0.07645655 0.030207293 0.056389235 0.061685674 0.030931788 -0.018407775 -0.056860413 -0.007065093
-0.085343435 -0.023282532 0.011403554 -0.0062456056 -0.09882921 -0.080275565 -0.020168895 -0.008278611
-0.05147072 -0.05981722 -0.12453546 -0.13989161 -0.09889219 -0.12004886 -0.05726021 -0.091062695
-0.12384962 -0.103209935 -0.02218116 -0.033385947 -0.0319035 -0.14119288 -0.12066729 -0.14382717
-0.010445506 -0.09432689 -0.050812144 -0.14341144 -0.12337706 -0.09651853 -0.0234552 -0.122692764
-0.11001168 -0.14285292 -0.08527379 -0.13944368 -0.10369404 -0.10450022 -0.1081857 -0.08368481
-0.09449784 -0.081383035 -0.009322803 -0.101387575 -0.13345301 -0.14180917 -0.06807241 -0.12116042
-0.018994158 -0.043329537 -0.029860666 -0.015487223 -0.025888482 -0.07760774 -0.014484588 -0.14083333
-0.12283472 -0.09790932 -0.05801256 -0.11132635 -0.042076502 -0.09118129 -0.11849141 -0.01862681
-0.07741911 -0.03670832 -0.028380489 -0.0070764823 -0.078477986 -0.05440353 -0.118989825 -0.02084776
-0.052075997 -0.06449574 -0.09851197 -0.07585641 -0.13862167 -0.005705802 -0.041344106 -0.10976084
-0.04204226 -0.1418013 -0.08757336 -0.09973592 0.025420995 -0.059215963 -0.058936447 0.063459106
0.0071604415 -0.050616693 -0.024707694 -0.02666528 -0.05802752 -0.032906435 0.053487737 0.04227203
-0.036325898 -0.053554855 -0.04045259 0.0077703022 0.00698502 0.002970588 0.057854183 0.039154973
0.010602097 0.018863143 -0.038459826 -0.07355838 -0.028383814 0.010224399 0.023542456 0.0048003243
0.0057688463 -0.06925412 -0.08412312 -0.0554419 0.0008817938 0.0031064837 -0.06492751 -0.086694196
-0.036200512 -0.0009806418 -0.038564954 -0.060806606 0.0243544 -0.019424772 -0.0848469 0.016551172
-0.060561217 -0.08995163 -0.07591957 -0.10136681 -0.02385567 0.010167311 -0.057920918 -0.09684953
-0.1033316 -0.101402655 -0.05010964 -0.10873592 0.006663682 -6.0018992e-06 -0.03782793 -0.027130362
-0.014200972 0.001306451 -0.097087175 -0.111416645 -0.09165949 -0.12618442 -0.025265252 -0.030071057
-0.03693594 -0.06698017 0.006740764 -0.08341963 0.007826395 -0.017882021 0.0028203798 -0.09350412
0.012529447 -0.07419365 0.01509373 0.003911948 0.053083897 0.014256494 -0.0019283707 0.0050956076
0.03076021 0.010842221 0.0806344 0.055534907 0.07468233 0.003388269 -0.016566448 0.043573275
0.10713679 -0.009137218 0.030106228 0.04852627 0.030702857 0.038299214 -0.0026818395 0.06028805
-0.16529833 -0.03280451 -0.063976 0.02680411 -0.028897433 -0.04704558 -0.043488607 0.035092942
0.006110041 0.052587464 0.025601719 -0.015742796 0.060006425 0.029519284 -0.032109752 -0.0021135951
0.027896458 -0.029865973 -0.024765661 0.017132519 -0.04884415 -0.033678126 0.022076635 -0.06417809
-0.0336482 0.020681553 0.03263766 0.058479417 0.0041295327 0.012796305 -0.059373807 0.03846594
-0.00562295 0.02613315 0.028948823 -0.046340827 -0.05723217 0.032142047 0.04025493 -0.06608171
0.026290985 0.05508442 -0.07341893 0.05600315 -0.04188137 0.051585745 -0.05624046 0.061531078
0.010172288 0.059686445 0.0139825465 -0.015518056 0.012258713 -0.04502481 0.060162578 0.004494512
00000000: babb 0b3d 6a09 8b3d e75c 02bb 5434 83bc
00000010: 94e1 d1bc 121a ca3c b035 813d c7ee 89ba
00000020: 4095 9c3d 4975 f73c 66f8 663d 1eaa 7c3d
00000030: a964 fd3c e7cb 96bc 77e6 68bd 4c82 e7bb
00000040: 8ac8 aebd 02bb bebc f9d5 3a3c f0a7 ccbb
00000050: f866 cabd 8467 a4bd 3d39 a5bc 03a3 07bc
00000060: f6d2 52bd e702 75bd 720c ffbd bf3f 0fbe
00000070: fd87 cabd 2ddc f5bd af89 6abd 147f babd
00000080: dfa4 fdbd bb5f d3bd 44b5 b5bc b4bf 08bd
00000090: 3fad 02bd de94 10be 6a20 f7bd 6e47 13be
000000a0: a123 2bbc 752e c1bd 6520 50bd 73da 12be
000000b0: 1dad fcbd 82ab c5bd 1f25 c0bc 5846 fbbd
000000c0: ce4d e1bd 0948 12be 06a4 aebd 53ca 0ebe
000000d0: 8a5d d4bd 3604 d6bd 7790 ddbd f162 abbd
000000e0: 1588 c1bd 26ac a6bd abbe 18bc 4aa4 cfbd
000000f0: e8a7 08be 6c36 11be 8c69 8bbd f422 f8bd
00000100: a399 9bbc 507a 31bd 5b9e f4bc 1fbe 7dbc
00000110: 1514 d4bc cff0 9ebd c450 6dbc 9d36 10be
00000120: c590 fbbd ae84 c8bd 949e 6dbd 12ff e3bd
00000130: 6958 2cbd 42bd babd a0ab f2bd 4097 98bc
00000140: e98d 9ebd 775b 16bd 337e e8bc d6e1 e7bb
00000150: 11b9 a0bd 3cd6 5ebd f0b0 f3bd ecc8 aabc
00000160: a44d 55bd 5816 84bd a5c0 c9bd 9b5a 9bbd
00000170: d7f2 0dbe bcf7 babb 7058 29bd 4bca e0bd
00000180: 8134 2cbd 5c34 11be a959 b3bd 5942 ccbd
00000190: b13f d03c 708c 72bd 5867 71bd d9f6 813d
000001a0: 23a2 ea3b 7353 4fbd ca67 cabc 2571 dabc
000001b0: 44ae 6dbd e6c8 06bd f515 5b3d 7025 2d3d
000001c0: 77ca 14bd 565c 5bbd 9db1 25bd 059e fe3b
000001d0: 98e2 e43b 32ae 423b 82f8 6c3d f760 203d
000001e0: 6bb4 2d3c e186 9a3c 0d88 1dbd c7a5 96bd
000001f0: 2c85 e8bc 3d84 273c 1cdc c03c 0a4c 9d3b
00000200: 9708 bd3b 1bd5 8dbd be48 acbd 0c17 63bd
00000210: 2e28 673a 2696 4b3b b7f8 84bd ba8c b1bd
00000220: fd46 14bd e188 80ba 49f6 1dbd 5910 79bd
00000230: e182 c73c b320 9fbc 36c4 adbd 5396 873c
00000240: 0a0f 78bd 8f38 b8bd b87b 9bbd 6799 cfbd
00000250: f76c c3bc cb94 263c 7c3e 6dbd 0c59 c6bd
00000260: 859f d3bd 32ac cfbd c43f 4dbd f0b0 debd
00000270: 045b da3b ec63 c9b6 76f1 1abd 7e40 debc
00000280: 32ab 68bc 393d ab3a a4d5 c6bd 692e e4bd
00000290: f8b7 bbbd 7d36 01be 13f9 cebc 9457 f6bc
000002a0: 244a 17bd e62c 89bd a0e1 dc3b e9d7 aabd
000002b0: 483a 003c 517d 92bc 1fd6 383b 177f bfbd
000002c0: 4f48 4d3c d7f2 97bd b14b 773c cc2f 803b
000002d0: 806e 593d 1294 693c 62c1 fcba 0ef9 a63b
000002e0: d6fc fb3c 92a3 313c a623 a53d 9278 633d
000002f0: 0df3 983d b90d 5e3b 5cb6 87bc e479 323d
00000300: 896a db3d 45b4 15bc 56a1 f63c 7bc3 463d
00000310: 8f84 fb3c a3df 1c3d cdc1 2fbb 9af0 763d
00000320: f743 29be 065e 06bd d905 83bd 4b94 db3c
00000330: 4fba ecbc deb2 40bd 1c21 32bd 9ebd 0f3d
00000340: bd36 c83b f465 573d b2ba d13c 09f7 80bc
00000350: 4cc9 753d 6dd2 f13c 8485 03bd 3e84 0abb
00000360: 1d87 e43c 7ca9 f4bc 5be1 cabc 7f59 8c3c
00000370: ce10 48bd 13f2 09bd 0fda b43c cd6f 83bd
00000380: b2d2 09bd 5c6c a93c 11af 053d 1d88 6f3d
00000390: 0851 873b 98a7 513c f331 73bd 768e 1d3d
000003a0: b940 b8bb 3015 d63c 1526 ed3c e1cf 3dbd
000003b0: 486c 6abd 61a7 033d 5ae2 243d d955 87bd
000003c0: 3160 d73c 33a0 613d aa5c 96bd 8f63 653d
000003d0: cd8b 2bbd 934b 533d 665c 66bd 0308 7c3d
000003e0: aba9 263c c679 743d 0d17 653c 723f 7ebc
000003f0: c5d8 483c ef6b 38bd 096d 763d b346 933b

encoders.0.bias f4 [200]
0.031486988 -0.0014402563 -0.06738274 0.023425207 -0.010023631 -0.048547663 -0.016260194 -0.055384763
0.05593594 -0.01394502 0.04929771 -0.02382978 0.068938114 -0.080866985 -0.06895045 -0.06365888
0.0126436185 0.0396235 -0.04663286 0.021617148 0.011601474 -0.07091375 0.16093105 0.023459159
0.027998619 -0.07507754 0.03947578 -0.055112954 0.022560645 -0.050926626 -0.02109987 0.04514592
-0.024772871 -0.059071288 0.11260894 -0.12432762 -0.05078187 0.056169625 -0.06619282 0.013227323
-0.06038263 0.039398532 0.06526562 -0.03903996 0.43950474 -0.047176763 -0.0015186646 0.005683359
0.037090283 -0.051790126 -0.07247337 0.043091618 -0.056060605 0.022616146 -0.028205499 -0.02868726
-0.074494556 -0.0020049356 0.033144087 -0.052190393 0.043970544 -0.019077409 -0.2594255 0.08367219
0.00833001 -0.026523706 -0.06317958 0.04766849 -0.036394767 -0.023270544 -0.065381154 0.03976901
-0.053802926 -0.011774549 0.048705615 0.01750043 -0.032590114 -0.04181389 0.0076040253 -0.05751013
-0.030797161 -0.059260868 -0.008221949 -0.04196806 0.042805105 0.046954602 -0.045254894 -0.061848905
-0.043352462 0.064147525 -0.06329377 -0.03423303 0.015930787 -0.07377679 -0.05235805 0.014741476
0.0246448 0.0192185 0.06374062 -0.080070674 -0.07467188 -0.19008148 -0.060496807 -0.005288638
-0.04825137 0.053436793 -0.00613278 -0.017620802 0.04913414 0.023776054 -0.0440676 0.027688738
-0.011670985 0.026695581 -0.09476116 -0.058365416 -0.018805705 0.105739586 0.01769403 0.019563379
0.04794272 -0.02458958 -0.0038825953 0.11246202 0.028997576 0.0041750018 0.0017598048 -0.1375851
0.0546451 0.012283599 0.10920783 0.03601861 -0.04552454 -0.013160258 -0.58622205 -0.03766378
-0.06634087 0.0176614 0.075920545 0.090843536 -0.10240727 0.048751846 0.05620113 -0.07721582
-0.41049486 0.014522738 -0.06943985 0.054258585 -0.01687108 -0.002125855 0.039905425 0.002546586
-0.03128223 -0.0116057005 -0.011576935 0.035193875 -0.042351793 0.014616191 0.030794846 0.06220447
-0.07113143 -0.05364219 -0.03706954 -0.06664402 0.055400793 0.015252218 -0.11363668 0.010095689
-0.06721335 -0.07020084 -0.037340436 -0.028002549 0.10366465 0.032818925 0.8225484 -0.0626577
0.08809462 -0.053010132 0.1696028 -0.040343598 0.027368914 0.055235803 0.020765612 0.02406722
0.005171115 -0.044888273 -0.94495493 0.033072077 0.06223028 0.058501992 -0.050328583 0.049442366
-0.06064501 -0.028594015 0.047966864 0.047769308 0.06087739 -0.02010604 -0.0013685541 -0.03613641
00000000: 80f8 003d fbc6 bcba f6ff 89bd 38e6 bf3c
00000010: 283a 24bc ead9 46bd 1934 85bc 22db 62bd
00000020: 161d 653d a779 64bc 65ec 493d ac36 c3bc
00000030: 6d2f 8d3d 979d a5bd e535 8dbd 965f 82bd
00000040: 2e27 4f3c 404c 223d 1902 3fbd 7216 b13c
00000050: 1c14 3e3c 3a3b 91bd 1ccb 243e 6c2d c03c
00000060: 5c5d e53c 41c2 99bd 5bb1 213d 1fbe 61bd
00000070: 1ad1 b83c 7098 50bd a2d9 acbc eeea 383d
00000080: 7af0 cabc bcf4 71bd 849f e63d 7b9f febd
00000090: a600 50bd 1f12 663d 1a90 87bd 6ab7 583c
000000a0: c753 77bd 5b60 213d fba9 853d 5de8 1fbd
000000b0: c406 e13e 6c3c 41bd ee0d c7ba 793b ba3b
000000c0: fbeb 173d e221 54bd eb6c 94bd d680 303d
000000d0: ce9f 65bd 7f45 b93c 380f e7bc 8b01 ebbc
000000e0: 9a90 98bd 3d65 03bb 18c2 073d 98c5 55bd
000000f0: 751a 343d 3a48 9cbc 6bd3 84be 535c ab3d
00000100: 987a 083c 3e48 d9bc 4c64 81bd 0940 433d
00000110: ae12 15bd dea1 bebc 8ee6 85bd d4e4 223d
00000120: 7560 5cbd 0aea 40bc 8a7f 473d 105d 8f3c
00000130: 367d 05bd 0b45 2bbd 302b f93b be8f 6bbd
00000140: 544a fcbc 86bb 72bd 5bb5 06bc b3e6 2bbd
00000150: 6854 2f3d 7853 403d 325d 39bd 4755 7dbd
00000160: 5a92 31bd c75f 833d 2aa0 81bd ef37 0cbd
00000170: 4881 823c 4918 97bd 6575 56bd 3b86 713c
00000180: e4e3 c93c 1e70 9d3c 718a 823d 18fc a3bd
00000190: 92ed 98bd b8a4 42be 80cb 77bd 504c adbb
000001a0: 3ba3 45bd 8ae0 5a3d 7df5 c8bb 8059 90bc
000001b0: e140 493d 00c6 c23c 3a80 34bd 7ed3 e23c
000001c0: a937 3fbc b1b0 da3c 2412 c2bd 9310 6fbd
000001d0: 6c0e 9abc ff8d d83d 12f3 903c 6143 a03c
000001e0: 965f 443d 1670 c9bc 2473 7ebb 7d52 e63d
000001f0: 538c ed3c 74ce 883b 40a9 e63a 1ce3 0cbe
00000200: 8ad3 5f3d 2641 493c 5ba8 df3d 4088 133d
00000210: f177 3abd 1f9e 57bc a612 16bf 5645 1abd
00000220: b9dd 87bd a4ae 903c 3b7c 9b3d 2d0c ba3d
00000230: e7ba d1bd 04b0 473d 2833 663d 5423 9ebd
00000240: 622c d2be c7f0 6d3c 7b36 8ebd 403e 5e3d
00000250: 3835 8abc ee51 0bbb df73 233d a0e4 263b
00000260: cc21 00bd d625 3ebc 2fad 3dbc 7427 103d
00000270: 1379 2dbd c078 6f3c 7945 fc3c 1dca 7e3d
00000280: 5bad 91bd eab7 5bbd 3bd6 17bd a97c 88bd
00000290: f1eb 623d 70e4 793c 59ba e8bd 6468 253c
000002a0: 27a7 89bd 75c5 8fbd 49f2 18bd 9a65 e5bc
000002b0: 224e d43d 236d 063d 8892 523f ae52 80bd
000002c0: f46a b43d 2721 59bd 5bac 2d3e 543f 25bd
000002d0: c634 e03c f03e 623d a51c aa3c 9e28 c53c
000002e0: 7572 a93b c4dc 37bd 91e8 71bf 9676 073d
000002f0: 2ee5 7e3d c99f 6f3d 5825 4ebd 1484 4a3d
00000300: e766 78bd ff3d eabc e778 443d c0a9 433d
00000310: 925a 793d 6cb5 a4bc 0e61 b3ba c603 14bd

encoders.1.weight f4 [100, 200]
-0.07839031 -0.0011651843 0.005344674 0.004748203 -0.06272335 0.012909113 0.0059315553 -0.037531342
0.011292444 -0.026365329 -0.030408889 -0.041146792 0.0433134 0.028271448 -0.05417144 0.05670155
-0.02887624 -0.015904948 0.003409169 0.02402723 0.019842926 0.03644297 -0.03609401 -0.0098108165
-0.07040759 -0.042671397 -0.058193363 -0.027627029 0.04331047 -0.061103586 -0.06361983 -0.046731416
0.006682679 0.052191347 -0.042856146 -0.038862515 -0.06030844 0.055384617 -0.076565735 -0.013612373
-0.030407729 -0.0033248486 0.0031211195 0.020437516 0.009094579 0.018343918 -0.054742232 -0.027732972
0.010594636 0.049271196 0.01845627 -0.07308994 0.03296075 -0.061942637 -0.010569367 0.069085754
-0.0462999 -0.004286632 -0.06783546 -0.044733115 0.05708258 0.045370393 -0.019077258 -0.07607967
0.06621715 -0.053702027 -0.012035596 0.014737079 0.051949415 0.04267255 -0.009890061 0.059992623
-0.023116183 0.058507416 0.009604111 0.062190883 -0.032462012 -0.05830336 0.03206335 0.012564895
-0.058839515 -0.052402787 -0.024373796 -0.03021067 -0.049140576 -0.015787486 0.025802128 0.04993988
-0.06834949 -0.055478673 0.07003281 -0.032207455 -0.03544551 0.064560376 0.043108705 0.04789944
-0.02559546 0.014993817 -0.02723194 -0.01646291 0.043674134 -0.06281098 0.029694058 0.02564691
0.008185045 -0.03129225 -0.05680289 0.05526993 0.06489716 0.014232554 -0.002085556 -0.032263283
-0.06261241 0.012581667 -0.020116137 0.06325223 0.010148269 0.029241713 0.05417221 -0.014897119
-0.049285825 0.024107909 -0.0019097442 0.03830734 0.018826704 0.037049834 0.05792571 0.016051793
0.058291502 0.031826783 -0.06952109 -0.073589586 0.06529961 -0.058112707 -0.001418701 0.0027373657
-0.05119486 0.01778324 0.013980488 -9.034613e-06 -0.06464873 -0.026374726 0.03601049 0.06364605
-0.022385715 0.022177346 0.055168055 -0.0040268754 0.011859236 -0.04477409 -0.035125878 -0.01387316
-0.06366156 0.037518013 0.042539246 0.027175786 0.060534116 0.034040786 0.029582003 -0.039148692
-0.052780345 -0.040655456 0.06475634 0.03978639 -0.065732814 0.007850647 0.051471554 0.029486615
-0.06892857 -0.037828505 -0.06482751 -0.044865567 -0.0076157274 0.0437118 -0.03994419 0.019597426
0.00051524845 0.0009999573 -0.04658226 -0.030012125 0.030840637 -0.058162224 0.03192862 -0.06978292
-0.015160862 0.04777404 -0.05484068 0.03604753 0.021036558 -0.0017003309 0.056796588 -0.007114239
-0.06435358 -0.018358186 0.05283514 -0.009472372 -0.0657244 0.052070998 0.003313545 0.003391157
-0.02859169 0.0046541467 -0.018754944 -0.05389589 0.053898513 0.014670681 0.041301798 0.00802397
-0.0005591559 0.054707263 -0.040516462 0.04612097 0.049280077 -0.005343899 -0.04888615 0.069841795
-0.0036498548 -0.0073124766 -0.03277408 -0.05776598 -0.032685038 -0.06685906 0.016280191 0.012254342
-0.018799093 0.026754087 -0.06843888 -0.044379555 -0.06326941 -0.054240145 -0.033859767 -0.04151946
-0.009921741 0.0036129227 -0.029907575 -0.068004705 0.058879696 0.041593075 0.064643264 -0.0057163117
-0.06988481 0.0655706 0.05492363 0.019055162 -0.06003887 0.0224578 -0.04989858 0.023342289
-0.017481247 -0.06926111 -0.005220987 -0.0080359215 0.017501697 0.056157134 0.045908004 -0.05399552
00000000: 198b a0bd 19b9 98ba 6022 af3b d096 9b3b
00000010: 1a75 80bd bf80 533c 7e5d c23b 77ba 19bd
00000020: f103 393c 1afc d7bc 101c f9bc 8a89 28bd
00000030: 6469 313d 8699 e73c dfe2 5dbd e23f 683d
00000040: dd8d ecbc 184b 82bc 5d6c 5f3b c1d4 c43c
00000050: a28d a23c 3945 153d 50d7 13bd 8cbd 20bc
00000060: db31 90bd 34c8 2ebd 2a5c 6ebd 1452 e2bc
00000070: 5266 313d c147 7abd 1d4b 82bd 7169 3fbd
00000080: 60fa da3b 98c6 553d ed89 2fbd 4d2e 1fbd
00000090: fc05 77bd fbda 623d 7fce 9cbd 6e06 5fbc
000000a0: a119 f9bc b4e5 59bb b28b 4c3b 946c a73c
000000b0: 6e01 153c fc45 963c 6439 60bd 4230 e3bc
000000c0: 2095 2d3c 98d0 493d 9b31 973c 2eb0 95bd
000000d0: da01 073d 90b7 7dbd 232b 2dbc d57c 8d3d
000000e0: f7a4 3dbd e076 8cbb 51ed 8abd 123a 37bd
000000f0: 6ccf 693d 4ed6 393d e947 9cbc a8cf 9bbd
00000100: db9c 873d a8f6 5bbd f330 45bc ca73 713c
00000110: e9c8 543d 69c9 2e3d ec09 22bc d3ba 753d
00000120: 265e bdbc 79a5 6f3d 905a 1d3c debb 7e3d
00000130: e3f6 04bd 81cf 6ebd dc54 033d fddc 4d3c
00000140: b401 71bd 4ea4 56bd 8eab c7bc 5e7c f7bc
00000150: a147 49bd c254 81bc fc5e d33c c28d 4c3d
00000160: d1fa 8bbd 9b3d 63bd 5d6d 8f3d f7eb 03bd
00000170: 502f 11bd 3b38 843d c192 303d 3432 443d
00000180: 92ad d1bc a0a8 753c 8415 dfbc 3add 86bc
00000190: a6e3 323d 0ba3 80bd f440 f33c 7819 d23c
000001a0: 911a 063c 4d2c 00bd 26aa 68bd b962 623d
000001b0: cde8 843d a82f 693c d3ad 08bb 8126 04bd
000001c0: ef3a 80bd 5623 4e3c 99ca a4bc 638a 813d
000001d0: ed44 263c 518c ef3c aee3 5d3d 0c13 74bc
000001e0: efdf 49bd f37d c53c 6250 faba 28e8 1c3d
000001f0: 763a 9a3c 91c1 173d 8243 6d3d 0d7f 833c
00000200: 12c3 6e3d cd5c 023d 1361 8ebd 23b6 96bd
00000210: cdbb 853d 9707 6ebd b5f3 b9ba 6065 333b
00000220: b4b1 51bd 28ae 913c 6b0e 653c 5e93 17b7
00000230: 8e66 84bd cf0f d8bc bc7f 133d dc58 823d
00000240: 3f62 b7bc 44ad b53c e6f7 613d e1f3 83bb
00000250: 3e4d 423c 0965 37bd 27e0 0fbd 404c 63bc
00000260: fe60 82bd 7dac 193d a23d 2e3d c19f de3c
00000270: 9ff2 773d 5a6e 0b3d f555 f23c 615a 20bd
00000280: 3430 58bd 5686 26bd f99e 843d 0ef7 223d
00000290: ed9e 86bd 00a0 003c d6d3 523d ea8d f13c
000002a0: 6c2a 8dbd 10f2 1abd 49c4 84bd f5c4 37bd
000002b0: 5a8d f9bb 250b 333d 859c 23bd c88a a03c
000002c0: bd11 073a 0011 833a 0acd 3ebd fddb f5bc
000002d0: 81a5 fc3c 833b 6ebd 96c7 023d 59ea 8ebd
000002e0: 4465 78bc b6ae 433d 9fa0 60bd 93a6 133d
000002f0: dc54 ac3c a3dd deba 8aa3 683d 901e e9bb
00000300: cfcb 83bd e863 96bc a969 583d 0232 1bbc
00000310: 849a 86bd 6648 553d 0f28 593b 2c3e 5e3b
00000320: 1f39 eabc d081 983b f8a3 99bc f0c1 5cbd
00000330: b0c4 5c3d 4c5d 703c 132c 293d f876 033c
00000340: 5194 12ba b914 603d 97f4 25bd 58e9 3c3d
00000350: e8d9 493d e01b afbb d83c 48bd 3709 8f3d
00000360: 6732 6fbb 809d efbb 1d3e 06bd 059c 6cbd
00000370: bfe0 05bd 67ed 88bd 095e 853c 70c6 483c
00000380: 8e00 9abc 632b db3c af29 8cbd 56c7 35bd
00000390: 6493 81bd ea2a 5ebd 8ab0 0abd 4f10 2abd
000003a0: cc8e 22bc c9c6 6c3b bb00 f5bc 0d46 8bbd
000003b0: d62b 713d 805d 2a3d b063 843d e64f bbbb
000003c0: c41f 8fbd e149 863d 9af7 603d 9219 9c3c
000003d0: 51eb 75bd 6cf9 b73c 7462 4cbd 5438 bf3c
000003e0: d534 8fbc c5d8 8dbd d014 abbb 19a9 03bc
000003f0: b85f 8f3c 0605 663d 080a 3c3d 682a 5dbd

encoders.1.bias f4 [100]
-0.035384588 -0.07494423 -0.12885894 -0.065874726 -0.09731813 -0.009090863 -0.09213528 0.616082
-0.037927024 -0.049844805 1.5511607 -0.04919016 1.4703362 0.13104036 -0.017236836 -0.021341795
-0.072500266 -0.13405342 0.74706733 0.03576705 -0.13182345 -0.08147507 -0.08053597 -0.034558855
-0.17964314 0.3478216 -0.067490056 -0.0042420807 -0.076012805 -0.0144757675 -0.21828642 0.1518463
-0.004535565 -0.14671773 -0.11860368 -0.63634574 -0.10374453 -0.035596114 0.5804311 -0.00831233
-0.043597516 -0.12229463 -0.034399588 -0.14321995 -0.07073923 -0.020038214 -0.0021375285 -0.008292928
0.47139046 -0.19587958 -0.080635935 -0.06179363 -0.043135412 -0.015284612 -0.0019203583 -0.030416233
-0.034590032 -0.01524634 -0.02221901 -0.49052697 -0.04505929 0.39247543 -0.11134116 -0.04305177
-0.23213966 -0.026452335 -0.3608833 -0.04852951 -0.059943072 -0.06759217 -1.1717598 -0.041314736
-0.0031985978 -0.077435315 -0.0011344888 -0.016001204 -0.11781814 -0.05574306 -0.47380593 -0.36049196
-0.07931162 -0.027699208 -0.13651863 -0.06830213 -0.023739828 -0.15770349 -0.100691415 -0.098271474
-0.058938075 0.45665944 -0.094393454 -0.027278036 -0.11992306 -0.07738123 -0.12110434 1.5523283
-0.07030656 -0.092915624 -0.40492982 -0.07877088
00000000: 6eef 10bd 5c7c 99bd 99f3 03be 54e9 86bd
00000010: ba4e c7bd d8f1 14bc 6cb1 bcbd 8db7 1d3f
00000020: 5e59 1bbd 112a 4cbd 6f8c c63f 9f7b 49bd
00000030: fa33 bc3f 722f 063e 4434 8dbc fdd4 aebc
00000040: 057b 94bd 4d45 09be ce3f 3f3f 7880 123d
00000050: bafc 06be 67dc a6bd 0bf0 a4bd 968d 0dbd
00000060: 5ff4 37be ac15 b23e 3a38 8abd 2701 8bbb
00000070: 9aac 9bbd c52b 6dbc 7a86 5fbe 997d 1b3e
00000080: 149f 94bb 2c3d 16be 7ce6 f2bd 8ee7 22bf
00000090: 0378 d4bd 3bcd 11bd 2297 143f 7030 08bc
000000a0: 4f93 32bd 9b75 fabd 95e6 0cbd 40a8 12be
000000b0: bbdf 90bd 2e27 a4bc c715 0cbb 10df 07bc
000000c0: 175a f13e a894 48be 7424 a5bd 511b 7dbd
000000d0: c2ae 30bd 4f6c 7abc 88b4 fbba 772b f9bc
000000e0: 47ae 0dbd c9cb 79bc a404 b6bc 5a26 fbbe
000000f0: 1790 38bd 8af2 c83e d606 e4bd 0e57 30bd
00000100: 05b6 6dbe 91b2 d8bc b2c5 b8be e1c6 46bd
00000110: de86 75bd c36d 8abd 3afc 95bf a439 29bd
00000120: 919f 51bb 6896 9ebd 21b3 94ba f514 83bc
00000130: a34a f1bd d652 64bd b196 f2be 6792 b8be
00000140: 216e a2bd 73e9 e2bc 8acb 0bbe fde1 8bbd
00000150: 077a c2bc 067d 21be 4d37 cebd 8e42 c9bd
00000160: 0d69 71bd 44cf e93e 5b51 c1bd 3076 dfbc
00000170: 399a f5bd 0d7a 9ebd 8d05 f8bd b2b2 c63f
00000180: e3fc 8fbd 8c4a bebd f652 cfbe a152 a1bd

fc_mu.weight f4 [4, 100]
0.057618305 0.036843546 -0.040733684 -0.016314046 -0.038671583 -0.042127687 0.0041379924 0.03845245
0.01596074 0.02708615 -0.021193005 -0.0640146 0.13656719 0.002120942 -0.05587588 0.046153307
0.07370168 0.050061397 -0.030225143 -0.05165733 0.0590792 -0.016995626 0.0007564472 0.043069836
-0.028858053 0.07941753 -0.0070048007 0.14922136 -0.01969395 0.031334613 -0.059444252 -0.019619394
-0.13506597 -0.012496504 -0.047613498 -0.038729947 0.0050509516 -7.793898e-05 0.0053578075 0.039729543
-0.020157948 -0.050540254 -0.024058895 -0.033546712 0.1114167 0.016983515 0.04951162 -0.074182354
0.092328 -0.16255322 -0.11896643 -0.055493765 0.066699065 -0.056669597 -0.095535055 -0.01527349
0.014871976 -0.02201111 0.0032397537 0.045091998 0.0301483 0.08066863 0.044013944 -0.027870685
0.021662286 -0.12670487 0.00013335941 0.052073188 -0.05980043 -0.065884076 -0.023317935 -0.0053790184
-0.05560581 0.0853197 -0.14197364 0.10521661 -0.021162262 0.00846238 0.01910471 0.029819718
-0.03262024 0.0037462981 0.0035275323 -0.03669586 -0.005012635 -0.019140683 0.029533327 0.09677249
-0.04093626 0.0013734244 -0.015156655 -0.04335344 -0.06305595 0.056523893 0.02907077 -0.110687375
-0.01433678 0.06945719 0.0056374287 0.09353942 0.055627394 0.0034277774 -0.05331994 0.09230153
0.09583914 0.08615019 0.03173964 -0.051509492 -0.087994166 0.023145214 0.016201576 -0.0048342883
-0.12187587 0.011983565 -0.016050069 -0.006139128 -0.068233535 -0.048161216 0.045504406 0.13140988
0.114297666 0.023903906 -0.037544187 -0.08628306 -0.008633566 0.023369692 -0.0071812407 0.04335612
-0.11428003 -0.0142384395 -0.079331875 -0.009821094 0.019867042 0.05552255 0.031602897 -0.009567014
-0.07497448 0.01583539 0.018492194 -0.07228568 0.039562378 0.047528908 -0.046637073 -0.13827029
0.08194132 0.009417968 -0.040468138 0.018940756 0.053560197 0.040918805 0.05708051 -0.010459164
0.051642913 -0.0017232934 0.04334983 -0.026408365 -0.0283276 0.121797435 0.04093352 -0.027273228
0.054210916 -0.097521335 0.09250302 0.03558007 -0.1191253 -0.03282952 -0.00017709014 -0.028471421
-0.035980873 0.014499791 -0.027217496 0.06552573 0.092463866 0.053805564 -0.028560791 -0.051346455
0.006443127 -0.0228628 -0.040428683 -0.0076726438 0.07930998 0.022716813 -0.007460946 -0.010522376
0.016116425 0.045057677 -0.054883644 0.007685396 -0.057442434 0.00816868 -0.013013739 -0.021379385
0.0062468005 -0.05944926 0.09423608 0.10270953 0.006973547 -0.042213574 0.0013614707 0.040601466
0.03316734 0.0699374 0.028391898 -0.01613603 0.042926386 0.0326132 0.038646583 -0.05947721
-0.012097499 -0.0068402397 0.00016076639 -0.017284365 0.10716602 0.056266554 -0.05703163 -0.017358404
0.0724034 -0.094369836 0.028440673 0.012625713 -0.03140055 0.0062324773 -0.0016079627 0.028754715
0.008862129 -0.07743592 -0.015083357 -0.14723313 0.1353265 0.067490846 -0.015946481 -0.0012572395
-0.08686241 -0.023525104 -0.052129943 -0.002207375 -0.04156617 0.0076158973 -0.054366954 -0.04705017
0.008380372 -0.08841214 -0.019556008 0.09020303 -0.00085681654 0.046423905 -0.025346024 0.02495971
0.040981803 -0.08142289 -0.05908773 -0.10503292 0.055587664 -0.035033822 0.116825745 0.025025696
00000000: 2c01 6c3d 42e9 163d 5dd8 26bd 09a5 85bc
00000010: 1866 1ebd 158e 2cbd ff97 873b 5180 1d3d
00000020: 19c0 823c c6e3 dd3c f49c adbc 161a 83bd
00000030: 45d8 0b3e 81ff 0a3b 1bde 64bd 400b 3d3d
00000040: e8f0 963d 2e0d 4d3d b89a f7bc a396 53bd
00000050: 08fd 713d 693a 8bbc 504c 463a ff69 303d
00000060: b967 ecbc a8a5 a23d 8788 e5bb 7ccd 183e
00000070: 3555 a1bc b958 003d d17b 73bd dab8 a0bc
00000080: bc4e 0abe 23be 4cbc 5f06 43bd 4ba3 1ebd
00000090: 7482 a53b 2c73 a3b8 8c90 af3b 72bb 223d
000000a0: 4822 a5bc 4c03 4fbd 2917 c5bc 4768 09bd
000000b0: 702e e43d 0321 8b3c b2cc 4a3d ebec 97bd
000000c0: 7616 bd3d 5a74 26be aca4 f3bd 6e4d 63bd
000000d0: 8599 883d 611e 68bd e2a7 c3bd a93d 7abc
000000e0: 97a9 733c a550 b4bc 0c52 543b 63b2 383d
000000f0: 91f9 f63c 9835 a53d f747 343d 1051 e4bc
00000100: 1b75 b13c ecbe 01be 65d6 0b39 b24a 553d
00000110: 4cf1 74bd 3bee 86bd 4105 bfbc 7a42 b0bb
00000120: ebc2 63bd 18bc ae3d 8a61 11be ce7b d73d
00000130: 7b5c adbc cba5 0a3c 7b81 9c3c 7b48 f43c
00000140: cd9c 05bd 7484 753b 2c2e 673b 664e 16bd
00000150: 0841 a4bb eccc 9cbc e0ef f13c a830 c63d
00000160: c8ac 27bd 7a04 b43a 9e53 78bc 6093 31bd
00000170: 7a23 81bd 9985 673d d325 ee3c 10b0 e2bd
00000180: d0e4 6abc 923f 8e3d 2eba b83b 9891 bf3d
00000190: 8dd9 633d 90a4 603b 0266 5abd 9608 bd3d
000001a0: 5047 c43d 836f b03d 6d01 023d 9efb 52bd
000001b0: 4936 b4bd 089b bd3c 2bb9 843c f368 9ebb
000001c0: 0e9a f9bd b756 443c 6f7b 83bc bd2a c9bb
000001d0: 06be 8bbd b244 45bd d462 3a3d 5090 063e
000001e0: e514 ea3d 20d2 c33c efc7 19bd 2cb5 b0bd
000001f0: cd73 0dbc cc71 bf3c 9d50 ebbb 3096 313d
00000200: a60b eabd 5848 69bc c078 a2bd a7e8 20bc
00000210: 35c0 a23c 9d6b 633d 0a72 013d f7be 1cbc
00000220: 388c 99bd 38b9 813c f17c 973c 840a 94bd
00000230: 290c 223d acad 423d 8406 3fbd ba96 0dbe
00000240: dad0 a73d d24d 1a3c ebc1 25bd a529 9b3c
00000250: f061 5b3d 7a9a 273d 41cd 693d ea5c 2bbc
00000260: 8587 533d 22e0 e1ba 978f 313d 5b56 d8bc
00000270: 480f e8bc ef70 f93d e8a9 273d 1b6c dfbc
00000280: 440c 5e3d 44b9 c7bd 3972 bd3d 68bc 113d
00000290: f7f7 f3bd 3f78 06bd 46b1 39b9 e63c e9bc
000002a0: ae60 13bd 8890 6d3c 3af7 debc 5b32 863d
000002b0: b25d bd3d 3963 5c3d 52f8 e9bc a950 52bd
000002c0: de20 d33b c44a bbbc 8c98 25bd cd6a fbbb
000002d0: 456d a23d 9c18 ba3c f47a f4bb 0b66 2cbc
000002e0: 9806 843c 668e 383d accd 60bd c6d5 fb3b
000002f0: c248 6bbd edd5 053c 9437 55bc d223 afbc
00000300: f6b1 cc3b 1181 73bd d9fe c03d 6059 d23d
00000310: 5a82 e43b 24e8 2cbd 6073 b23a b94d 263d
00000320: 7ada 073d 573b 8f3d 2096 e83c b52f 84bc
00000330: 94d3 2f3d 6b95 053d e14b 1e3d 609e 73bd
00000340: 9734 46bc 1724 e0bb 6693 2839 f197 8dbc
00000350: dc79 db3d c277 663d 009a 69bd 3633 8ebc
00000360: 3c48 943d f944 c1bd 6afc e83c 14dc 4e3c
00000370: dd9d 00bd cf39 cc3b 46c2 d2ba 028f eb3c
00000380: 7732 113c b996 9ebd 2f20 77bc 48c4 16be
00000390: 0893 0a3e a438 8a3d 32a2 82bc f5c9 a4ba
000003a0: ebe4 b1bd b8b7 c0bc 3586 55bd 9ba9 10bb
000003b0: 4a41 2abd c78e f93b e2af 5ebd aeb7 40bd
000003c0: d44d 093c 6d11 b5bd ec33 a0bc 5ebc b83d
000003d0: fc9b 60ba fe26 3e3d 77a2 cfbc 4e78 cc3c
000003e0: 89dc 273d 0bc1 a6bd fa05 72bd 801b d7bd
000003f0: e4af 633d a07f 0fbd 5642 ef3d b002 cd3c

fc_mu.bias f4 [4]
0.0008719978 3.6945345e-05 -0.0036776084 0.1162572
00000000: c896 643a c3f5 1a38 0804 71bb 4118 ee3d

fc_logvar.weight f4 [4, 100]
0.021294951 -0.0021659776 -0.035399843 0.063077144 0.0017010849 8.327406e-05 -0.019826647 0.25763726
-0.07752398 -0.022161936 -0.036101878 -0.095802985 0.017331185 0.061546806 0.039894048 -0.0436697
-0.022079779 0.090631634 -0.0719435 -0.021990009 0.018271396 -0.025038369 -0.017977392 -0.09464637
0.07157631 -0.11207404 -0.02711147 0.06123467 -0.043237563 0.0060530854 0.009586754 -0.023962937
-0.05046455 0.025944898 0.09572817 -0.023064472 0.03429404 -0.0094311405 -0.022353917 -0.07031893
0.018784888 -0.10322108 0.052954044 0.066438794 -0.08984912 0.018419778 -0.014270088 -0.03147094
0.118797325 -0.07182473 0.10029855 -0.0044608903 -0.021124812 -0.02747058 -0.05305864 0.006814248
-0.006704738 0.005416384 0.08207441 0.024802258 0.095351554 -0.11703145 -0.0036694708 0.020589573
0.09007575 0.02915115 0.0003984809 0.027425408 0.028368963 -0.06240283 0.09610873 -0.05260976
-0.05751714 0.090817 0.016924337 -0.015293711 0.012534224 -0.00035545958 0.08407144 0.038443964
-0.07787196 0.016970236 -0.01869851 -0.070581056 -0.038109735 0.049093693 -0.015517496 -0.015321025
0.10810518 0.03789732 0.0052807624 -0.0508571 -0.008539674 0.062998 0.004443664 -0.019799056
-0.012872544 -0.07502613 0.0005577661 0.014708811 0.07195715 -0.019388761 0.08435526 0.038351394
0.009249689 0.0018239508 -0.013444925 0.24832016 -0.083527245 -0.013602775 -0.018937143 -0.09638528
0.008619238 0.0040095155 -0.002175248 0.019649437 0.16701542 -0.024817208 0.00025436908 -0.07021732
-0.07353069 0.008532813 -0.0037892228 0.10444687 0.0016126609 -0.14615037 0.03977719 0.11856271
0.08288813 0.06464785 0.07028311 -0.040877253 -0.04537525 -0.053101923 -0.05217914 -0.025973396
-0.010839608 0.025144035 0.0022085973 0.029147789 0.07486745 0.06367803 0.032541078 -0.006405766
0.08916724 0.029429995 0.065649085 -0.024866646 -0.028458994 0.15933761 0.13684124 -0.009844794
-0.021952705 0.009966123 0.07501902 -0.007194888 0.008399906 -0.055581324 -0.095688894 0.025757564
-0.00059505965 -0.1150218 -0.00996615 -0.032675963 0.1267364 0.02848521 0.00056407275 0.021700976
0.02927212 -0.0006277743 -0.019044848 -3.7910977e-05 -0.08439426 0.059924867 0.01105582 0.038822312
0.01637752 -0.023945512 0.015991095 0.0050667264 -0.059377965 -0.015804766 -0.024091573 -0.07308115
0.007225911 -0.01913163 -0.0036843307 0.048488494 0.18163694 0.017229367 -0.039347045 -0.03093264
-0.027730238 0.09415495 -0.015273142 -0.008798672 -0.0010961799 -0.07766991 0.0005422514 -0.12226371
-0.0870852 0.08775663 0.03484845 0.120680355 0.07862949 -0.035857774 -0.0017737397 0.13740034
0.050647378 0.0014386124 -0.008660881 -0.048471246 -0.053466722 0.078362554 -0.020977233 -0.027609825
0.07460827 -0.026759317 -0.043682966 -0.08950819 0.11338152 0.0007243865 0.014384283 -0.023636265
-0.012369984 -0.06955615 -0.03401809 0.19475536 -0.06914069 -0.054533374 0.009668061 -0.017847415
-0.06820657 -0.023215493 0.021909412 -0.0055521177 0.024346255 -0.05279149 -0.07810004 0.036809888
0.06072949 0.07570703 0.042479932 -0.025505174 0.01514602 0.0009422772 0.029532688 0.07794442
0.119455464 0.07801836 0.030258393 0.08132138 0.03540979 -0.005610302 0.18330988 -0.00072983786
00000000: c072 ae3c 13f3 0dbb 6dff 10bd 972e 813d
00000010: f0f6 de3a 6ca3 ae38 7e6b a2bc 08e9 833e
00000020: e4c4 9ebd f38c b5bc 90df 13bd 5b34 c4bd
00000030: 21fa 8d3c 8118 7c3d f167 233d 00df 32bd
00000040: a7e0 b4bc 149d b93d 1d57 93bd 6424 b4bc
00000050: e5ad 953c 441d cdbc 5345 93bc f5d5 c1bd
00000060: 9a96 923d 1387 e5bd e018 debc 35d1 7a3d
00000070: df19 31bd f658 c63b c311 1d3c ec4d c4bc
00000080: eab3 4ebd 658a d43c 210d c43d b4f1 bcbc
00000090: e877 0c3d 1285 1abc 901f b7bc 5f03 90bd
000000a0: c4e2 993c 9365 d3bd 57e6 583d 1011 883d
000000b0: d102 b8bd 13e5 963c 16cd 69bc ace7 00bd
000000c0: 034c f33d d818 93bd 5469 cd3d a92c 92bb
000000d0: f10d adbc fb09 e1bc 0454 59bd 0e4a df3b
000000e0: 6bb3 dbbb ec7b b13b a116 a83d 1b2e cb3c
000000f0: ad47 c33d 2fae efbd 817b 70bb 77ab a83c
00000100: a379 b83d 64ce ee3c 33eb d039 40ab e03c
00000110: 0766 e83c 1c9a 7fbd a7d4 c43d 557d 57bd
00000120: 1897 6bbd 43fe b93d e8a4 8a3c 7992 7abc
00000130: 595c 4d3c fa5c bab9 a62d ac3d 6b77 1d3d
00000140: 567b 9fbd 2a05 8b3c 9e2d 99bc cd8c 90bd
00000150: f418 1cbd 7816 493d 183d 7ebc 0905 7bbc
00000160: 4066 dd3d 383a 1b3d 3f0a ad3b 894f 50bd
00000170: fde9 0bbc 1805 813d 289c 913b a131 a2bc
00000180: 5de7 52bc 4da7 99bd 0d37 123a 3afd 703c
00000190: 455e 933d 2ed5 9ebc 73c2 ac3d 5a16 1d3d
000001a0: 028c 173c a211 ef3a 1a48 5cbc a447 7e3e
000001b0: 5510 abbd 2cde 5ebc 1122 9bbc a565 c5bd
000001c0: b437 0d3c 4162 833b 9b8e 0ebb dbf7 a03c
000001d0: 1706 2b3e 754d cbbc d75c 8539 19ce 8fbd
000001e0: 4297 96bd 36cd 0b3c 9c54 78bb 3ee8 d53d
000001f0: ec5f d33a 71a8 15be 68ed 223d 02d1 f23d
00000200: 40c1 a93d 1866 843d 97f0 8f3d e86e 27bd
00000210: 66db 39bd 6781 59bd cbb9 55bd 29c6 d4bc
00000220: 9c98 31bc ddfa cd3c 1dbe 103b 58c7 ee3c
00000230: 1b54 993d a169 823d cb49 053d 76e7 d1bb
00000240: 509d b63d 2c17 f13c 0773 863d 23b5 cbbc
00000250: d622 e9bc 6629 233e 1c20 0c3e 0f4c 21bc
00000260: 29d6 b3bc f348 233c 92a3 993d 18c3 ebbb
00000270: c29f 093c 3ea9 63bd 8af8 c3bd 8701 d33c
00000280: c7fd 1bba 8d90 ebbd 1049 23bc 3bd7 05bd
00000290: 30c7 013e d159 e93c 48de 133a 3fc6 b13c
000002a0: 16cc ef3c 3891 24ba f103 9cbc 9a02 1fb8
000002b0: e6d6 acbd c773 753d 7823 353c 2504 1f3d
000002c0: 262a 863c 6129 c4bc c2ff 823c c806 a63b
000002d0: 4f36 73bd ff78 81bc b15b c5bc 92ab 95bd
000002e0: 56c7 ec3b f0b9 9cbc d074 71bb df9b 463d
000002f0: 09ff 393e 9a24 8d3c 5e2a 21bd 7366 fdbc
00000300: 862a e3bc 4fd4 c03d 333c 7abc 4e28 10bc
00000310: b2ad 8fba 6711 9fbd e025 0e3a 6565 fabd
00000320: ba59 b2bd bfb9 b33d 40bd 0e3d 4327 f73d
00000330: 8008 a13d 9adf 12bd d47c e8ba adb2 0c3e
00000340: a073 4f3d d28f bc3a 5ee6 0dbc c989 46bd
00000350: ecff 5abd 8c7c a03d 72d8 abbc 002e e2bc
00000360: 38cc 983d 5b36 dbbc e9ec 32bd 1250 b7bd
00000370: 9234 e83d c1e4 3d3a 0eac 6b3c d7a0 c1bc
00000380: 79ab 4abc 7473 8ebd 8e56 0bbd f36d 473e
00000390: a299 8dbd 635e 5fbd c966 1e3c be34 92bc
000003a0: e3af 8bbd 6b2e bebc 5e7b b33c 8aee b5bb
000003b0: cc71 c73c e43b 58bd eaf2 9fbd f7c5 163d
000003c0: 7cbf 783d 4a0c 9b3d 70ff 2d3d 3af0 d0bc
000003d0: 0327 783c 2703 773a 89ee f13c 53a1 9f3d
000003e0: 11a5 f43d 17c8 9f3d 73e0 f73c d38b a63d
000003f0: db09 113d a0d6 b7bb 96b5 3b3e 9752 3fba

fc_logvar.bias f4 [4]
-0.0024280548 -0.0007437389 -0.00096526725 -0.38877267
00000000: 0020 1fbb 79f7 42ba fd09 7dba 360d c7be

decoders.0.weight f4 [100, 6]
0.006550854 -0.00014241486 0.00013354595 0.005797653 -0.15105349 -0.045388933 -0.0062689357 0.019123184
0.0020188815 0.018974807 -0.70893633 -0.40230134 -0.04611667 0.016420767 -0.033694375 0.025331717
0.15665978 -0.2791238 -0.037118774 0.0063440353 -0.019131871 -0.017470777 0.0768354 -0.20260441
-0.0003829386 0.005497786 -0.0079807155 -0.022610934 1.2083977 0.59565896 -0.0075753443 -0.0075409547
0.0010225611 -0.015951503 0.025398117 -0.49583197 -0.0047035743 -0.0050955485 0.028856933 0.0038415296
-0.6124139 -0.4631148 -3.9684488e-05 0.002725157 -0.011643223 -0.00087893277 0.1488676 -0.50156873
0.0006044414 -0.0011712051 0.00027297987 -0.0016715178 -0.059710834 1.0549297 -0.038918756 -0.019207386
0.019168267 -0.44985425 -0.16876452 -2.027124 0.008057352 0.004020053 0.0008502885 0.0050412235
0.06668966 0.10492878 -0.0017187932 9.2854854e-05 0.0016256493 0.0058563356 0.93107045 -0.25488546
-0.004943299 0.0015393371 0.0031674323 0.0011207238 -0.061557606 -0.0031049226 0.0009719372 0.0010590984
-0.003654742 0.007930689 -0.37473783 -0.16986464 0.004551698 -0.0030793278 0.012031471 0.0077669322
-0.6064742 -0.0860989 -0.01410062 -0.017858895 -0.004370992 -0.02215599 -0.09865223 0.14735602
-0.0032438743 -0.0005013401 0.0004991547 0.0007185314 -0.37654266 -1.291954 -0.0028635673 -0.00070870895
-0.013113341 -0.013570583 -0.20331931 0.2718004 0.008187243 0.0062295273 0.009770084 0.004268181
0.9605427 -3.2576058 0.023069566 -0.0020651668 0.02152697 -0.04654462 -0.08092259 -0.566408
-0.0073375595 -0.0031774556 -0.0037942536 -0.0017914238 0.20105264 -6.541383 0.0032531228 2.9170258e-05
0.0005833264 -0.0039908355 1.3094356 0.51439726 0.0035172268 -0.013503654 0.0038503688 -0.019850476
0.16028273 -1.2320102 0.0041183126 -0.0084451735 -0.000101478385 0.046106335 0.042566013 -0.15166664
-0.0028175039 -0.00380975 -0.00060476386 -0.00756162 1.380429 0.6754069 -0.0089767035 0.024459016
-0.0033126357 -0.006974213 -0.4503604 -0.12334003 -0.0074854987 0.0068727983 -0.009491864 -0.0033997956
-0.6408826 0.8642566 -0.0014597018 -0.0007286472 0.012250662 -0.02950577 0.026587732 -0.67602265
0.0057023377 0.0027106297 -0.0026690112 0.0048978208 1.0419452 -2.3167245 -0.012046325 0.008351905
-0.008013828 -0.011858944 -0.105928004 0.26212904 -0.020849926 0.0014860749 0.0023330508 -0.009838782
-0.036877293 -0.52244925 0.0003223298 0.00016304864 0.0034373763 0.0026569364 -0.5247858 0.4995798
-0.0003170107 0.005448868 0.0100355875 -0.3541627 0.8009864 0.3825086 0.027176239 0.018797267
0.013693374 -0.006025689 -0.5232836 -0.006801858 -0.0046139797 0.02882606 -0.0022474423 -0.016683716
-0.1743087 -0.109932736 -0.0019079142 -0.0014870161 -0.0019106019 -0.0027227483 -0.7694727 0.71711063
0.0001830366 0.004364035 0.0052079437 -0.0029892614 0.80112994 -3.0060954 -0.005076945 -0.0017139404
0.0051705237 -0.00922934 -0.50829226 1.257711 -0.025876112 -0.0044215056 0.019195374 -0.003550361
0.42431316 -0.35453296 0.07588892 0.02018559 -0.023235379 -0.012034254 -0.5202547 -0.8090036
0.00066794734 0.0008921605 -0.0017192856 0.0013222465 0.07745846 0.0018772605 0.0008544332 0.013180961
0.007158891 -0.010043632 -0.029492702 -0.4730421 -0.009361572 -0.006292863 -0.0031293228 0.032556385
00000000: 8ca8 d63b 3355 15b9 7808 0c39 3dfa bd3b
00000010: c4ad 1abe bfe9 39bd a56b cdbb 39a8 9c3c
00000020: 364f 043b 0e71 9b3c da7c 35bf 71fa cdbe
00000030: d5e4 3cbd d884 863c 1d03 0abd 7684 cf3c
00000040: 6c6b 203e 51e9 8ebe db09 18bd a0e1 cf3b
00000050: 71ba 9cbc e01e 8fbc e15b 9d3d 8877 4fbe
00000060: 26c5 c8b9 c626 b43b 8cc1 02bc 913a b9bc
00000070: c7ac 9a3f 1b7d 183f 983a f8bb 1d1a f7bb
00000080: 7507 863a baac 82bc b60f d03c b0dd fdbe
00000090: 7120 9abb 8ff8 a6bb 6065 ec3c 2cc2 7b3b
000000a0: 28c7 1cbf 621d edbe e572 26b8 8c98 323b
000000b0: 38c3 3ebc 2e68 66ba c070 183e cf66 00bf
000000c0: 6073 1e3a 1f83 99ba bd1e 8f39 d516 dbba
000000d0: 5993 74bd f007 873f 4669 1fbd cf58 9dbc
000000e0: c506 9d3c 4c53 e6be 9bd0 2cbe 66bc 01c0
000000f0: fc02 043c a6ba 833b e5e5 5e3a d930 a53b
00000100: 9794 883d e6e4 d63d 2149 e1ba 12bb c238
00000110: bd13 d53a 81e6 bf3b a25a 6e3f 5980 82be
00000120: 66fb a1bb 95c3 c93a b294 4f3b 40e5 923a
00000130: d423 7cbd f57b 4bbb 9ac9 7e3a 72d1 8a3a
00000140: 6584 6fbb b8ef 013c a3dd bfbe fff0 2dbe
00000150: 6926 953b 8cce 49bb a61f 453c c081 fe3b
00000160: e541 1bbf 9f54 b0bd 4906 67bc d14c 92bc
00000170: 8a3a 8fbb 7b80 b5bc 2e0a cabd 7fe4 163e
00000180: 2e97 54bb 5d6c 03ba b4d9 023a d35b 3c3a
00000190: 33ca c0be c05e a5bf b0aa 3bbb a7c8 39ba
000001a0: 57d9 56bc 2757 5ebc f032 50be 6c29 8b3e
000001b0: c923 063c 1021 cc3b b412 203c 19dc 8b3b
000001c0: 20e6 753f 9d7c 50c0 63fc bc3c c057 07bb
000001d0: 5459 b03c 92a5 3ebd beba a5bd 1d00 11bf
000001e0: e96f f0bb dc3c 50bb 03a9 78bb 35ce eaba
000001f0: bee0 4d3e 0253 d1c0 5832 553b a7b2 f437
00000200: 5fea 183a 8ec5 82bb 969b a73f 8aaf 033f
00000210: 4681 663b 6e3e 5dbc 7856 7c3b 779d a2bc
00000220: 2821 243e 83b2 9dbf e9f2 863b a05d 0abc
00000230: cbd0 d4b8 ffd9 3c3d b359 2e3d 804e 1bbe
00000240: dfa5 38bb 00ad 79bb 0489 1eba 77c7 f7bb
00000250: e6b1 b03f 77e7 2c3f 0613 13bc 465e c83c
00000260: ce18 59bb f087 e4bb a395 e6be b399 fcbd
00000270: ea48 f5bb 3635 e13b c383 1bbc 1bcf 5ebb
00000280: e210 24bf ec3f 5d3f 7753 bfba b002 3fba
00000290: 00b7 483c 16b6 f1bc 84ce d93c d20f 2dbf
000002a0: adda ba3b d2a4 313b 94ea 2ebb e67d a03b
000002b0: 765e 853f 3745 14c0 f35d 45bc 6ed6 083c
000002c0: 6e4c 03bc 044c 42bc c8f0 d8bd c735 863e
000002d0: 77cd aabc 66c8 c23a 19e6 183b d832 21bc
000002e0: a50c 17bd 3cbf 05bf 60fe a839 09f8 2a39
000002f0: 9b45 613b ff1f 2e3b 5d58 06bf ecc8 ff3e
00000300: 7534 a6b9 6b8c b23b 4e6c 243c d054 b5be
00000310: 720d 4d3f 2bd8 c33e b4a0 de3c bafc 993c
00000320: 2c5a 603c 2573 c5bb eaf5 05bf 1fe2 debb
00000330: de30 97bb a124 ec3c d349 13bb 4aac 88bc
00000340: fb7d 32be 6a24 e1bd fa12 faba fbe7 c2ba
00000350: 296d faba 2370 32bb 2afc 44bf 9094 373f
00000360: 83ed 3f39 2e00 8f3b 66a7 aa3b 7ce7 43bb
00000370: da16 4d3f de63 40c0 805c a6bb 4ca6 e0ba
00000380: 7f6d a93b a836 17bc 711f 02bf adfc a03f
00000390: 24fa d3bc 47e2 90bb 9e3f 9d3c 2cad 68bb
000003a0: 933f d93e 5885 b5be a66b 9b3d 405c a53c
000003b0: 1f58 bebc 522b 45bc 692f 05bf dc1a 4fbf
000003c0: 3019 2f3a e1df 693a a759 e1ba 3b4f ad3a
000003d0: 8ba2 9e3d 690e f63a 0bfc 5f3a f5f4 573c
000003e0: 2195 ea3b 0c8e 24bc ae9a f1bc 9332 f2be
000003f0: 4761 19bc 5c34 cebb 5315 4dbb d859 053d

decoders.0.bias f4 [100]
-0.044754002 -0.1078069 -0.4512759 -0.2631896 -1.3344766 -0.115461364 -0.10486849 -0.22673252
-0.31365928 -0.7514661 -0.20444049 -0.06730717 -0.02776561 -0.010993502 0.40850335 -0.43837532
0.5543017 -0.35546634 -0.28406984 -0.36622936 0.21993756 -1.1615353 0.4203425 -0.39722228
-1.4948298 -0.08553755 -0.1662059 -0.2569038 -0.34321463 -0.41913724 -0.13520974 0.187972
-1.6294651 -0.17686507 -0.19654821 0.37822276 0.23685342 -0.7801379 -0.5344813 -0.38678297
-0.15478595 -0.06740103 -0.18825684 0.46782097 -0.40835455 -0.06620363 -1.0637214 -0.66123605
-0.34000537 -0.50890845 -0.3767881 -0.25972497 -0.93557143 -0.08411031 -0.8718833 -0.048411097
-0.22465983 -0.13808663 -0.30771533 -0.84030896 -0.5905468 -1.1555109 -1.767757 -0.17774409
-0.50756824 0.14360164 -0.8852048 -0.16868237 -0.10464086 0.6133748 -1.3961451 -0.36356577
-0.32731584 -0.5430733 -0.21957082 0.030101404 -0.27770275 -0.6353213 -0.60159147 0.6093302
-0.57570267 -0.11248251 -0.70752746 -0.36155182 -0.17396797 -1.180035 -0.12686941 -0.34871325
0.58898 0.17827736 -0.59921646 -0.68783647 -0.54111075 0.16654566 -0.34176937 -0.15797517
0.6337197 -0.36724257 -0.13842773 -0.9144667
00000000: f94f 37bd ddc9 dcbd a20d e7be cac0 86be
00000010: 21d0 aabf 0277 ecbd 4ac5 d6bd 922c 68be
00000020: f397 a0be 1560 40bf d958 51be 57d8 89bd
00000030: b474 e3bc 171e 34bc 5a27 d13e bb72 e0be
00000040: b7e6 0d3f afff b5be 9a71 91be 6a82 bbbe
00000050: 5037 613e 30ad 94bf 2237 d73e b860 cbbe
00000060: 9556 bfbf 502e afbd e131 2abe e588 83be
00000070: d4b9 afbe 2899 d6be 6c74 0abe bb7b 403e
00000080: 5092 d0bf 1e1c 35be ef43 49be 6aa6 c13e
00000090: b489 723e 1eb7 47bf c4d3 08bf 6b08 c6be
000000a0: 3580 1ebe 8d09 8abd 67c6 40be 3b86 ef3e
000000b0: d913 d1be c595 87bd 0628 88bf c446 29bf
000000c0: 2f15 aebe d347 02bf 5fea c0be acfa 84be
000000d0: 9c81 6fbf 0742 acbd be33 5fbf b74a 46bd
000000e0: 3a0d 66be 9566 0dbe dd8c 9dbe 7d1e 57bf
000000f0: 132e 17bf c8e7 93bf dd45 e2bf 8c02 36be
00000100: feef 01bf 4f0c 133e c89c 62bf 12bb 2cbe
00000110: f24d d6bd 2206 1d3f e2b4 b2bf 4b25 babe
00000120: f195 a7be da06 0bbf 2cd7 60be 3897 f63c
00000130: 0e2f 8ebe 6ba4 22bf e601 1abf 10fd 1b3f
00000140: 4061 13bf 3b5d e6bd 8520 35bf 521d b9be
00000150: a924 32be 630b 97bf 0eea 01be 8b8a b2be
00000160: 65c7 163f 578e 363e 4066 19bf 0d16 30bf
00000170: 3c86 0abf f28a 2a3e 65fc aebe 3ec4 21be
00000180: 743b 223f 3807 bcbe 00c0 0dbe 7d1a 6abf

decoders.1.weight f4 [200, 100]
-0.16788931 -0.094772235 0.033325337 0.07957572 -0.22244945 -0.07403122 -0.22130343 0.078695856
-0.1305339 -0.061127122 -0.006392439 -0.18615785 0.06359325 0.023756903 -0.19521381 -0.0141257625
0.002687446 -0.23814599 -0.0058033527 -0.040691927 -0.12446381 -0.004653753 -0.12848185 0.070946276
-0.14749941 -0.019577594 -0.12018004 0.03907331 0.014762813 -0.24578042 -0.07321337 -0.26347923
0.044121526 -0.09746324 0.047326796 -0.19006376 0.11754467 -0.08166768 -0.09127395 -0.031092511
0.033148617 0.0107892435 0.057117812 -0.26255396 -0.22448398 -0.06342479 0.0067755645 -0.038942322
-0.0139299445 -0.01450264 0.087222524 -0.0645109 -0.071523905 -0.034204513 -0.28416255 -0.009362208
-0.16323873 -0.10639509 0.010510709 0.06390501 -0.003746341 0.14569183 0.10358328 0.0034166793
-0.03382521 -0.00085072516 -0.09998156 -0.050391015 -0.06310905 -0.054346424 -0.047204185 0.07645216
-0.10627922 0.07421666 -0.065314956 0.006667499 -0.12484243 0.11814213 -0.2322096 -0.21542247
-0.061806757 -0.119259045 -0.0025743113 0.01947315 -0.09243344 -0.23571858 -0.05990134 0.045915995
0.026023863 -0.057871517 -0.03906311 -0.26537454 -0.19961719 -0.09438286 0.0028503237 -0.07919751
-0.20157953 0.06169251 -0.10693188 0.009085915 -0.10863677 -0.12882407 -0.05634735 -0.036950875
0.419131 -0.037443798 -0.19527413 -0.04762174 -0.04783781 0.08163024 0.02805075 -0.2627568
0.056791235 0.0105081145 -0.1629018 0.0905048 -0.18058199 0.022352317 -0.0023088953 -0.06398936
0.052535795 0.017380629 -0.17968647 0.07237443 -1.2942735 -0.0065248883 -0.04288566 -0.060594235
-0.19460784 -0.068147115 -0.01597946 -0.1771202 -0.3102009 -0.11459959 -0.03682995 -0.26859033
0.19230536 -0.08079922 -0.25255275 0.03413784 -0.058406528 -0.09991739 0.05616196 -0.02403454
-0.14864059 -0.0092176525 -0.0036111393 0.008018404 0.005047569 -0.034706 -0.18686709 -0.08129055
0.10821546 -0.094902985 -0.029314043 0.0030588864 -0.10229091 -0.14019625 -0.1289585 0.008402754
-0.024321107 0.028774356 -0.025286002 -0.021468457 -0.10194828 0.027470473 -0.13229783 -0.10851107
-0.017161705 -0.25173444 0.2640399 -0.021744324 -0.11601568 -0.085408546 -0.1305326 -0.064476125
-0.0800345 0.07722906 0.018175453 -0.12537862 0.055703703 -0.16856572 0.07751999 -0.020142062
-0.04226063 0.031242453 0.033808574 -0.0022113202 -0.048534874 -0.13155957 0.119604826 0.24188036
-0.00194692 -0.09679144 0.025606547 -0.00020697052 -0.33644518 0.0076435735 -0.014533112 -0.13752934
-0.08419002 -0.06046166 0.042241354 -0.06892778 0.067173 -0.07035385 0.00020852977 0.0016638989
-0.13034585 -0.025582366 -0.034644425 -0.105093196 -0.083109125 -0.028667876 -0.11127269 -0.08734711
-0.11193806 0.046014644 -0.038405 -0.10347239 0.024473004 0.061501894 -0.007013883 0.08020011
-0.0027050066 0.059916902 -0.14656451 0.029171549 -0.011855697 0.07708003 0.04048407 0.03763134
0.04511335 -0.08813715 -0.0056817336 0.042784154 -0.060912315 0.0463868 0.0118597895 -0.03150115
0.07356065 -0.027342606 -0.08254821 -0.09281719 -0.13204353 0.063601375 0.03849327 0.03801329
0.0056369193 0.047628436 0.059367117 0.042111453 0.023284087 -0.0521688 -0.028909877 0.071381584
00000000: 2deb 2bbe f217 c2bd 2680 083d 98f8 a23d
00000010: cac9 63be ae9d 97bd 5e9d 62be 4b2b a13d
00000020: aeaa 05be 6f60 7abd aa77 d1bb 2aa0 3ebe
00000030: 2e3d 823d d69d c23c 21e6 47be be6f 67bc
00000040: dd1f 303b 8bdc 73be 0d2a bebb 94ac 26bd
00000050: e2e6 febd 827e 98bb bf90 03be 484c 913d
00000060: 160a 17be 3161 a0bc f420 f6bd 560b 203d
00000070: badf 713c ddad 7bbe e4f0 95bd c0e6 86be
00000080: c6b8 343d cf9a c7bd bed9 413d 13a0 42be
00000090: 43bb f03d 6241 a7bd d6ed babd b9b5 febc
000000a0: d8c6 073d 5ec5 303c 5ef4 693d 796d 86be
000000b0: 21df 65be dbe4 81bd 8e05 de3b fc81 1fbd
000000c0: 6c3a 64bc 7b9c 6dbc b9a1 b23d 4a1e 84bd
000000d0: 207b 92bd 081a 0cbd c17d 91be f263 19bc
000000e0: 0e28 27be abe5 d9bd 1c35 2c3c a1e0 823d
000000f0: 2c85 75bb 3d30 153e 7923 d43d 5eea 5f3b
00000100: 4e8c 0abd 3303 5fba 22c3 ccbd cf66 4ebd
00000110: 513f 81bd 5b9a 5ebd 2d59 41bd f392 9c3d
00000120: eba8 d9bd e7fe 973d d9c3 85bd 097b da3b
00000130: 63ad ffbd 80f4 f13d 5ac8 6dbe b597 5cbe
00000140: 1529 7dbd 163e f4bd c7b5 28bb 2886 9f3c
00000150: be4d bdbd 3660 71be 1c5b 75bd 6912 3c3d
00000160: ff2f d53c af0a 6dbd a400 20bd 2cdf 87be
00000170: 7368 4cbe cd4b c1bd 7fcc 3a3b 4e32 a2bd
00000180: dd6a 4ebe 49b1 7c3d 1aff dabd 17dd 143c
00000190: f47c debd 75ea 03be 7bcc 66bd cd59 17bd
000001a0: 5798 d63e ab5e 19bd f1f5 47be 030f 43bd
000001b0: 94f1 43bd c12d a73d b0ca e53c 0f88 86be
000001c0: ed9d 683d 3a2a 2c3c bbcf 26be 955a b93d
000001d0: 7cea 38be 351c b73c d650 17bb db0c 83bd
000001e0: c62f 573d d261 8e3c bbff 37be 0c39 943d
000001f0: c1aa a5bf bbce d5bb e0a8 2fbd a931 78bd
00000200: 4747 47be b790 8bbd 5be7 82bc ff5e 35be
00000210: a7d2 9ebe 31b3 eabd 00db 16bd ac84 89be
00000220: b2eb 443e 107a a5bd 984e 81be 1fd4 0b3d
00000230: af3b 6fbd 7da1 ccbd 150a 663d 15e4 c4bc
00000240: 3d35 18be a305 17bc dda8 6cbb a05f 033c
00000250: 1466 a53b e127 0ebd 165a 3fbe a97b a6bd
00000260: 11a0 dd3d 7f5c c2bd 0124 f0bc 9977 483b
00000270: e67d d1bd 9b8f 0fbe b20d 04be b4ab 093c
00000280: 0f3d c7bc 33b8 eb3c 9724 cfbc 9ede afbc
00000290: 43ca d0bd c209 e13c 1579 07be 0d3b debd
000002a0: b496 8cbc 56e3 80be 3d30 873e 2721 b2bc
000002b0: a199 edbd adea aebd 57aa 05be 0f0c 84bd
000002c0: 21e9 a3bd 452a 9e3d b0e4 943c 4163 00be
000002d0: 9129 643d 7e9c 2cbe cdc2 9e3d f700 a5bc
000002e0: 7b19 2dbd 2cf0 ff3c dc7a 0a3d cceb 10bb
000002f0: 81cc 46bd 8db7 06be 60f3 f43d 7caf 773e
00000300: cb2f ffba 973a c6bd d2c4 d13c 3a06 59b9
00000310: 8b42 acbe f176 fa3b 4a1c 6ebc 7ed4 0cbe
00000320: d16b acbd a5a6 77bd 4505 2d3d 022a 8dbd
00000330: ff91 893d ae15 90bd c9a8 5a39 2f17 da3a
00000340: 6279 05be 1c92 d1bc 50e7 0dbd 1a3b d7bd
00000350: 1e35 aabd e5d8 eabc f0e2 e3bd 0be3 b2bd
00000360: c83f e5bd da79 3c3d 904e 1dbd 55e9 d3bd
00000370: 9c7b c83c 69e9 7b3d b7d4 e5bb f53f a43d
00000380: 7b46 31bb 6d6b 753d 0215 16be 2cf9 ee3c
00000390: 663e 42bc 23dc 9d3d a0d2 253d 5223 1a3d
000003a0: c7c8 383d 4081 b4bd d62d babb 703e 2f3d
000003b0: 317f 79bd 1600 3e3d 904f 423c 5a07 01bd
000003c0: f7a6 963d 9afd dfbc 090f a9bd f016 bebd
000003d0: 6b36 07be 7041 823d 1eab 1d3d d3b3 1b3d
000003e0: e8b5 b83b 0916 433d ef2a 733d 0f7d 2c3d
000003f0: 45be be3c f4ae 55bd 68d4 ecbc 8230 923d
