m2_afd_cvae/Condition3 ld/best_cvae.pth (torch, 492496 bytes, 14 tensors)

encoders.0.weight f4 [200, 200]
00000000: 6e0e 9a3c 0729 f8bc 1227 e4bc e21f a3bc
00000010: bcac 02bc 01d9 2bbd 8480 5dbb cce0 11bd
00000020: 13b1 763d 3a69 753b 8768 143d 6398 7b3c
00000030: 753b 98bd e009 dcbb 5e60 51bc 83a6 d2bc
00000040: 24e6 0a3d a040 d8bb 9426 9bbd bb45 23bb
00000050: b905 1bbc f46a f8bc 86c6 113d 7f95 e7bc
00000060: 01e7 78bd 2c96 d93c e343 a3bc d282 613d
00000070: 7d7a 62bd 6868 76bd 86e1 72bd fda3 1a3c
00000080: a02d ecbc e9c8 e03c a428 333b a700 68bc
00000090: 4071 d5bc e7c2 023d ca7a 82bd eec2 6ebd
000000a0: 5dc5 223d cd43 77bc ed40 013d 48ac a93c
000000b0: 54ee 683d db5f 99bc 5201 6c3d 988a 77bb
000000c0: c9e6 8abd bec7 d63c dde9 b93c 5c06 9ebd
000000d0: 2c7a 4cbc 1348 1b3d 2d4f 4cbd 3d24 223c
000000e0: 645e b5bc 9e46 2a3d b5d3 c8bc 026e 883c
000000f0: 5501 9d3c 06b2 263d 4058 683d f5f9 9c3c
00000100: 2173 7abd 5597 2d3d 4b82 3cbc 23fb 673d
00000110: fbd1 823c c1ca 6ebd 8a6d 7fbb 39a7 80bd
00000120: 973d 2d3d 0da6 82bd eece 86bd c95b 613c
00000130: 51c9 51bc 5692 8c3c 0f8d 393d db15 98bd
00000140: b4ce 15bd 5137 81bc 2455 a3bd d976 ad3b
00000150: 647f 453d 7a54 223d 3675 483c dec8 d4bc
00000160: 156c 0fbd c7da 223d f006 7c3d bf95 4ebd
00000170: 4441 6bbc 1329 4bbc 0cad 2fbc 3e80 51b9
00000180: 1702 f0bc e47f 163d 3482 303d 27fb 893c
00000190: 62e6 033c 721a 533d 29c0 86bd 0a7c f13c
000001a0: 1f9f 54bd 079f a6bb 4aae 95bd f541 5fbc
000001b0: 1ab0 6abd fdca 21bd c412 9dbd bfa8 873c
000001c0: ef56 dfbc eb21 4bbd e48a 17bd 9d93 96bb
000001d0: c7f2 463d d9fc 0cbd e9f8 613c e8e2 45bb
000001e0: 59a4 a9b9 07db 953c 7380 16bd 2cdf 3bbd
000001f0: 2914 4a3d bc44 743b 075e 83bd 8e64 253c
00000200: 4de3 65bd 539d 223d 2a05 84bd 7120 22bd
00000210: e6ff 213d 26ad 8cbd adc6 28bd 0898 153d
00000220: 229b 073d 5ff4 3fbd 1d4d 7ebd 7357 2f3d
00000230: bc98 233d c546 d73c 8853 a2bc 8264 55bd
00000240: 762e 063c e1d4 533d 51cf e2bc 5660 dbbc
00000250: f2e2 3bbc ea3d 67bd 172e 603d 7930 eb3c
00000260: 5ce0 de3c 0823 41bd c184 5abc 98bf e53b
00000270: 624b 9cbc 4e24 47bb 95e1 70bd dcac 68bc
00000280: 06aa 97bc 43fd 91bd 3f03 4a3d d288 1eba
00000290: 99d7 e33c 0315 92bd 7ab9 6abd e119 9fbb
000002a0: f152 cabc dac0 2dbd 6e00 663d b9fb 4d3c
000002b0: 9b9d 93bd 21b3 6a3d 82a5 a53c a8b9 8fbd
000002c0: 618a 683d d533 3ebd 33e6 dfbc cdf5 75bd
000002d0: 09b2 4cbd 6c86 5cbc f0bc 483d 3674 80bd
000002e0: b1d7 bdbc dc91 ccba 3d95 0ebd c0b0 763c
000002f0: 6a49 923c 5016 523d e254 09bd ecc8 0abc
00000300: 8529 c23c 642d 453d da43 a03c 8726 e73c
00000310: 196c 543b d7cc 433d 05c5 ccbb 9f62 8dbd
00000320: 0037 033c 54ed 3e3d dfb6 5ebd 9007 d6bb
00000330: 0013 593d 5802 073c 800d 633c e09f d4bb
00000340: 190c 8fbd 8c3f 5abc a82f 393d 985c 193c
00000350: 203b 84bd 44ee 80bd 5842 083c cccf 3dbd
00000360: 981c bcbc dc38 1abd 9cff 44bd 0087 cabc
00000370: 7884 bdbc 21e5 8a3d f7ea 0abd d937 8abd
00000380: 409a 333c 884b 503c 60ff 21bd de20 36bd
00000390: 780e abbc dcf8 d53c 90e1 9b3c 8016 c4bc
000003a0: 2109 823d c826 f13c cd94 903d 441e d33c
000003b0: 5298 b8bc d0dc f73c 0c5e ea3c 0c1a 1bbd
000003c0: 1dc6 853d db74 07bd 6ad4 41bd 088b 65bd
000003d0: 52d3 7c3d 6af2 7b3d c04b 46bb 141e 483d
000003e0: bfcd 823d 1c42 35bd 028d 583d 3aa4 513d
000003f0: 0807 15bc 9214 bfbc 24fd a3bc 0006 0339
0.018805709 -0.030293 -0.027850661 -0.019912664 -0.007975753 -0.041954998 -0.0033798525 -0.035614774
0.060227465 0.0037446753 0.036232498 0.015356156 -0.074332155 -0.0067150444 -0.012779323 -0.025714165
0.033910885 -0.006599501 -0.075757176 -0.0024913389 -0.009461814 -0.030324437 0.035589717 -0.028269527
-0.060767177 0.026560865 -0.019929832 0.0550564 -0.055292595 -0.060158163 -0.059297107 0.009438512
-0.02883035 0.027439551 0.0027337456 -0.014160312 -0.026054978 0.031924155 -0.063710764 -0.05829137
0.039739 -0.015091849 0.03155606 0.020712033 0.056867912 -0.018722465 0.057618447 -0.0037771817
-0.067823 0.026218291 0.022694523 -0.07716057 -0.0124803 0.037910532 -0.049880195 0.009896335
-0.022139736 0.041571252 -0.024515012 0.016654018 0.019165674 0.04069712 0.056724787 0.019162158
-0.06114495 0.04238065 -0.011505674 0.056635987 0.015969267 -0.05829883 -0.0038975202 -0.06281895
0.042295065 -0.06379328 -0.065824375 0.013754793 -0.012804345 0.017159622 0.04530054 -0.074260436
-0.03657408 -0.015773447 -0.07975224 0.0052937088 0.048217192 0.039631344 0.0122349765 -0.025974687
-0.035015184 0.039759424 0.061530054 -0.050435778 -0.014358822 -0.01239993 -0.01072241 -0.00019979567
-0.029297872 0.03674306 0.04309292 0.016843392 0.008050533 0.051538892 -0.065796204 0.029478092
-0.051909562 -0.0050848755 -0.073086336 -0.013626565 -0.05729685 -0.039500225 -0.07669595 0.016559957
-0.027263133 -0.049592894 -0.03699769 -0.0045952336 0.048571374 -0.03442082 0.013792255 -0.003019506
-0.0003235664 0.018292917 -0.036743592 -0.04586713 0.049335632 0.0037272414 -0.06414419 0.010094775
-0.056124974 0.039700817 -0.064462975 -0.03958172 0.039550684 -0.06868963 -0.041205097 0.03652194
0.03310693 -0.04686391 -0.06208526 0.042808007 0.03994058 0.026278863 -0.019815221 -0.052097805
0.008189788 0.05171669 -0.027686747 -0.026779335 -0.011467682 -0.05645553 0.054731455 0.028709637
0.027206592 -0.04715255 -0.013337315 0.007011365 -0.019078914 -0.003038663 -0.05880888 -0.014201369
-0.01851369 -0.07128384 0.049319502 -0.00060476095 0.027812766 -0.07132914 -0.05730579 -0.00485538
-0.024697753 -0.042420246 0.056152754 0.012572222 -0.07207795 0.057299737 0.020220522 -0.07017833
0.056772593 -0.04643615 -0.027331447 -0.060048867 -0.049974475 -0.013459783 0.04900831 -0.062721655
-0.023174139 -0.0015607434 -0.034810293 0.015056789 0.017857272 0.05129081 -0.033528216 -0.008470755
0.023701439 0.04813899 0.019563604 0.028216613 0.0032413064 0.047802772 -0.0062490725 -0.06903576
0.0080087185 0.046613052 -0.05437362 -0.0065316632 0.052996635 0.008240305 0.013858199 -0.006488785
-0.06984729 -0.013320815 0.045211464 0.009360455 -0.0645659 -0.062954456 0.008316599 -0.04634075
-0.022962853 -0.03765188 -0.04809533 -0.024722576 -0.023134455 0.06781984 -0.033915486 -0.06748933
0.010962069 0.012713321 -0.039550185 -0.04446494 -0.020880923 0.026119642 0.019028455 -0.02393651
0.063493975 0.029437438 0.070596315 0.025771268 -0.02253357 0.030256659 0.028609298 -0.037866637
0.06531928 -0.033070426 -0.047321714 -0.056040794 0.06172497 0.06151048 -0.0030257553 0.04885681
0.06386899 -0.0442525 0.05286885 0.05118201 -0.009095915 -0.023325238 -0.020018168 0.00012495369

encoders.0.bias f4 [200]
00000000: 79c4 bdbc cfe9 8fbd 4a0b 96bd e033 06bc
00000010: 9e59 9abd 4153 393c b159 25bd e222 633b
00000020: bab6 86bd 82d2 87bd 6046 2c3e b663 dd3c
00000030: df78 323d 7e7c a2bd d827 663d ca5d 50bd
00000040: 1c61 27bd 023d b7bc ac3c e1bc d4e0 59bc
00000050: c0f5 89bd 25c3 69be 78a3 0abd a438 43bd
00000060: b0fe e5bb 081b 97bd 4ff5 debb 9b78 0ebd
00000070: dce4 20bf f358 c63d ecdb 433d 24d5 e13d
00000080: 293b 86bc b51a 583d 1f59 bf3c 035b 8bbd
00000090: 429f 9d3b 75f8 393d 1c9b c23c 3779 15bd
000000a0: 4bd3 9fbc 3c5d 9e3c 179c 803c 0eac 473d
000000b0: e8ca a13c 4a65 06bf 3bfe acbc 2cda 28bd
000000c0: 4780 d83d 52ac 62bd 712a 803c 58bd e23d
000000d0: ce36 113e 9edc e13d 27f2 8d3d c716 abbd
000000e0: 01b8 833d ca5e 89bd 6b3b 803d 293b e53d
000000f0: 848d 21bc ccfc 543d 015b 65bd 13fe f33c
00000100: 37f5 463b f376 513d 7afd 3cbd b831 0d3d
00000110: dc1f be3c 99bb 1a3b a52c 86bd 477f 88bd
00000120: 20fc 48bd 38a5 66bc 4cd3 3e3d 0ce6 d8bb
00000130: a225 f93b ad39 87bd 59b0 903b 25fd 5ebd
00000140: 4533 803d 7afc 873c 4aec 153d 1724 79be
00000150: 64df 4f3d 2087 a83b b273 763d c55c 84bd
00000160: b453 873e ae0b b03c b956 8bbd 2b1c f83c
00000170: 1bcf 253d 99ab 66bd c490 f4bb 05da e6bd
00000180: d99a 6b3e 0f3e 2cbd d006 803e 6df9 81bd
00000190: ed84 183d e845 003d 8311 273c bfee 5b3c
000001a0: ae86 413d 7b8e 12bc c67b c9bc 05e2 82bd
000001b0: eb67 523e 57ac 703e 9209 123e 8cfc cd3e
000001c0: 867d c13a 7a49 0dbd 6ca6 fb3c 4098 453d
000001d0: 07be 0bbd 00d5 48be 3360 0c3d dec0 2e3d
000001e0: 0d74 ce3c 9e93 893c 366a 63bd 4e9c e9bd
000001f0: 67d2 1dbe c354 1a3f 69f2 353a b6cb 38bd
00000200: 2616 753d d80b fabc 7df9 7a3c 1379 223d
00000210: 2bb2 8d3d fcce 58bd d6c6 56bc 7795 7abd
00000220: bcfa 373d 3cd2 173d 753f 46bd e587 2fbf
00000230: 5d6d 6abd 026f 543d 2830 40bb 5a37 d23c
00000240: e19f 4f3d f43b 5fbc 9d02 81bd 4804 e3bc
00000250: 44f3 583d 28dd 9cbd b337 033d cec9 553c
00000260: d017 6cbc ec88 ec3c 99b4 2b3d b9c5 a3bb
00000270: 4ad8 3ebd 6af8 d03d 8428 5abd e05f 0cbd
00000280: f001 473d bae8 5abd 4c85 593d 9fbb 47bd
00000290: f0b5 8c3c 589c ac3c 983b 153d 7e25 5a3d
000002a0: ff44 02bf eec2 733d c2f6 c2bd bb15 673d
000002b0: 8a31 293d 20a9 38bd c07b 3cbd 62df 16bd
000002c0: fb20 4d3d 0bd0 723c c685 52bd d696 47bb
000002d0: afc8 7fbd 2ac7 ddbc d8d3 4b3c 6067 623d
000002e0: ae1f f7bb 0118 123d bf86 d6bd bb20 d33c
000002f0: d90c 8e3d fb09 26bb 6b11 98bd cae2 633d
00000300: 1f78 c63c 6914 723d e6c9 1d3e 84af ddbb
00000310: ab59 d4bc e898 453c dec1 013d 9864 7cbd
-0.023164975 -0.07027017 -0.07326372 -0.008191079 -0.07536624 0.011311353 -0.04036874 0.0034658243
-0.06577821 -0.06631948 0.16823721 0.027025085 0.043572303 -0.07933901 0.05619034 -0.050870694
-0.040864095 -0.022367958 -0.02749475 -0.013298232 -0.06736326 -0.22828348 -0.033847302 -0.04766144
-0.0070188865 -0.07378203 -0.0068041454 -0.034782987 -0.6284921 0.096849345 0.047817156 0.110269815
-0.016385632 0.052759845 0.023357926 -0.068044685 0.004810245 0.045402963 0.023755603 -0.036492553
-0.019509932 0.019331567 0.01569943 0.04874807 0.019750074 -0.52498305 -0.02111732 -0.04122369
0.10571342 -0.05534012 0.015645238 0.11071271 0.14181063 0.110284075 0.069309525 -0.08353954
0.0643158 -0.06707533 0.06261333 0.111929245 -0.0098604 0.0519989 -0.05599499 0.029784238
0.0030358562 0.05113883 -0.04614017 0.034471244 0.023208551 0.0023610352 -0.06551484 -0.06664901
-0.04906857 -0.014077477 0.046588227 -0.0066192206 0.007603363 -0.06602798 0.0044155535 -0.054440636
0.06259779 0.016599882 0.036602296 -0.24330173 0.05075015 0.0051430613 0.06016893 -0.06463007
0.26431048 0.021489944 -0.068036504 0.030286869 0.040480714 -0.056315992 -0.0074635465 -0.11272053
0.23008288 -0.04205137 0.25005198 -0.06346402 0.037236143 0.031316668 0.010197046 0.013423621
0.04724758 -0.008945103 -0.024595153 -0.06390766 0.20547454 0.23503242 0.14261463 0.4023174
0.001476214 -0.0344939 0.030719005 0.0482409 -0.03411677 -0.19612503 0.03427143 0.0426644
0.025201822 0.016794022 -0.055521213 -0.11406766 -0.15412293 0.60285586 0.0006940724 -0.04511615
0.059835576 -0.030523226 0.015318272 0.039666247 0.069187485 -0.05293177 -0.01310893 -0.061177697
0.044916853 0.03706573 -0.04840036 -0.68566734 -0.057233203 0.051863678 -0.0029325578 0.02566116
0.05068958 -0.013625134 -0.062993266 -0.027712002 0.05296637 -0.0765937 0.03203554 0.013048602
-0.014409974 0.028873883 0.04192028 -0.0049979356 -0.046592988 0.10203631 -0.053261295 -0.03427112
0.048585832 -0.0534446 0.053105637 -0.048762914 0.017176598 0.021070644 0.036433786 0.05325841
-0.5088653 0.05951207 -0.095197216 0.05641721 0.04130701 -0.045083165 -0.046016455 -0.03683413
0.05008028 0.014820109 -0.051397108 -0.0030454895 -0.062447246 -0.027072508 0.012440644 0.055274367
-0.0075416183 0.035667423 -0.104749195 0.025772443 0.06936044 -0.0025335539 -0.07425197 0.055636205
0.0242272 0.059101496 0.1540905 -0.006765308 -0.025921663 0.0120603815 0.031679027 -0.06161937

encoders.1.weight f4 [100, 200]
00000000: ae9a 93bd d6bd 1d3d a8b0 473c 56ca 603d
00000010: a39b 39bd 1a31 c1bc 6824 85bd a677 98bd
00000020: 5ffd 83bc d018 673d e0f2 67bc 69b9 74bd
00000030: af0e 4b3c 4611 193d bacd a4bc 00c5 c83b
00000040: 6cd4 ec3c dcee 61bc 3c0c a63c 56ee 1abd
00000050: 67e3 7d38 f2e0 88bd 8626 1a3d a65a 2f3d
00000060: e44a edbc 89b5 413d 0309 b93c 0a65 103d
00000070: 6844 5cbc c4a1 88bd bdcc c3bd fabe 24bd
00000080: 321d 31bd 31c1 6b3b b2e8 2d3c b303 8f3d
00000090: 22b5 b3bc 371a 4b3d 70b9 ffbc 975d 40bd
000000a0: 932d 18bd c683 b3bc 6002 d3bb f042 f7bb
000000b0: 2b42 6d3d 12f5 94bd d75a 99bd 617e 81bd
000000c0: eecd 44bd 6494 3fbc 37e6 da3c c8e8 143d
000000d0: 3f82 7239 d042 5fbd 9c1b 34bd 2b55 cfbc
000000e0: 9202 663d d452 543d 00db d13c 29fa 69bd
000000f0: 3a0e 08bd 80c1 55bc b84f 183c 38f7 003c
00000100: 4841 583d c06c 6a3d 6036 11bc ce8c 8fbd
00000110: 854b ecbc 5cc3 ea3c c5d4 8f3d aadd 82bd
00000120: 2443 3abd 82f9 7c3d c639 42bd 74e0 453d
00000130: 0fd4 5cbb 4aff 42bd 1d09 88bd e23b 883c
00000140: ae01 89bc 6d32 07bd be26 d9bc 3960 16be
00000150: 2e98 aa3c bf47 5abd 36a6 c5bc 64cb 813c
00000160: e932 16bd dbdc 873d be54 2b3d b02b 2b3d
00000170: 2291 133d a01a 603c 461d 71bd e389 fd3c
00000180: 6465 ff3b de77 8cbd 898d 24bb 6f04 80bd
00000190: 2665 fcbc 103b bf3b f7be 313d 0ba7 e3bb
000001a0: 7d9b 96bb a58d 4abd 45c9 96bd fd5a 18bd
000001b0: d0d4 c0bb 1f4e d5bd fb3b 6c3d e739 943c
000001c0: 2626 1d3d d0db 423c d6cd d5bc 450e 9abd
000001d0: 2e45 6d3d 5eb5 19bc 9366 71bd e13d b5bc
000001e0: 27d6 08bd b59a 8d3d fb85 85bc 43e2 c4bc
000001f0: 9140 59bd cc34 523d a815 fabb 9886 493d
00000200: 1bbb 48bd 56a0 67bd 8288 283d acc6 89bd
00000210: a04d 24bb 6c12 a93c 5595 d0bc aa45 073d
00000220: d88a 2a3d 8c43 bf3c 5efa 6e3d ac55 87bd
00000230: 9d58 95bd cc27 a4bc 8cd7 c23c e00e 203d
00000240: 9d30 e8b9 31a7 8abd cedd 92bd 3ac3 bbbc
00000250: c942 8a3c 2ff1 4fbc 7a5b 95bc 0859 49bd
00000260: 3496 79bc 3e20 04bd f1d8 8dbd 70ae 7a3c
00000270: 047c 63bc 5cec abbc e7f6 813d 623f 7f3d
00000280: 2498 60bd 03a4 66bd 8955 003c 1e16 193d
00000290: 2279 443d 40be e7ba ca7f 3bbd 0219 783d
000002a0: 47d7 453c a3f0 8c3c f90e 063d ff7d 25bd
000002b0: 9052 80bd dc5a 0f3d ce15 88bd cb38 9cbd
000002c0: b5b1 ac3c b622 6c3d 3ccf b13c 75e1 343b
000002d0: a983 57bd 60b8 053b 27f0 df3c 8e24 553c
000002e0: 57f2 3dbc 8645 5cbd a799 98bd 32d9 833d
000002f0: a8f2 173c a2e2 85bd 352b 7e3d 8058 4cbd
00000300: 4fb1 90bd cec7 123d 8b1c 143c aed1 92bd
00000310: d2a3 353d ae18 7f3d 022b 353d 0c07 f73b
00000320: 4d89 623d b440 d2bc dd86 ec3b 100b 203c
00000330: 1ed0 933d 73c7 e53b eefc c4bc 0866 d83c
00000340: ed5d 513c 7b47 7fbd 5321 b13d a33d 09bd
00000350: 2b3a 4bbd cf79 ddbc 722d 023d aeb8 0e3d
00000360: adc8 433c 78d2 0e3c dc27 093d ead9 8cbd
00000370: 93a1 c4bb 9976 b1bd 3818 39bc d011 03bc
00000380: 2432 ee3c 87ca 01bd f80f a4bc 9a43 9bbc
00000390: 8a9b 56bb 83fa e9bc eff4 6ebe e531 433c
000003a0: 5799 25bd ee4c 7c3d 7f9a 1d3d 8080 293a
000003b0: f0a5 a93c 3c33 babc acc3 21bc e1c2 77bd
000003c0: 048a 8f3d 3591 75bd 9f6e 9ebd 50c9 683c
000003d0: 4afe 0fbc ce2f 24bd b6d3 4bbd 2ec5 393d
000003e0: be77 6ebc 29a6 a53c 634c b3bc 63ce b7bc
000003f0: a0cd f7bd 1ac4 5f3d 6b10 1dbe 6ffd c9bb
-0.07207237 0.03851112 0.012188114 0.054880463 -0.045314442 -0.023582984 -0.065010846 -0.07444696
-0.016112028 0.056420147 -0.014157027 -0.059747133 0.012393638 0.03736999 -0.02011763 0.006127
0.028909884 -0.013789859 0.020269506 -0.03782495 6.0531685e-05 -0.0668353 0.037634395 0.04281106
-0.028966375 0.047292266 0.022587305 0.03525261 -0.013444044 -0.06671479 -0.09560535 -0.040221192
-0.043240733 0.0035973305 0.010614561 0.069831274 -0.021936957 0.049585547 -0.031216353 -0.046964254
-0.037152838 -0.02191342 -0.006439492 -0.0075458214 0.05792443 -0.07273306 -0.074880295 -0.06322933
-0.048047952 -0.011693094 0.026721103 0.03635481 0.00023127439 -0.054507077 -0.043971643 -0.025309166
0.056154795 0.051836804 0.025617123 -0.057123337 -0.033216693 -0.013046622 0.00929635 0.007871442
0.052796632 0.05723262 -0.008863062 -0.07009278 -0.028844604 0.028657608 0.070230044 -0.06389935
-0.045474187 0.061761387 -0.04741838 0.04830976 -0.0033695733 -0.047606744 -0.06642363 0.016630117
-0.016724434 -0.033007074 -0.026507732 -0.14685144 0.020824518 -0.05329108 -0.024127107 0.015844055
-0.036669645 0.06633922 0.041828863 0.04178971 0.03602708 0.013678223 -0.058865808 0.030949539
0.007794069 -0.068588 -0.0025108776 -0.06250846 -0.03080995 0.005835898 0.04339501 -0.0069474033
-0.0045961724 -0.04945149 -0.07362608 -0.03719615 -0.005884744 -0.10415291 0.05767439 0.018094016
0.03836646 0.011893228 -0.026099127 -0.07522253 0.057927303 -0.00938162 -0.058935713 -0.022124233
-0.033407357 0.06914274 -0.016299238 -0.024033671 -0.05304009 0.051319882 -0.007631976 0.049200624
-0.049006563 -0.056549393 0.04114581 -0.06727347 -0.0025070682 0.020638667 -0.025461832 0.03302542
0.041636318 0.023347639 0.058344238 -0.066081375 -0.07292292 -0.020038508 0.023784421 0.039076686
-0.00044286708 -0.067701705 -0.07171212 -0.02292024 0.016877549 -0.01269178 -0.018232096 -0.049157172
-0.015233565 -0.03225731 -0.06926144 0.015300378 -0.013884548 -0.020986728 0.06345921 0.062316306
-0.054832593 -0.056308758 0.007832893 0.03737461 0.047967084 -0.00176806 -0.045776166 0.060570724
0.012075252 0.017204588 0.032729123 -0.040403362 -0.062657475 0.03499876 -0.06644784 -0.0762802
0.021080831 0.05765029 0.021705262 0.0027600203 -0.052615795 0.0020404086 0.027336193 0.013009204
-0.011593423 -0.05377724 -0.07451182 0.06437911 0.009274162 -0.065373674 0.062052924 -0.049889088
-0.07065069 0.03583508 0.009040008 -0.071688995 0.044345684 0.062279396 0.04423047 0.007538682
0.05530672 -0.025665618 0.0072182254 0.0097682625 0.072174296 0.0070123016 -0.024046388 0.02641584
0.012778741 -0.06232403 0.08648934 -0.033506047 -0.04961602 -0.027035622 0.03178162 0.034844093
0.0119497 0.008717172 0.03348528 -0.06877501 -0.0060007065 -0.08665199 -0.011297278 -0.007999852
0.029076643 -0.031687286 -0.020027146 -0.018953133 -0.0032746517 -0.028561836 -0.23335622 0.011913751
-0.04042944 0.061596803 0.038477417 0.00064659864 0.020709008 -0.022729509 -0.009873312 -0.060488585
0.07008746 -0.059952933 -0.07735943 0.014208153 -0.008788655 -0.040084653 -0.04976245 0.04535406
-0.014554916 0.020220833 -0.02188701 -0.02243728 -0.12099767 0.054630376 -0.15338294 -0.006164245

encoders.1.bias f4 [100]
00000000: 887e 36bc 597c 31be 0e2b 4ebf a8a6 b5be
00000010: 947d 6b3d 9989 ccbd dea0 d23c a13f 843f
00000020: b968 57bd 30e5 3f3b 3630 753f b15b 463b
00000030: 8cd4 b1bd 9ed6 f33e f65d fabc d3be 3abd
00000040: f039 adbe 9439 493e 35d8 19bd 14fe 63bf
00000050: 96f6 23bf e797 60bf 30f6 843d c47b 86be
00000060: 3632 883f e725 abbf c7ae 85bd 3d8f 1dbc
00000070: a815 b2bd 69de cebd 3562 bbbd b8b7 b13f
00000080: ea79 51bd f957 6fbd 9c62 d1bd a0c8 cd3d
00000090: afb7 d9be af77 113c d116 3e3d 2cf5 07be
000000a0: 6b46 42bd 8140 633f d20b 9c3d 1beb 47bf
000000b0: 20f7 9bbd 5284 26bd 53c5 423f 9f73 83bd
000000c0: 19f9 fabc d879 b6bd 696e 2bbe 5e3d 2dbc
000000d0: dbc8 4bbd e7e2 06bd 7f9f a0bd 0927 9ebd
000000e0: 4b8c cabd c7c1 613f e994 33bf d604 5dbd
000000f0: 6f63 29bf e5cc 49bb c22b 9dbd 578f 733b
00000100: f17b bebd 7eea 463e 0d52 5dbc 8282 94be
00000110: 5194 1bbe d156 8d3f 0ec0 13be 2160 69bd
00000120: 26a6 1fbf c10b 61be 3750 9dbd 02fa 0cbe
00000130: a921 8fbd 0329 bbbc bc83 8f3f 4733 2cbe
00000140: 3c2a 00bd 6c66 a0bd 9cbf b93c c64c d4be
00000150: 03b0 2fbf f72c 8b3f c489 8b3e 3bab dcbd
00000160: f1a1 b4bd 35b4 103f 22d1 66be 1682 abbd
00000170: 52f9 e9bd 065d 98bd 8ebe c53e f40d 8ebe
00000180: f688 f33e 1a02 9fbd c268 eabd b436 06be
-0.011138566 -0.17332591 -0.80534446 -0.3547871 0.057492808 -0.09987182 0.025711473 1.0331918
-0.052590106 0.0029280894 0.9577669 0.0030267055 -0.08683118 0.47624677 -0.030562382 -0.04559214
-0.33833265 0.1965087 -0.037559707 -0.8905957 -0.64048135 -0.87731785 0.06492269 -0.262663
1.0640323 -1.3370942 -0.06527477 -0.00961667 -0.08695537 -0.10101015 -0.09149591 1.3884192
-0.051141657 -0.058433507 -0.10223886 0.10048032 -0.42522952 0.008878632 0.04640848 -0.1327712
-0.047430437 0.887703 0.07619442 -0.7809312 -0.07615495 -0.040653534 0.7608234 -0.06418537
-0.030636357 -0.089099586 -0.16741337 -0.010573713 -0.049752098 -0.032931235 -0.078429215 -0.07722289
-0.0989004 0.88186306 -0.70149094 -0.05395969 -0.6616735 -0.0030792293 -0.07674362 0.0037164295
-0.09300984 0.19425389 -0.013508332 -0.2900582 -0.15193297 1.1042119 -0.14428732 -0.05697644
-0.623629 -0.2197714 -0.076813154 -0.13767245 -0.06988842 -0.022846704 1.1212077 -0.16816436
-0.031290278 -0.078320354 0.022674374 -0.41464823 -0.6862795 1.0873097 0.27253544 -0.10774847
-0.0881995 0.56524974 -0.22540715 -0.08374421 -0.11424507 -0.07439618 0.38621944 -0.2774502
0.4756543 -0.07764073 -0.11445762 -0.13106805

fc_mu.weight f4 [4, 100]
00000000: dc8e c5bc 658d ae3c 4b5a 08bb 50be 773a
00000010: 735f 22bc 988c 0f3c e92f 193c ab5b 49ba
00000020: b30d 41bd 8bbc 49bb f08d 9aba b416 ebbc
00000030: 30eb 1ebd f2fc 213d 9bb7 96bd 0b5a 883d
00000040: bda4 a03a 95b9 273b d73d a83c 8c98 f0bc
00000050: 8fd6 ac3a 7a59 093c d428 853d 29b8 f53a
00000060: 5060 17bb 468f 27bc 91bf 0cbe e08d 96bd
00000070: c1ed 93bc 508f 843d d0fb bebd ace7 033c
00000080: fc8a c73c 1092 323d c8e5 44bb df72 d5ba
00000090: 42b6 903b 5e78 06be 1a19 453c 5ece b5bd
000000a0: 8e2d 9dbd f585 ffba a47c ceba f8dc d83b
000000b0: fe30 2bbc dcba 82bd 4932 033c 0648 a6bd
000000c0: 6d3a 85bd 5e9f abbd 664c 093d 3fde 0fbd
000000d0: ac04 21be 6e31 0d3d 6909 ebbc cd5a e6b9
000000e0: 3076 43ba 220b 853b 652b 403b 3389 d5bc
000000f0: 8aa8 4e3c 4aee 36bb dc91 0f3d dd03 01bc
00000100: 84f2 b4bc 94b5 6c3c 85fe fcba e2df b7bb
00000110: 86d7 273c d4b7 4dbc ce4c 5fbb f9d9 a23c
00000120: 9bb1 e0bc b69f 0dbd d751 9ebc fc18 a83d
00000130: 226c 25bc 5439 253e 408a da3a ccf8 76bc
00000140: 949d 2b3d 32b2 a3bc 6288 9e3c 1eb6 af3a
00000150: f67e 733a 68bc 683c 3110 4fb9 4629 f8bb
00000160: 9a45 af3d 8cd2 af3b 5bda 78ba cac7 a23c
00000170: 56ea debc 6a16 843c f4cb 1d3c e8c8 e5bc
00000180: f2c6 6dbb d9bb 1b3d 8de6 a43c 644d 303a
00000190: 224b ec3b 33c7 7cbc 2869 6d3e 40e5 383e
000001a0: 0ea2 a2bd 3914 3a3d c825 c93c cb5d 9fbd
000001b0: c9c8 df3d 2f6d 46bb 90f7 f5bd 1dbd a23c
000001c0: aada fe3c 216a 323e a4f0 ebbc 28fb c4bc
000001d0: 404a 313e fd46 3abe a305 73bc ce1e 9d3c
000001e0: 558e 493d 7e4f 363e cd60 ac3b 4eb0 57be
000001f0: 81db e2bc 4d11 a13d d02a 60b9 6d4a b1b9
00000200: 7379 04bd ca63 bc3a 3910 833d 37d7 88bd
00000210: e3e2 15bc 129a bd3c 68c3 eb3c 2e5d 9bbe
00000220: 053e 563e 03f8 66bd 783e 13bd ee98 4e3c
00000230: e0b9 f83b b3cf 35be b13b 783b 9db0 653d
00000240: c942 ca3d 74dc c5bc 50c9 003e 77ad 92bc
00000250: 870f 4abd f649 1abd f4b0 8abd a378 8bbb
00000260: c5bd a7bc 448c 6b3d 9107 4dbd 1dcf b4bc
00000270: 1b78 50bd 2980 56be 496d 54be ebfc cfbc
00000280: 22fd 9a3d 5000 02bd 29e5 f43a 4747 003d
00000290: 79a2 b93a dcd8 f73d 68b2 d03d 6cc6 8cbc
000002a0: c6dd 2ebe 8f00 893e 54d4 22be 8075 03bd
000002b0: 8495 7e3d dda4 03bb 3b58 eabb 5675 92bc
000002c0: 55d4 c3bb f9f2 f73c aa36 48be 2b2f 07bd
000002d0: 9c8f 4abd 6035 cb3c cfde bd3d 73e7 43bd
000002e0: 3319 24be b52f d23c 27cf c5bd e378 8e3c
000002f0: 5201 25bd 2bc6 25be 1484 513e 4122 f4bb
00000300: d89e 4abd d64d ddbc 9576 843d 7a04 3a3c
00000310: 3259 fbbc e988 94bc 6bca ba3c dd4b 1b3e
00000320: b09f b03c 66e6 e2bc 238e 5f3c 1894 91bb
00000330: d887 a6bd cf82 1c3d 5639 06bd ba83 183c
00000340: 2ebf 9b3c 3ae7 79bc e45d d13e d3a7 a8bd
00000350: 25dd d93c 32a3 42c0 f4d2 d0bd 0143 563d
00000360: f7ee 1fbc 6be7 ddbb 60a1 57bc 558c 403f
00000370: 23a9 05bf 2854 533c a7a1 173c aafb e539
00000380: 0891 1e3c 5704 a83c 6f3c 303d 4065 2fbd
00000390: 8753 92bd a278 d8bb b214 4aba a1fa 073f
000003a0: 70e1 febb dce7 8c3b 22f3 063c 7dd9 a73c
000003b0: 34d1 3dbc d6ab 923d ab61 e93d 3b32 72bd
000003c0: 1e5d 663d 7d0b 3cbc 8c74 603a 4d68 093c
000003d0: 2d38 853c 686d 9fbd 7cda e93d dc68 30bd
000003e0: ce58 01bd aa68 a83c 7f84 dabc a369 ad3c
000003f0: 3e1a 683c 7bbe c93c 9e31 afbd b200 be3c
-0.024115972 0.021307657 -0.0020805772 0.0009450661 -0.009910452 0.0087615475 0.009349802 -0.0007681201
-0.047132205 -0.0030782546 -0.0011791568 -0.02869735 -0.03879851 0.039547868 -0.07359239 0.06657799
0.0012256127 0.0025592793 0.0205373 -0.029369615 0.0013186502 0.008383149 0.06501928 0.0018746901
-0.0023098178 -0.01022703 -0.13744952 -0.07351279 -0.018057706 0.06472647 -0.09325373 0.00805084
0.024358265 0.043596327 -0.0030044187 -0.0016284845 0.004416258 -0.13131854 0.01202991 -0.08877252
-0.076747045 -0.0019494878 -0.0015753699 0.0066181384 -0.010448692 -0.06383297 0.008007594 -0.08119206
-0.065052845 -0.08380006 0.033520125 -0.03512406 -0.15724438 0.034470968 -0.02869101 -0.0004393667
-0.0007456271 0.004060165 0.002932274 -0.026066398 0.012613425 -0.0027913027 0.03505121 -0.007874456
-0.022088297 0.0144475885 -0.0019301927 -0.0056114057 0.010244256 -0.012556035 -0.0034072879 0.019879328
-0.027428439 -0.03457614 -0.019326134 0.082078904 -0.010096582 0.1613515 0.0016673282 -0.015073966
0.041898325 -0.019982431 0.019352142 0.0013405716 0.0009288633 0.014205076 -0.0001974709 -0.0075732796
0.08558197 0.0053656753 -0.0009492987 0.019870657 -0.02721135 0.01612397 0.009631146 -0.028049901
-0.003628191 0.038020942 0.020129466 0.0006725399 0.007211105 -0.015428352 0.23184645 0.18056202
-0.07941066 0.045429442 0.024554148 -0.077815615 0.109269686 -0.003027748 -0.120101094 0.019865567
0.031110127 0.17423297 -0.02880127 -0.024045542 0.1731348 -0.18191142 -0.014832887 0.019179728
0.049208004 0.17803761 0.005260563 -0.21063349 -0.027692558 0.07864628 -0.00021378254 -0.00033815522
-0.032342386 0.0014373001 0.063995786 -0.06681674 -0.009148332 0.023144756 0.0287797 -0.30344528
0.20922096 -0.056388866 -0.035948247 0.0126097035 0.0075905174 -0.17755012 0.0037877376 0.056076635
0.098760195 -0.024152972 0.12576795 -0.01790498 -0.049331214 -0.03766819 -0.067720324 -0.0042563244
-0.020476231 0.057506815 -0.050056044 -0.022071416 -0.05089579 -0.20947327 -0.20744814 -0.025389155
0.075678125 -0.03173858 0.0018684018 0.031317975 0.00141628 0.121019095 0.10190278 -0.017184459
-0.17076787 0.2675824 -0.15901309 -0.03209448 0.062154308 -0.002008728 -0.007151631 -0.017878216
-0.0059762397 0.030267226 -0.19552103 -0.033003967 -0.049453363 0.024805725 0.09271013 -0.04782815
-0.16025238 0.025657514 -0.09658652 0.017391628 -0.040284462 -0.16188876 0.2046054 -0.0074503724
-0.04946789 -0.027014654 0.0646793 0.011353606 -0.03068218 -0.01813169 0.022801599 0.15165658
0.02156052 -0.027697753 0.013644728 -0.004442703 -0.08131379 0.038210686 -0.032769524 0.00930875
0.01901206 -0.015252883 0.40891945 -0.08235135 0.026594708 -3.0412107 -0.10196486 0.052309994
-0.0097615635 -0.006771972 -0.013161033 0.7521413 -0.5221121 0.012898482 0.0092548495 0.00043865788
0.009678133 0.020509882 0.043026384 -0.04282117 -0.07144838 -0.0066061774 -0.00077087723 0.53116804
-0.007778339 0.0043001007 0.008236678 0.020489449 -0.011585522 0.07161681 0.11395582 -0.059129935
0.056241147 -0.011477348 0.0008562289 0.008386684 0.016262138 -0.077845395 0.11418626 -0.04306875
-0.03157883 0.02055772 -0.026674507 0.021168536 0.014166413 0.024626961 -0.085543856 0.02319369

fc_mu.bias f4 [4]
00000000: aa53 8dbb 2b98 cabe 8702 7abb bcfc 1d3c
-0.004312952 -0.3956922 -0.003814848 0.009642776

fc_logvar.weight f4 [4, 100]
00000000: 0060 6dbc 5bfd ab3b 35eb b6ba 3b9c 49ba
00000010: 3e78 aebd 22d0 0d3d 0da1 abbc 76f9 57bb
00000020: 1e54 d53c bdb9 c13c 8ee8 c9bb 388e 033c
00000030: 3c9f 833d 11d6 b8bb 6f32 8c3d 73a7 f83c
00000040: 9c99 87b9 7690 063b df14 823d 4e66 59bc
00000050: 079e b63b 703f 153a 1d6a f13b 3384 403b
00000060: 52c9 33ba e274 cbba d897 6dbb 7546 bdbc
00000070: 56ae 7c3c 83b4 9cbb 61a9 b5bb daca b0bb
00000080: 40ab bfbb 296d 813d 7869 c23d bd6c 0c3b
00000090: 8cd7 fb3a b1cb c53d e575 13bd f073 d03d
000000a0: dfd1 9abd 83d5 a539 9ebb 19ba 1d48 2dbb
000000b0: f837 02bc f125 b03d 150e 403a cef6 a9bd
000000c0: c863 093c fbcc afbc 4ce0 ac3c 4529 45bd
000000d0: 3ae6 773d ac6e bd3d fe58 1fbd 89d1 ac3d
000000e0: 144c 083d 1285 ec3a 8621 2b37 b926 8dbc
000000f0: b437 5ebc 5d08 5fbd 3ee8 493c 3c68 363b
00000100: a163 4aba 6050 da39 b8d8 ccba 7f3a 7d3b
00000110: d91e 78b9 349c 59bb 81d3 41b8 f98a 5c3d
00000120: 2a09 b6ba bff4 89bd 213a ddbc 1c87 39bd
00000130: d163 cbba a464 cf3d 0adb 9bba 4a53 55bb
00000140: cd84 acbd 6e67 dc3c ece0 803d 99e4 c8bb
00000150: 2734 cdba 2b2f 09bb dd70 7a3a 5993 aa3c
00000160: 673e d33d ddc6 263b cfcc d3b9 b8c0 133d
00000170: ec06 0cbd 083c be3d e906 963b d3b4 ddbb
00000180: ff32 3b3b c539 7f3d ed94 2f3d 66fa a339
00000190: fb21 893d 201c d2bd a3a1 60be bad9 943e
000001a0: 36f9 ab3c 39fc 57bd 4e5a c23d b1db cfbe
000001b0: 8b41 e2bc 33eb 64bd 683f 343e 4b63 6cbd
000001c0: 7f03 443d cee2 ed3d dcc4 8dbd 2458 9f3b
000001d0: bffa 01be 00dd 2bbf e6b6 563d 8a01 b6bc
000001e0: 77b0 bb3d f233 e73e f69e 99bb c04b a93e
000001f0: b64e 28be 9ee6 7d3e cac4 613d fa16 523d
00000200: 9f49 bc3c 1edc a53d f98b 34bd 0b6a 8bbe
00000210: 7d2b b13d ba01 873c 6e61 3d3d 7597 88bd
00000220: 2b22 ac3e ed7d 2c3b b140 d2bb 575b 5cbd
00000230: 561f 42bd 8024 3d3e 0798 03be 81d6 413e
00000240: f5a7 0fbd e879 b7bc a9db 86be 218b 5dbd
00000250: 48ab efbb 57f9 73bd 9ea0 933d 5dcb 54bd
00000260: 693b 843d 2d4e acbd d319 31bd 5673 e6bd
00000270: 0cdc fcbc 7458 763e 0d41 243d 11ec 4a3d
00000280: 9f78 433e a517 0b3d 18a8 563c ee2e 133b
00000290: 03a6 043c 83fa cabd e13f ea3e 5b7a b43e
000002a0: 9e5f 913e 6a47 70bf 771d a43e d732 94bd
000002b0: 7b77 4cbe 2e7c 663d 41d8 0ebe 723a 043e
000002c0: fe70 4cbc e83c 0abe c664 acbe 8db4 28bc
000002d0: e04d 8bbd aed4 1f3d cadb 303d 3d4a a1be
000002e0: 9d23 10bf c271 713d 4fcf 58bd 139a 7a3c
000002f0: 3fa0 5d3d 853c c33d 7738 56bd f3b8 043e
00000300: 119a 7fbc 4160 2cbd b415 85bf a96e 5ebd
00000310: 4cea ffbe 1c8b 883d 91fe 803d dee0 b63e
00000320: 06aa 2ebc 6c92 a3bc e30b 8d3b cfcb 92bb
00000330: 83b1 9bbc 07a6 28bd 96b7 ae3c bc2c e73c
00000340: aac1 c13d 93ce c8bb c5b2 acbf 9967 403d
00000350: 71a5 67bd e40e 0840 b6f1 513d dd4c a73c
00000360: 396c a23c d451 3abd 4e66 4fbd 6222 3dbf
00000370: 0c11 753f b24d 313c 4f5e 293d 5fd5 a4bc
00000380: 67bf e53b 8d95 923c c65a fb3c 04fe d4bd
00000390: 9afa 0f3d 4afe bbbb 2d90 9fbd 6876 713e
000003a0: a08a d73d ca7c 9a3c 8f2f 3a3e 1067 463d
000003b0: 407d 4c3c dba9 14be 92bc 063c a4ac e13d
000003c0: 241f 7bbd f16d 91bc 072b 123c 9444 183c
000003d0: 199f b53b 4011 f93a 1fcd 3a3f d3a5 99bc
000003e0: 5048 3bbd 00b2 7b3d 971b 543d 25a6 f03c
000003f0: d1b3 633d 8ab4 be3b a07c cb3d 56db 123b
-0.01448822 0.005248708 -0.0013955595 -0.00076908217 -0.08519028 0.03462232 -0.020950818 -0.0032955087
0.026041087 0.023648137 -0.006161756 0.008029513 0.06426856 -0.005640753 0.06845557 0.030353284
-0.00025863654 0.0020532883 0.06351637 -0.01326902 0.0055730375 0.0005693352 0.007367386 0.0029375672
-0.0006858307 -0.0015522505 -0.0036253836 -0.023104886 0.015422424 -0.004782261 -0.005543873 -0.0053952755
-0.005849272 0.06319649 0.09492773 0.0021427118 0.0019214018 0.09657992 -0.036001105 0.10178363
-0.07559561 0.0003163033 -0.0005864444 -0.0026440688 -0.007947914 0.08600987 0.0007326317 -0.082990274
0.008385606 -0.021460047 0.021103047 -0.04813506 0.060522296 0.092496246 -0.03890323 0.08438403
0.03327568 0.0018045029 1.02001995e-05 -0.017230378 -0.013563085 -0.054451335 0.012323437 0.0027833125
-0.00077205343 0.00041640084 -0.0015628552 0.0038639603 -0.00023662615 -0.0033204677 -4.6211764e-05 0.053843472
-0.0013888229 -0.06736135 -0.027005257 -0.045294866 -0.0015517419 0.101266176 -0.001189084 -0.0032550865
-0.08423767 0.026904788 0.062929004 -0.0061307666 -0.0015655801 -0.0020932655 0.0009553561 0.020822214
0.10314637 0.0025448122 -0.0004039765 0.036072463 -0.03418629 0.09288794 0.0045784605 -0.0067659407
0.0028564332 0.062310953 0.042866636 0.00031276344 0.066959344 -0.10259271 -0.2193666 0.29072362
0.020992856 -0.052730773 0.094898805 -0.405973 -0.027619144 -0.055888366 0.17602313 -0.05771188
0.047854897 0.11615525 -0.069223136 0.004862802 -0.12693308 -0.67134094 0.05242052 -0.02221753
0.091645174 0.4515682 -0.004688139 0.33065605 -0.16436276 0.24795005 0.055119313 0.051291443
0.022984324 0.08098625 -0.0440788 -0.27229342 0.08650873 0.016480315 0.046235494 -0.06669513
0.33619818 0.0026320175 -0.006416403 -0.053798046 -0.047393166 0.18470955 -0.12850963 0.18929483
-0.035072286 -0.022396997 -0.26339462 -0.05408776 -0.0073141195 -0.05956396 0.0720837 -0.051951755
0.06456644 -0.08413348 -0.04323752 -0.11252467 -0.030866645 0.2405718 0.0401011 0.049541537
0.19088982 0.033958096 0.0131016 0.0022458392 0.008096221 -0.099110626 0.4575186 0.352496
0.28393263 -0.9385897 0.3205373 -0.072362594 -0.19967453 0.05627077 -0.13949682 0.1291292
-0.012478111 -0.13499796 -0.33670634 -0.010296953 -0.06801963 0.039021187 0.043178357 -0.31501952
-0.5630434 0.05894638 -0.05293208 0.015295523 0.0541079 0.095330276 -0.052299943 0.12961178
-0.015600697 -0.042083982 -1.0397248 -0.054304752 -0.49983442 0.06667158 0.06298555 0.35718435
-0.010660654 -0.01996728 0.0043043955 -0.0044798623 -0.019005543 -0.04117396 0.021327775 0.028219573
0.094607666 -0.006128141 -1.3492056 0.0469738 -0.05655426 2.1259089 0.051255904 0.020422393
0.019826995 -0.045488194 -0.050634675 -0.7388059 0.95729136 0.010821747 0.041349705 -0.020121275
0.0070113423 0.017893577 0.030682933 -0.10400012 0.0351511 -0.0057371007 -0.07791171 0.23580325
0.105244875 0.018858332 0.18182205 0.04843813 0.012481034 -0.1451792 0.00822367 0.11019257
-0.061308995 -0.01775262 0.008921391 0.009293694 0.0055426476 0.0019002333 0.7296924 -0.018755829
-0.04572326 0.06144905 0.051784124 0.029376099 0.05559141 0.005819862 0.0993588 0.0022408566

fc_logvar.bias f4 [4]
00000000: 6f62 06bb eba5 16c0 b016 babd 7d2b 61bb
-0.0020505448 -2.3538768 -0.090863585 -0.0034358196

decoders.0.weight f4 [100, 5]
00000000: 0d6e 8cbb bb90 90be a55a d93a 50cb 10bb
00000010: 4e38 c3bf 210d 0c3c dc8c 7cbf 0bed f73b
00000020: a874 e4bb 8371 ffbf 1a27 2dbc 783a cebe
00000030: 4f9d 30bc 5848 a03c b26a fa3d ac25 bdbc
00000040: 1ba3 013c 03c0 f3bb 95c1 f8bc 452c b1be
00000050: 3ae7 8bbc 41bb 42bc 702c 473c 1664 c2bc
00000060: 097b 19bf 8cd6 f4ba 47f5 35be 534b 8dbb
00000070: aca7 5a3b c24b 893f 565b 0cbb cf7b 00bc
00000080: ac4e ab3b cd6f 843a bde0 b3be 8666 8c3a
00000090: cd68 ff3e 1a0d bebb f653 2b3b d996 88be
000000a0: 373d b739 4566 86bb 2afa dab9 74b2 11b9
000000b0: e6fb 533e 683c edbb 7a71 94bc fbdf ae39
000000c0: 572f da3b 3028 3dbf b47d cd39 2e25 ec3e
000000d0: f3e1 3c3c a90d b5bb dbb7 13be 2416 8a3c
000000e0: c7ec fe3b 65d6 bb3d c01b e5bc 32f3 2bbf
000000f0: 715b e7b8 b797 c63b dc15 11bc c546 d8bb
00000100: c5a5 98be 0084 09bd b88c 6dbd 0a8a b6bc
00000110: 3aa9 093d 1e5f 94be 63b3 2fbb 50e4 a33d
00000120: 401d c63a bb5d 0b3a e192 a03f f8f0 213b
00000130: af0a 6dbc c816 903b 011b 543c ba99 bf3b
00000140: 2365 16bc 025e a4be 1ec4 22bb 8b8f 80bb
00000150: 9286 75bf 37e9 54bb 4597 62bc 7b60 593c
00000160: bee0 a0bb aab8 08bf e0ab 6c3d 9656 49bd
00000170: e86a 53bd d032 62bb f0b7 f1be f992 2fbc
00000180: 08e6 eebe a423 e0bc f7e1 64bc 1699 963d
00000190: 75b3 283b 7ef8 223a d468 1fbc f46c aa3c
000001a0: 9194 833d 481b 09bb 922f bd3e 058d adbb
000001b0: 01aa 31bc fe98 703f dcdb 5dba 0bf9 62bd
000001c0: 86b1 e939 5fa0 a8bb 8618 a43f f3fd 3c3d
000001d0: 09aa 87bc 5bf2 a9bc 96df 66bc b817 70bd
000001e0: db37 df3c e729 1fbc 5ff2 e33c 5b55 72bc
000001f0: eea2 febe ddc8 273c 437d 243e 40cf 023a
00000200: ab39 e83b ce90 893f c8dd d13c 9c94 a83b
00000210: e04a 72bb 8031 99bc f6e9 783e 62ac c0bc
00000220: 6e83 e5bc 1680 c03d 7eb3 7bbc d358 19bf
00000230: 5710 92bb ba2b b93c 6c0c 18bc 5618 113b
00000240: 5637 8bbd 4f5a 90bd 1692 b13d 6f97 5bbc
00000250: 77a2 583d f369 01bf a313 513c 951f 993c
00000260: ca66 683c 6788 9b3c a001 e1be 057a dcbb
00000270: 0790 133c 8f24 e43c ba0d bbbc b5ab 41bc
00000280: 9453 443b 4de4 64bb b3db cebb 7e99 c2ba
00000290: 8d33 0a3e 69ed a5bb dc4b a93a 34be edbb
000002a0: 7b9d e4bb c1e4 4bbf 6445 a6bb e2d5 6fbd
000002b0: d979 ee3e 6893 083c c7b8 9fbf 97f9 e83b
000002c0: da3e 20bf e3fd 80bb cd43 8cbb 9135 0cbe
000002d0: b842 b83c bbbe 283d ac9f 523b 331f c4bc
000002e0: bd75 f9bd 1af2 adbb 85bc 84be 5856 d43b
000002f0: d240 b83a c09d 3ac0 7db3 07bc 958d 103e
00000300: 5726 bfbc f39f ad3b 74eb b63e 289e 633b
00000310: a3a3 2ebc 64fc ef3e 1e0e 18bb a5bf aa3e
00000320: b7c0 573c 41f7 b63e 9cd1 cd3c 0142 45bc
00000330: 822f dbbe 81bb b93b 6b03 aa3c 41db e8bb
00000340: 2324 c3bb a33e b1be bc50 8a3b cdfb 083f
00000350: 60dd ce3b 4204 e7ba 16d6 b6bb b989 e23b
00000360: 4b30 6b3e 9d9c 0b3b 9f59 dbb9 1e70 d1bd
00000370: 76d4 c8bb b84c 013c 8fc1 d23b 4ef6 28bb
00000380: a82d 433e 6b48 26ba a7f3 cc3c 6d3d 853c
00000390: f443 27bc 2cc7 bfbe 0ced b63b 76b7 68bd
000003a0: f450 b7bb 4bc8 b3ba 46cb d3be 0249 643b
000003b0: 3568 ad3a 1d6c 25bc 5781 bd3c f5d0 dcbe
000003c0: 2e83 24bc a5eb d5bd e5d4 163d b977 5d3c
000003d0: 4b1d 12bf e91c e6bb 6486 06bf 9afe 0a3c
000003e0: 6ae4 4d3c dacb 00c0 b588 a13c c27f eabb
000003f0: 28f7 253c 1f85 a4bd 225f b7be 1251 f0bc
-0.00428558 -0.2823542 0.00165828 -0.002209384 -1.5251558 0.008548052 -0.98652434 0.0075660995
-0.0069719143 -1.9956516 -0.010568405 -0.40278983 -0.010779693 0.019565746 0.12227382 -0.023089252
0.0079124225 -0.007438661 -0.030365745 -0.34604087 -0.01707803 -0.011885465 0.012156591 -0.023729365
-0.5995336 -0.0018679663 -0.17769347 -0.004311958 0.00333641 1.0726244 -0.0021416745 -0.007842018
0.0052278843 0.001010412 -0.351324 0.0010711707 0.49884644 -0.0057999017 0.0026142574 -0.26677588
0.0003495009 -0.004101547 -0.00041766587 -0.00013894757 0.2070156 -0.007239867 -0.018120516 0.00033354745
0.0066584754 -0.73889446 0.00039194303 0.46122116 0.01152848 -0.00552531 -0.14425604 0.01685626
0.007779691 0.09171752 -0.027967334 -0.6716796 -0.00011031971 0.0060605663 -0.008855309 -0.0066002333
-0.29813972 -0.03357315 -0.057995528 -0.022282619 0.033608653 -0.2897882 -0.0026809804 0.080025315
0.0015114918 0.0005316396 1.2544824 0.002471028 -0.014467879 0.004397247 0.012945891 0.005847183
-0.009179386 -0.32102972 -0.0024836133 -0.0039233617 -0.95908463 -0.003248764 -0.013830011 0.013267632
-0.004909604 -0.53406775 0.0577811 -0.04915484 -0.051615626 -0.003451515 -0.47210646 -0.010716193
-0.46659875 -0.027360745 -0.01396989 0.073534176 0.002574173 0.0006216838 -0.009729583 0.020803906
0.06424821 -0.0020920802 0.36950356 -0.005296352 -0.010843755 0.9398345 -0.00084632426 -0.055413287
0.00044573488 -0.005146071 1.2819984 0.046140622 -0.016560571 -0.020745447 -0.014091393 -0.05861637
0.027248314 -0.00971458 0.027825532 -0.014790858 -0.4973368 0.010240761 0.16063409 0.0004989989
0.0070869527 1.0747316 0.025618449 0.0051446687 -0.0036970899 -0.018700361 0.24307999 -0.023519699
-0.028016772 0.093994305 -0.0153626185 -0.5990116 -0.0044575143 0.022603858 -0.009280305 0.002213975
-0.06797664 -0.07048475 0.08670442 -0.013402804 0.052889314 -0.5055229 0.012761029 0.018691817
0.014184663 0.01898594 -0.43946552 -0.006728413 0.009006507 0.027849464 -0.022833694 -0.011820723
0.0029957043 -0.0034926117 -0.0063128113 -0.001484677 0.13496228 -0.005063702 0.0012916285 -0.00725534
-0.006976781 -0.79645926 -0.00507419 -0.058553584 0.46577337 0.008335926 -1.2478265 0.0071098316
-0.62595904 -0.0039365157 -0.0042805434 -0.13692309 0.022492751 0.04119752 0.003213863 -0.023940658
-0.1218066 -0.005308402 -0.2592508 0.0064800195 0.0014057404 -2.9158783 -0.008282539 0.1411651
-0.023333712 0.0052986084 0.3572651 0.003473172 -0.010659131 0.46872246 -0.0023201774 0.33349338
0.013168505 0.35735515 0.025124364 -0.012039662 -0.42809683 0.005668104 0.020753583 -0.007106215
-0.0059552356 -0.346181 0.00422105 0.5350922 0.006313011 -0.001762517 -0.0055797203 0.0069133905
0.22967641 0.0021303066 -0.00041837708 -0.10226463 -0.006128843 0.007891826 0.0064317654 -0.0025781575
0.19060385 -0.00063431886 0.025018526 0.016264642 -0.010209072 -0.37456644 0.0055824574 -0.056815587
-0.005594367 -0.0013716308 -0.41366023 0.0034833555 0.0013229909 -0.010096577 0.023132963 -0.43128172
-0.010041041 -0.10445336 0.036824126 0.013517314 -0.5707595 -0.0070224893 -0.52548814 0.008483553
0.012566665 -2.012442 0.019718507 -0.007156343 0.010129727 -0.08033203 -0.35814768 -0.029335532

decoders.0.bias f4 [100]
00000000: c15e 133f 5f88 43be 52ad 9cbf 0491 67be
00000010: 30ac 28be c272 11bf 8179 16be fda0 45bf
00000020: aa6b 81be 5521 12be e4b4 0ebf 5666 10bf
00000030: d8c7 e4bd 4363 a5be 97c8 40bf 2785 e5bd
00000040: 3721 ad3e 5404 c0bd ba8a debe b8a3 61bf
00000050: b319 97be cb50 643d 0c22 23bf b919 a1be
00000060: b5ea 8fbe 7024 6cbf 7381 fbbe a559 1bbf
00000070: a298 f1bd c5a1 2fbf fe28 0dbe 2b28 70be
00000080: 921b 35be 3c28 f2bd b173 9ebe e43a e7be
00000090: baea 91be 01b1 f33e dc9d 5cbd 52b8 9abf
000000a0: 0175 1e3e f055 51be b2e9 e93e f20c 1fbe
000000b0: a2bf 80be 04aa 43be 4316 19be 3609 debd
000000c0: eafb 04bf 1399 8f3e 858b 1dbf f5b6 1fbf
000000d0: 2f36 15bf 0bbf a4bf d9ac 63bf e665 d9be
000000e0: 9f95 1bbf 82e1 c4bd 8efa e5be 3667 72bd
000000f0: 65f0 cbbd 8e2a 89bf 8985 0ebe a6dd 71be
00000100: 636b fdbe 7142 d9be 512c d1be 944e 99be
00000110: ec2f 2bbe b669 e2bd 544a c9bd 38b8 83be
00000120: 4b42 18bf 6225 9d3e afc5 8dbf 1b86 89bd
00000130: 7c33 a2be e46e 29be f0e8 ba3e 3141 29bf
00000140: 5240 70bd b701 14bf e70d 94bf 5ee4 13be
00000150: 3c19 1dbd d6c7 d1bd c651 bdbe f36d 8ebd
00000160: 17a9 abbe d82e 8bbf 46ab 84bd f41e 9bbf
00000170: 5384 a0be 1ab5 0bbf 22cf 0abf 79be 55be
00000180: b695 52be a11d bf3e cfeb 1b3f 64ad 0c3f
0.5756646 -0.1909499 -1.2240393 -0.22613913 -0.16471934 -0.5681573 -0.14694788 -0.77198774
-0.25277454 -0.14270528 -0.5574477 -0.5640615 -0.1117093 -0.32302293 -0.75306076 -0.112070374
0.33814403 -0.093758255 -0.43465215 -0.8814044 -0.29511794 0.055741113 -0.63723826 -0.31464937
-0.28108755 -0.922431 -0.491222 -0.6068366 -0.117966905 -0.68606216 -0.13785169 -0.23452823
-0.17686298 -0.1182408 -0.3094764 -0.45162117 -0.28499395 0.4759598 -0.053861484 -1.20875
0.15474321 -0.20442939 0.45686108 -0.15532282 -0.25146204 -0.19107825 -0.14949898 -0.108416006
-0.5194689 0.28046474 -0.61541015 -0.62388545 -0.582858 -1.2870802 -0.8893562 -0.42460555
-0.6077518 -0.09613325 -0.4491772 -0.05918046 -0.09957961 -1.0716112 -0.13918127 -0.23619708
-0.49495992 -0.42433503 -0.40854123 -0.29942763 -0.167175 -0.11055319 -0.0982863 -0.25726485
-0.59476155 0.30692583 -1.1075953 -0.06715032 -0.31679904 -0.16546208 0.36505842 -0.661151
-0.05865509 -0.57815117 -1.1566743 -0.14442584 -0.038354144 -0.10243194 -0.3697645 -0.06954565
-0.33527443 -1.087367 -0.0647798 -1.2118821 -0.31350955 -0.54573214 -0.5422231 -0.20873441
-0.20564923 0.37327293 0.6090669 0.54952073

decoders.1.weight f4 [200, 100]
00000000: 3f62 773e 92b8 a2bf aaa2 4f3c ff9e 223e
00000010: e58b 12bd 12ef 44bf 947d 463d 5056 d43e
00000020: d1ff 44be 10ca 323e 8757 113f dabb b43c
00000030: 19c9 3abd f672 933d f9cc 34c0 d16c 203d
00000040: f39d 843f ee5d bc3d d734 953d e05e cb39
00000050: 5416 03be b9ea f8be 183f 0540 a38a 77bd
00000060: fce3 cd3d 8195 983f 31b2 1abe 37a9 11bd
00000070: 2cb3 b9bd aea7 6f3d de02 8d3d 0215 dfbd
00000080: 22fa 67bd dc6d 0fbb 3724 adba 7d64 343d
00000090: 5dd9 70ba 0251 cb3d 2c0b 18be 279a dcbd
000000a0: 9f8a b63e f475 9e3e d191 0c3d 9cee 023f
000000b0: d0e5 d5bc 74f3 6ebd ca97 283d 4aeb 563d
000000c0: af7f 09be 63e0 abbf 1933 b0bc 8093 5a3d
000000d0: 8caa 38c0 fc45 afbf 106d af3f 4aaa a3bd
000000e0: d409 083d 94af bb3d 16fc 1abe 25ee 053c
000000f0: 00d3 36bc 4461 34bd a09e 873d 6663 4c3c
00000100: 7ad2 05bf 8a2d 45bf 0307 d0bd 80e7 43bf
00000110: 2bf2 8d3d 57af 863d 46e8 3a3c db62 9a3d
00000120: ad7b 26bc d4f3 8e3f 7370 18bf 541b c4bc
00000130: a82e 14bf 482f c1bd 0f0e 4d3d d940 98c0
00000140: 2b96 cdbd 522d 3b3b f1fa a8be b0bc 30bd
00000150: c3f7 a1bc d497 fcbc 5e61 ff3e cc50 1dbd
00000160: df2c e9bc 7f54 1cbd 71ac 933e adba 0b3f
00000170: d277 55be 476f bfbd ac6b 33bd 5ed7 8b3c
00000180: c9c1 20be ea70 503e 05ce 0fbf 4aae 903e
00000190: 8aea 00bf 8c69 17bd f805 b93e 690b 7bbd
000001a0: 209c 1e3d 27f6 533d 1be7 2b3a de34 073f
000001b0: 2779 22bd f0c6 063c 165a 2c3e 200d 8cbd
000001c0: f973 59bd e896 e1bd 7951 a63d f277 1f3d
000001d0: 6de6 a33d 14ae d2bb 442b 983c 16da 703e
000001e0: 009a 143d c604 0a3d c967 ab3e 8de0 253d
000001f0: ae9c 4bbd 23f1 94be 3973 753b 2850 c53b
00000200: b4e4 34bd dd2f 02bc e8ea 09be bcc0 643d
00000210: 120f 233b a898 bb3c 2547 84bf 86c1 24bd
00000220: fca5 d33c f6f9 50bc 9cb1 3abb 4c6c f13e
00000230: 0c84 1fbf f50c bbbe c453 03be bdc7 55be
00000240: cf46 91bd 803a b03d 69c8 3dbd 254d 16be
00000250: a138 2abc 3279 dbbd 7f58 dc3d 092b 5b3d
00000260: 32df 533e 012c 323f 26f4 523e f9a9 023d
00000270: 6be4 533d e2c6 c33a 9a33 a43d 9586 69be
00000280: f22d ebbd 2892 38be a62a 04be 9e57 16be
00000290: 7586 9a3d aea6 d33e 1cae 943d 31ed a83d
000002a0: a4fe 21bd 7b14 f6bd 6eee 3fbe a232 993c
000002b0: 8c98 13bd ebc5 13bf 98f8 813e ac2b 81be
000002c0: be88 933c 702b 9bbd 30ce 6ebf 0383 0d3f
000002d0: 054e 81bc 200e 84bd 6392 d83e 2e20 2ebd
000002e0: 7ec2 04be 8121 a1bc d46c 7cbe 14ad 11bc
000002f0: b876 65bd 6cc3 8c3f b7e5 42be da0e 43c0
00000300: 109b 54bc 912a 8d3d 6611 703c 1814 1dbd
00000310: 94f8 bdbd 5a73 8bbe b3a2 05bf b103 51be
00000320: 5d95 c03c fad2 babe 8b8d a1bd c4be b0bc
00000330: ea3e dabc fe2d b4bd 3420 e63d 61f5 f13c
00000340: f420 383c 3e4d c6bd bee3 00bd 87b0 943d
00000350: 30eb d1bd 4eef a5bc 5146 88bd 6440 a13d
00000360: 82c4 5a3d cf5a f7bc 3350 263d 9871 543d
00000370: be37 07bd 2b46 babc 41c1 d2bd 8b7a 25bd
00000380: 2222 febc 8697 9c3c 07a8 e2bc 5218 8abd
00000390: 7692 fe3c 7d31 17be ed54 98bd 0cc5 a63d
000003a0: a486 4ebd 952b fbbb 4cc5 51bc 126f 38be
000003b0: 0f24 a9bc 8ee6 cf3c 0d3e acbd b2e8 293d
000003c0: e1f1 bebd b0db cabd ed4a 4339 031b b03b
000003d0: 2e6b 363d 234b a83c e1f6 4b3c 6055 ddbd
000003e0: 879d 53bb 8d52 d9be dc9a cabd f6ee b3bd
000003f0: f6ed 4e3d d9ef 41bd e77a f53c 405a 7fbd
0.24158572 -1.2712576 0.0126730595 0.15880965 -0.035777945 -0.7692729 0.048459604 0.414721
-0.19238211 0.17459893 0.5677418 0.02206223 -0.045601938 0.071996614 -2.8250105 0.039166275
1.0360702 0.09197603 0.07285469 0.00038789865 -0.12801486 -0.4861658 2.081976 -0.06043495
0.1005325 1.1920625 -0.15107037 -0.035561766 -0.090673774 0.05850952 0.068853125 -0.10892679
-0.05663503 -0.002188555 -0.0013209645 0.044041146 -0.0009187663 0.099275604 -0.14848012 -0.1077159
0.35652635 0.30949366 0.03431875 0.5114534 -0.02611056 -0.058337644 0.041160382 0.052470483
-0.13427614 -1.3427852 -0.02150874 0.053363323 -2.8854094 -1.3693233 1.3705158 -0.079914644
0.033212498 0.09164348 -0.15135226 0.008174454 -0.011158705 -0.044038072 0.06622052 0.01247487
-0.52274287 -0.7702261 -0.101575874 -0.76525116 0.069309555 0.06576412 0.011407917 0.075383864
-0.010161323 1.116816 -0.59546584 -0.023938812 -0.5788369 -0.09432846 0.050062235 -4.757916
-0.10038408 0.0028560949 -0.33003953 -0.043148696 -0.019771462 -0.030834116 0.49878973 -0.038407132
-0.028463779 -0.03816652 0.288425 0.5458172 -0.20846489 -0.09347396 -0.043803856 0.017070469
-0.15698923 0.20355573 -0.56173736 0.28257972 -0.5035788 -0.03696589 0.36137366 -0.06129018
0.03872311 0.05174842 0.000655757 0.52815044 -0.03966632 0.008226141 0.1683124 -0.06838441
-0.053089116 -0.11015111 0.081210084 0.03893275 0.080029346 -0.006429443 0.018575318 0.23520693
0.03627968 0.03369596 0.3347762 0.04049735 -0.04970997 -0.29090223 0.0037452711 0.0060215183
-0.04416342 -0.007945982 -0.13468516 0.05584787 0.0024880809 0.02289994 -1.0334212 -0.04022362
0.025835983 -0.012754908 -0.002848721 0.47152936 -0.6231086 -0.36533323 -0.12824923 -0.20876975
-0.07093584 0.08604908 -0.046333704 -0.14677866 -0.010389478 -0.107164755 0.10759067 0.05350784
0.20690611 0.69598395 0.20600948 0.03190038 0.05173151 0.0014936591 0.08017655 -0.22805245
-0.11483373 -0.18024504 -0.12906894 -0.14681861 0.07545177 0.41338104 0.07259771 0.08248366
-0.039549485 -0.12015625 -0.18743297 0.018700901 -0.036034152 -0.57723874 0.25384974 -0.25228631
0.01800954 -0.075766444 -0.9328337 0.55278033 -0.015784273 -0.06448007 0.42299184 -0.042511158
-0.12964818 -0.019669296 -0.2465089 -0.008891363 -0.056021422 1.0997138 -0.19032942 -3.0477815
-0.012976423 0.068928845 0.014652586 -0.03834924 -0.09275928 -0.27236444 -0.52201384 -0.20411564
0.023508722 -0.36489087 -0.07888325 -0.02157534 -0.026641328 -0.08797835 0.11236611 0.029535951
0.011238325 -0.096827015 -0.031467192 0.072602324 -0.102499366 -0.02025571 -0.06654037 0.0787361
0.05341006 -0.030194668 0.040603828 0.051866144 -0.033012144 -0.022738537 -0.102907665 -0.04040007
-0.031022135 0.01911522 -0.027668012 -0.0674292 0.031075697 -0.14764972 -0.07438073 0.081430525
-0.050421372 -0.0076651075 -0.012803387 -0.1801112 -0.020647077 0.025378492 -0.08410273 0.04148168
-0.093234785 -0.09905183 0.00018624561 0.005374314 0.04453581 0.02054364 0.012448997 -0.108072996
-0.0032289939 -0.42445794 -0.09892818 -0.087858126 0.050519906 -0.047347877 0.029965831 -0.06234193
