m2_afd_cvae/Condition1 Thickness/batch_size512/best_cvae.pth (torch, 492496 bytes, 14 tensors)

encoders.0.weight f4 [200, 200]
00000000: 999b 6c3d 46b1 593d 2506 35bc 2574 0b3d
00000010: 7a72 bbbb 6e00 c63b 717a c339 1ae4 8bbc
00000020: ff78 b0bc ebae 01bc 4c07 8dbd bc71 8fbd
00000030: 6b8b 00bd 5909 323c 93c1 46bd 4133 6a3d
00000040: bc79 29bc 4054 7bbd b42f 3ebd 433d 0b3d
00000050: 5597 c53b 75cf 95ba 45ed 8ebd 9de9 e9bc
00000060: f41d 81bd 4959 bb3c 174c 7b39 4c91 f8bc
00000070: d2d8 79bd ce12 0d3d 92d8 203d ac3e 5f3c
00000080: 4ff8 373c 0fb2 183d 14ec b8bc 959e 1dbb
00000090: 5dea 95bd 22d8 8a3c 758d 763d 83a3 543d
000000a0: 7bc2 91bd eae6 4abd 9bb8 ad3c 5fb8 b9bb
000000b0: 4ae0 10bd 2c69 ef3c 82a5 de3c e048 91bd
000000c0: d37e 28bc a073 cbbc 97b2 a8bb 1c9a 3dbd
000000d0: b243 98bd 44d1 93bd 3fc3 7d3c 1405 fb3c
000000e0: f9ff 5abd 76df 0b3d 508c 10bd cc73 493d
000000f0: 621f f93c dba1 523d ad3a f1bc f4a2 10bd
00000100: 7139 393c 3f83 cc3c b1cd 7cbb 77ce 6cbd
00000110: 1a94 243d cb8b 0abd be89 583c 9be8 bc3b
00000120: dff0 fa3c 7b86 b03c 5023 223c 1329 08bc
00000130: 91c1 093d 3112 23bd a5ea f73c edce 9dbb
00000140: 3517 b2b8 d0cd a33b ae08 febb ddf4 a1bc
00000150: 53f9 92bd ed3c 3bbd 21e3 953c c061 1fbd
00000160: 81b0 163d 9049 513c 53af 69bc 7942 28bd
00000170: f2d9 c4bc 9eaf b8bc 2e13 943c 7c35 413d
00000180: 3b09 bebc ef33 b3bc ad52 14bc 97f8 133d
00000190: 4bb6 513d 4798 c6bc f7eb 60bd 59a4 063d
000001a0: cf0c 91bd 62be cc39 f6b8 99bd b963 a9bc
000001b0: 55c4 6bbd ccc5 9ebc 74fc 903b b9d5 55bd
000001c0: 91e2 38bd 2780 a2bd e79d 673d a47a dcbc
000001d0: 4d26 b83b b9a9 5abc 4747 413d 6d0a 64bb
000001e0: 62e7 4b3d 2ae7 5cbd 50b3 543d 1e49 8dbd
000001f0: 94e6 683b a2a6 7a3c 1d77 043d af8e 1dbc
00000200: bdc0 ca3b cb27 84bd d23a 2a3d 3a76 ce3c
00000210: 760c 213d 3c11 10bd 4610 863c e769 8cbd
00000220: 4225 f2ba cf03 223d 5127 083c 9bce 71bd
00000230: 59a9 5f3d 2a8e 7b3d 4092 133c 4625 66bd
00000240: 4299 30bd 20dd 03bd df22 4a3d cf55 f43c
00000250: 1180 6a3d 77c8 42bc 41f2 86bc c7fe 99bd
00000260: e6c5 6fbd b72c 0abd c754 0abd f628 aabc
00000270: 7e59 ce3c 5bc4 b4bc 9c94 443d 617d 033d
00000280: 8690 083d 46d7 75bd b505 fb3c c2eb 23bc
00000290: 934d 27bc 5008 c13c 7055 853c e871 fb3c
000002a0: bf0f 84bc 85f8 2abc 158b 8fbb 9478 4abc
000002b0: 279a 75bd dbfa 3dbd 86c0 0b3d 13f1 8cbd
000002c0: a0f5 213d dcea 7fbc c409 363d a42e 5a3b
000002d0: 8f89 613c b75e 0fbb e8f6 cbbc 0894 0f3c
000002e0: 3f9a bd3c 7a49 8dbd 624b 17bd 4170 c1bc
000002f0: 6bfd 41bd 1707 013b e880 12bb 1978 86bd
00000300: b5b9 933a dda6 153d 54d5 b63c d6fe 39bc
00000310: f119 4dbc 21ab 81bd ffb8 cebc 01a5 d0bc
00000320: c0d2 45bb 2f79 84bd 1ec5 703d a012 93bb
00000330: 5024 ca3b 2585 04bd e608 d4bc eeb1 113d
00000340: bc91 81bd 98ef f83c d442 c33c 60b8 f0bc
00000350: 0445 8abd 8092 593c 6b61 843d 1cad 593d
00000360: 8cde cdbc 0e92 64bd 0023 463c 72b7 643d
00000370: ac42 543d 404d dbbb 5f3e 14bd 144d 3c3d
00000380: 956e 82bd 0437 21bd b8a3 263c 82d3 cabc
00000390: 7236 3cbd cced a83c 3ce0 60bd f4bd 553d
000003a0: 684e 133d 647e 6bbd 3b32 863d 2706 4cbd
000003b0: c684 66bd c06e b9bc 4894 e5bc 00c5 99ba
000003c0: 5cc2 41bd f2f0 013d 0c4f 483d 565a 1d3d
000003d0: 2e88 153d fae2 773d 6453 283d d2a3 42bd
000003e0: 309f 7f3c b77b 72bd f26e 223d f089 e63b
000003f0: 40fd 253d 2a76 7e3d 9acf 8bbd e025 d33b
0.057765577 0.053147577 -0.011048828 0.03404631 -0.005720434 0.0060425317 0.00037284524 -0.01707654
-0.02154207 -0.007915239 -0.068861574 -0.07004115 -0.03138296 0.0108664865 -0.04852445 0.057177786
-0.010343965 -0.061359644 -0.046432212 0.03399397 0.006030003 -0.0011429625 -0.06978849 -0.028553778
-0.06304541 0.022869723 0.00023965571 -0.03034272 -0.06099779 0.03444176 0.039269038 0.013625782
0.011228635 0.037279185 -0.022573508 -0.002405082 -0.07320092 0.016948763 0.060193498 0.05191375
-0.07117172 -0.049536623 0.02120619 -0.0056677307 -0.03537015 0.029224955 0.02717853 -0.07093978
-0.0102841435 -0.024835408 -0.0051482427 -0.04628955 -0.07434787 -0.072176486 0.015488445 0.03064207
-0.05346677 0.034148656 -0.035290062 0.049182698 0.030410472 0.05142389 -0.029446924 -0.035311654
0.011305199 0.024964927 -0.003857475 -0.057814088 0.040180303 -0.033824723 0.013216434 0.0057650334
0.030632434 0.0215485 0.0098961145 -0.008310574 0.033631865 -0.03981227 0.030263254 -0.0048159272
-8.492024e-05 0.0049989 -0.0077524995 -0.01977008 -0.07176461 -0.0457124 0.01829678 -0.03891158
0.03678942 0.012773886 -0.014262992 -0.04107902 -0.024029706 -0.022544678 0.018075552 0.047170147
-0.02319776 -0.02187535 -0.009052915 0.036125746 0.05119924 -0.024242533 -0.054912534 0.032871578
-0.07082521 0.00039051758 -0.075059816 -0.020677434 -0.057560284 -0.019381426 0.004424626 -0.052205775
-0.045137946 -0.07934599 0.05654707 -0.026913948 0.0056198 -0.013346129 0.047187116 -0.0034796253
0.04978121 -0.053931393 0.05192882 -0.068987116 0.0035537826 0.015298517 0.032340158 -0.009616538
0.006187527 -0.064529024 0.04156 0.02520286 0.039318524 -0.035172686 0.016365182 -0.06856137
-0.0018474238 0.039554413 0.008310155 -0.059034925 0.054604862 0.061414875 0.009007037 -0.05618789
-0.043114908 -0.032193303 0.049349662 0.029826073 0.05725104 -0.011888615 -0.016472938 -0.07519298
-0.05853834 -0.03373405 -0.033772256 -0.020771485 0.025189158 -0.022066286 0.047993287 0.032101993
0.033340953 -0.060019754 0.03064237 -0.0100049395 -0.010211366 0.023563534 0.016276091 0.030693963
-0.01612079 -0.010435228 -0.0043805935 -0.01235785 -0.059961464 -0.046381813 0.03411915 -0.06881919
0.039540887 -0.01561996 0.044442907 0.003329196 0.013765707 -0.0021876523 -0.024898008 0.008763321
0.02314484 -0.0689878 -0.036937125 -0.023613097 -0.04736082 0.0019688064 -0.0022354666 -0.065658756
0.0011270555 0.036536086 0.02231852 -0.0113522615 -0.012518392 -0.063314684 -0.025234697 -0.025469305
-0.0030185431 -0.064684264 0.058781736 -0.0044883043 0.0061688796 -0.03235354 -0.02588315 0.035570078
-0.06326625 0.030387685 0.023835577 -0.029384792 -0.06751445 0.013279557 0.064638935 0.053143606
-0.025130533 -0.05580335 0.012093306 0.05583901 0.051821396 -0.0066925585 -0.036192294 0.045971945
-0.06368748 -0.039359108 0.0101708695 -0.024759058 -0.04595036 0.020621203 -0.054901347 0.052183107
0.035963446 -0.057493582 0.065525495 -0.049810555 -0.056278966 -0.022635818 -0.028024808 -0.0011731684
-0.047304496 0.031723924 0.04890351 0.03841623 0.036506824 0.060519196 0.041095152 -0.047519512
0.015601918 -0.059200015 0.039656587 0.0070354864 0.04052472 0.06212441 -0.06826706 0.006443724

encoders.0.bias f4 [200]
00000000: 313e 4cbd 760a e0bc c01d 7bbd 452b 43bd
00000010: 80aa 32ba 0ab7 99bd 01d8 6dbf ce69 1e3d
00000020: fdce f13d d83b 2abd 84d0 663d 2eee fa3b
00000030: 910a 2c3d 26a4 923f bae4 2a3d 10a8 8f3b
00000040: 7a51 c2bc c597 1cbd 94a8 80bd fb4c 20bd
00000050: 888f 54bf 1363 d73d 2144 423c 0c61 123d
00000060: f4e1 223c f42f 4a3d c4e8 1fbd bc61 323d
00000070: f4e7 403d 7775 ac3d 28fe 48bd 2e3b 21bd
00000080: 1039 83bd 8245 203d c89c 473d 1eb2 68bd
00000090: c455 c53c 247d 963c 284e 433c 91af 173d
000000a0: e32e 0cbd fcf7 45bd 4018 073e 4af6 81bd
000000b0: 72df 1fbc eaac c93d dbf7 58bf a5aa 4c3d
000000c0: 0ca6 3fbd a87e 51bd 246a 4cbd 4228 8e3d
000000d0: 390c d43b a62f 6f3d 1c8a 2abf 5189 8e3d
000000e0: 7ad7 81bd 3430 a93c e58b 813d 392e 33bd
000000f0: a9b8 1ebd d5ec 293d 13b5 8f3d 1229 053d
00000100: 4bd5 09bd fcbb 76bc 14b8 993c 0a6d 1f3c
00000110: e7a0 5ebc 2dd7 b53e 5788 9cbd 40d8 3a3d
00000120: 9e6d 38bd 3b11 c9bc 176f 49bf 1f49 92be
00000130: f80a 33be 264b 11bd f1fd 13bd 66fd c2bc
00000140: d562 993c 17bc 743d 14fd 453d a9c4 c23c
00000150: 7702 a93c 72e6 cabb 45a5 0b3f 64f8 5abd
00000160: fdb9 94bd 8393 833d 9532 9e3b 3ad1 083d
00000170: 83fc 8fbd 4345 53bb 65d4 33bd 606a cc3c
00000180: b8f6 253d 402b fabc 142d 913d 2b02 7e3c
00000190: 8ef4 663d e536 cc3e 0050 f43b f266 89bd
000001a0: 1461 1d3d f202 133d 1ff4 793c ca68 ecbd
000001b0: c77d 90bd 5921 e43d caab 463d c793 9a3d
000001c0: faf5 fd3c 5b78 3e3d a01b 90bb 925d 423f
000001d0: 724a 233d 086a 4bbd 9358 593e 32a8 033c
000001e0: b753 6fbe dde9 90bd 3526 f7bd 248e 14bd
000001f0: 3a2f 0cbd 764f 223d 9e11 8f3c 05a0 8fbd
00000200: 2db7 093d 0687 46bd 73fe 71bd f4e2 8a3f
00000210: bff7 843d 88f8 0b3d e718 803d 4f50 0e3e
00000220: 5a58 2d3d e4cf c33c 9331 943c 49db ce3e
00000230: 62ea ee3d 2734 1bbc 2afa 33bd 4e28 7dbd
00000240: abaa 083e d529 b53b 0ef7 173d 8c51 003c
00000250: e77b 50be eca0 013d 6691 ed3c c943 8bbd
00000260: fb95 05bd ba7e ff3e 6490 ae3c d6ae 913c
00000270: 6ac4 97bd e0bc 7fbb 62e0 833c 3d79 d6bb
00000280: 83a8 20bd 4268 5f3d f6d3 a6be d6d0 d7bc
00000290: 2933 573e af55 90bd 6923 bb3b 16da 563e
000002a0: e317 173d 12e6 64bd 79af 883d 50cd 5a3d
000002b0: 1c3f 15be 7024 1ebd 7d9b 1cbd f2ff babc
000002c0: 28c4 8a3c 5b33 0f3c e203 4cbd e2e4 47bd
000002d0: 7502 6c3d 49fc 2c3d 617a e3bd b6bf 20bd
000002e0: f7b9 773d 717a 9abb 2c3f bd3d b811 283d
000002f0: 7c98 4fbd 253e a83d 9a32 ea3c b80b d83d
00000300: 244a 8fbd 9866 8c3f cf25 883d 64e9 4ebd
00000310: be9e 353d b3b5 6fbd 7937 9f3c 90ea 143d
-0.049863998 -0.027348738 -0.06130767 -0.047648687 -0.00068155676 -0.07505615 -0.9290772 0.038675122
0.11807058 -0.041560978 0.0563512 0.0076577878 0.042002264 1.1456344 0.041722037 0.0043840483
-0.023720492 -0.038230676 -0.06282154 -0.039135914 -0.8303151 0.10516944 0.0118570635 0.035737082
0.009941567 0.049362138 -0.039040342 0.043550238 0.047096208 0.08420842 -0.049070507 -0.03936308
-0.06407368 0.039128788 0.048733503 -0.05681049 0.024088748 0.018370219 0.011920489 0.037032668
-0.034224402 -0.0483322 0.13192844 -0.06345804 -0.009757863 0.09847434 -0.847532 0.049967427
-0.046789214 -0.05114618 -0.04990591 0.06941272 0.0064711836 0.05839505 -0.6661699 0.06959785
-0.06339927 0.020652868 0.06325511 -0.043745253 -0.038750324 0.041485626 0.07016959 0.03250987
-0.033650678 -0.015059467 0.018764533 0.009730587 -0.013588167 0.3551573 -0.07643192 0.04561639
-0.045026414 -0.024544349 -0.78685135 -0.28571412 -0.17484653 -0.035472058 -0.03613085 -0.02380247
0.018723885 0.05974969 0.048337057 0.023775415 0.020631058 -0.006192022 0.54549056 -0.05345954
-0.07262037 0.0642462 0.004827807 0.03340266 -0.07030585 -0.0032237328 -0.043903727 0.024953067
0.040518492 -0.030538201 0.07088676 0.015503447 0.05638557 0.3988563 0.007455826 -0.067090884
0.03842266 0.03589148 0.015255957 -0.115434244 -0.0705524 0.11139173 0.048503675 0.075477175
0.03100108 0.0465015 -0.0043978244 0.75924027 0.03986592 -0.049661666 0.21225195 0.008035706
-0.23371778 -0.07075856 -0.12067834 -0.03626837 -0.034224726 0.03962656 0.017464455 -0.07012943
0.033621956 -0.048468612 -0.059080552 1.0850511 0.06492566 0.034172565 0.0625475 0.13897823
0.042320587 0.02390284 0.018090045 0.40401676 0.11665799 -0.009472883 -0.043939747 -0.061806016
0.13346355 0.0055286684 0.037100844 0.007831942 -0.20359765 0.031647608 0.028999995 -0.06800038
-0.032613736 0.49901372 0.021309085 0.017783564 -0.0741051 -0.003902249 0.016098205 -0.0065452144
-0.039223205 0.054542787 -0.32583588 -0.026344698 0.2101561 -0.07047593 0.0057110083 0.2098163
0.036888015 -0.055883475 0.06674094 0.053418458 -0.14574856 -0.03860897 -0.038234223 -0.022827122
0.016939238 0.008740271 -0.04980839 -0.048802264 0.05761953 0.042232785 -0.11107326 -0.03924533
0.060480084 -0.004714303 0.09240565 0.041032523 -0.05068253 0.08214978 0.028588582 0.1054911
-0.06996563 1.0968809 0.066478364 -0.050515547 0.04434084 -0.05852289 0.019435631 0.03635651

encoders.1.weight f4 [100, 200]
00000000: b5b6 86bd 4c90 373d fcb7 a23c c467 5b3d
00000010: f6c8 033d 8aac 88bb 2cd1 3cbd 6887 95bd
00000020: 4823 fa3c 607a eabb 08bc 1ebd c2a7 bd3c
00000030: ca5b 06bc 9a67 b2b8 427f 3f3d bae5 c3bc
00000040: 699f bd3b 090a 803d 140d 34bd 28a7 0f3d
00000050: 5ce2 96bd 6a0a 5fbc c139 663c c464 6f3d
00000060: 5b44 cc3c da0a 23bd 7d61 6b3d 88c3 e03c
00000070: 7688 0ebd 9393 afbc 08cf d93c 4bda 00bd
00000080: 7142 99bd d6c1 19bd 1c86 513d e0bd 193d
00000090: 3cf5 8d3d eae0 c53c 829b 783d 72c6 8c3c
000000a0: 0d50 73bd 4f53 84bd 46ff 2d3d 4a18 43bd
000000b0: 8ea7 403d bae8 12bd 3acb 8ebd f74f 4bbd
000000c0: a868 58bc efd1 19bd df05 1bbd 8fe1 623b
000000d0: 06a0 7abd 40d2 9f3b 8650 8bbd 1e69 0c3d
000000e0: da17 323d 10e1 3dbd 320a 733d 9b18 653d
000000f0: 6166 03bd 8ccb 54bd aced 26bd 2232 6cbd
00000100: 80c2 6c3b b89b bb3c aa5e 0bbc d27d 4dbd
00000110: ae89 56bd e544 49bd 8fe8 8ebd 533d 113c
00000120: e618 ce3b a4d5 c03c c672 5bbd b9c7 4abd
00000130: 2f90 503d 6b34 81bd 7019 633d 124d 7e3c
00000140: 0413 b8bc bf2f 4ebd 002d bc3b 2885 c8bc
00000150: 45c1 90bd 9fd1 9cbd 6169 483d 1655 2c3c
00000160: 04ea 85bd fc6f 7dbc 86fa f4bb 5a8c 33bd
00000170: 5f69 4c3d 7a84 073d dfe4 863c 7e60 5e3d
00000180: 70d8 0b3c 733c e53b f96e d33c f16c 19bd
00000190: 5cc5 833b 2747 57bd 6a46 12bd 20d6 72bd
000001a0: 3771 21bd 8337 823d ee78 153d acb6 e93c
000001b0: d031 90bb a3d9 8b3c 1a29 82bd 161d 743c
000001c0: c963 843c 370b 19bd 5efa 84bc fe78 45bc
000001d0: 3e1a 46bd 7caa 903c 384d 3f3d 79a1 02bd
000001e0: 140a edbb bb48 a4bc 213a bb3b 7f8f 88bd
000001f0: 11b5 893d 0851 c83c 2759 94bd b384 56bd
00000200: 07b6 123a e02f e7bb 195f 903d 16a5 b43a
00000210: 5d71 a1bb 000e 1c3a 4a6a 683d 44d6 26bd
00000220: 0040 773d 4359 1abd 0ac0 0dbd 51d7 83bc
00000230: 3e44 713d 4880 76bd 2551 213c 495f 18bd
00000240: c37b 513d a119 583d 807a 28bb f2fa 90bc
00000250: 5449 7d3d 9d22 95bd c704 fb3c 7b82 0abd
00000260: a0c3 bf3c 1e3d b9bc 00ca 6f39 7bba 20bd
00000270: 3f70 05bd db3e 843c d6c6 6b3d aa8c 69bc
00000280: 81cd 153d e8ed d5bb 234c ba3c f091 8cbb
00000290: 1b14 5a3d feb6 703d ef42 9e3c b313 e8bc
000002a0: d951 0abb 2615 cc3c 5c47 7dbd 2004 ca3c
000002b0: 9f33 b63c 408e fc3a f624 19bd ecfc a33c
000002c0: 0e54 50ba c37b 8abd a629 643d 0077 173c
000002d0: 4844 50bd 41c8 183d f5ca 91bc f897 85bd
000002e0: e906 52bb 691f aabc 4f6b 87bc e59f 813c
000002f0: b897 3abc fcbb 29bd ea76 433d 33ba 4d3c
00000300: 6d09 bfbc d754 d3bd e70b 133c 975a 83bd
00000310: a0e5 0c3b 9d31 693d 0752 da3c 7e93 aabb
00000320: d83f 3db9 c0b7 763c e841 263d 0e53 1c3d
00000330: 7c7e 5fbc 8f4b 463c fdeb 6dbd 0445 263c
00000340: ddc9 02bd 9e69 763d 55dd 35bd 4f7b 85bc
00000350: 6515 49bd c740 bcbd da19 4e3d 4eff 0b3d
00000360: 8b89 5fbd 9354 c03c 3044 d63c 2e3e 3c3d
00000370: 8b6d c9bd c02d e63c 2845 773d d489 81bd
00000380: e096 5bbd 40d8 e1bb ef59 bd3c c0dd 05bb
00000390: dce1 55bd 8065 08bd 781a 903c cca1 a2bd
000003a0: d84a 31bd f52e 26bd 3daa 8d3d bcd7 f9bc
000003b0: d054 13bb a6ea 66bc 5808 40bd 7278 973c
000003c0: 794a 4b3a d559 86bb a916 1d3d 9c16 043d
000003d0: 5d3c f13c 885e d6bd e0f9 53bc 10ed 91bd
000003e0: d154 8d3d 97bc 5fbc d9c7 4e3d 77e0 5fbd
000003f0: b92b 90bc dfa8 4f3d ce82 94bc 3f89 75bd
-0.06577817 0.044815347 0.019863121 0.053565755 0.032174073 -0.004170959 -0.04609792 -0.07301217
0.030534402 -0.0071557015 -0.03875354 0.023151282 -0.008200595 -8.506999e-05 0.046752222 -0.023913253
0.0057868254 0.06251914 -0.043957785 0.035071522 -0.073673934 -0.013613323 0.014051856 0.058445707
0.024934938 -0.03980527 0.05746602 0.027436987 -0.034798108 -0.021432674 0.026587978 -0.03145818
-0.07483376 -0.037538372 0.051153287 0.037534595 0.0693154 0.024155099 0.06069518 0.01718447
-0.059402514 -0.06461202 0.042479776 -0.047630586 0.047034793 -0.035866477 -0.06972356 -0.049636807
-0.013208546 -0.037553724 -0.037847396 0.0034619307 -0.061187766 0.0048773587 -0.06802468 0.034279935
0.043479778 -0.046357214 0.059335895 0.05593167 -0.032080058 -0.05195193 -0.040754005 -0.057664998
0.0036126673 0.0229014 -0.008506456 -0.05016882 -0.052377395 -0.04913797 -0.06977951 0.0088647185
0.006289589 0.023539372 -0.053576253 -0.049506877 0.050918754 -0.06308826 0.05544418 0.015521305
-0.022470005 -0.050338503 0.005742669 -0.024477556 -0.07068113 -0.076571696 0.048928622 0.010518333
-0.065387756 -0.015468594 -0.007476154 -0.04383502 0.049905177 0.033085324 0.016466556 0.05429124
0.008535489 0.0069957315 0.025809752 -0.03745741 0.00402133 -0.05255809 -0.035711683 -0.059286237
-0.03941461 0.06358244 0.03649228 0.028529488 -0.0044004694 0.01707155 -0.06355496 0.014899513
0.016160863 -0.03736421 -0.016232666 -0.012052773 -0.04836487 0.017659418 0.0467045 -0.031892274
-0.0072338674 -0.020054212 0.0057137166 -0.06667995 0.06723989 0.024452701 -0.07243567 -0.052372646
0.0005596582 -0.0070552677 0.070493884 0.001378211 -0.004926844 0.0005953014 0.05674199 -0.040731683
0.06036377 -0.037682783 -0.03460697 -0.016093882 0.05890297 -0.060180932 0.0098460065 -0.037200246
0.05114342 0.052758817 -0.0025707781 -0.017697785 0.06183751 -0.072819926 0.030641926 -0.033815842
0.023408711 -0.02261215 0.00022868067 -0.03924034 -0.03257775 0.016143253 0.05756267 -0.014254728
0.036572937 -0.006528605 0.022741383 -0.004289858 0.05324183 0.058768265 0.019319026 -0.028329706
-0.0021105914 0.024912428 -0.06183563 0.02466017 0.022241412 0.0019268468 -0.037388764 0.020018063
-0.00079470954 -0.06761887 0.05570378 0.00924468 -0.050846368 0.037300352 -0.017796973 -0.06523126
-0.0032047576 -0.02076693 -0.01653066 0.015823314 -0.011388712 -0.04143904 0.047720827 0.0125566
-0.023319924 -0.10318916 0.008975006 -0.06413763 0.0021499172 0.05693208 0.026650442 -0.0052055707
-0.00018048228 0.015058458 0.040590197 0.038165145 -0.013640996 0.0121029755 -0.058086384 0.010148291
-0.031930793 0.06015932 -0.04440053 -0.01629415 -0.04909267 -0.09192043 0.050317623 0.034179024
-0.05457453 0.023477828 0.026155561 0.045957737 -0.09835347 0.028097987 0.060368687 -0.06325117
-0.053610682 -0.006892234 0.023114173 -0.0020426363 -0.05221735 -0.033299923 0.017590746 -0.079410166
-0.043284267 -0.040572125 0.06917236 -0.030498378 -0.0022480972 -0.0140940305 -0.046882957 0.01849005
0.0007754933 -0.0041000643 0.03835169 0.032248124 0.029447729 -0.10467249 -0.012937993 -0.07125294
0.06900943 -0.013655803 0.05048356 -0.054657426 -0.017598974 0.050698157 -0.018128779 -0.05994534

encoders.1.bias f4 [100]
00000000: ab14 3cbd ef50 d8bc 88f4 7e3e 23f9 b93d
00000010: efdd 28be f16c 47be 387c 5cbd f37e 85bd
00000020: 27af e73d c9e7 9fbd b638 3c3e af6e 4a3e
00000030: 730b d7bc 1582 11be 0560 4d3c f4e2 72bc
00000040: 27cb 1f3d 836b 14bd 86c5 893e 21dd 93bc
00000050: 578b 103f 1cf1 503f f3b6 f23a f6bb 7b3d
00000060: f678 afbd 1ee6 e43e 7eac b8be c2e0 efbb
00000070: 0db7 153f 3984 593f 29a6 b0bd 66af 2dbd
00000080: 2975 a7bd 415e 88bc 50fb 99bc 79cc 8ebf
00000090: 7e4f e9bd 38f2 1a3e 56d0 99bd f223 e4bd
000000a0: ad7e 3fbd af06 cabc 67cd 413d f8b5 61bd
000000b0: 46c0 2ebd bd68 96bf 112e 583e 9917 f1bd
000000c0: f993 b8bd 19a0 7b3e 0a3f c7bb ef6d 3ebd
000000d0: 06e8 49be 2f31 393a e5ed 713f 148e 44be
000000e0: ed62 d23d 7c40 41bd 3f4b 02be d6c6 e0bd
000000f0: 9bbc 07be 39a4 a4bd 5619 0dbf d4ac 08be
00000100: 10b6 b2bd a640 b4be 5a52 863d 6ccd 99bc
00000110: a091 88bc 45bc 1fbd dfbf 86bd 60cf d53d
00000120: e9f0 9ebd afcb fdbd 64a5 253e 7bf8 d9be
00000130: 5102 34bf eec7 e6bd eaf7 69bf 5ae5 7dbd
00000140: 2587 bdbd 983e bbbd 233b 84bd 3394 05be
00000150: ceb5 62bd 6d15 cebd 917a cabe 8a8a 62bd
00000160: faea d0bd 0e9f cebd c090 7bbd e106 d0bd
00000170: 5d91 bdbf 3111 5cbc 2173 b1bd 59f8 f1bc
00000180: 4e2c aabb b823 9e3e d542 d83e aa43 01be
-0.045918148 -0.02640578 0.24897969 0.09080722 -0.16490911 -0.19475152 -0.0538294 -0.06518354
0.113127045 -0.078078814 0.18381009 0.19768785 -0.026250577 -0.14209779 0.0125351 -0.014824618
0.0390121 -0.036235344 0.2690851 -0.018049778 0.56462616 0.81617904 0.0018517658 0.06145855
-0.08567993 0.44706815 -0.360691 -0.0073204944 0.5848244 0.8496738 -0.086254425 -0.0424036
-0.081766434 -0.016646506 -0.018796593 -1.115615 -0.11392115 0.15131462 -0.0751044 -0.111396685
-0.046751667 -0.02466139 0.047315028 -0.05510518 -0.042663835 -1.1750714 0.21111323 -0.11772079
-0.090125985 0.24572791 -0.006080513 -0.04649156 -0.19717416 0.0007064519 0.94503623 -0.19194824
0.10272775 -0.047180638 -0.12724017 -0.10975425 -0.13255541 -0.080391355 -0.55116785 -0.13347179
-0.08726132 -0.35205573 0.06558676 -0.01877471 -0.016671002 -0.038997907 -0.06579565 0.10439944
-0.07760794 -0.12392365 0.16176373 -0.42572388 -0.70316035 -0.11268602 -0.9139391 -0.061986305
-0.092542924 -0.09142798 -0.06456592 -0.13044815 -0.055349164 -0.100626804 -0.39546636 -0.055307902
-0.10201068 -0.10088931 -0.06141734 -0.10157562 -1.4809986 -0.013431833 -0.08664537 -0.029537367
-0.00519327 0.30886626 0.4223849 -0.12623468

fc_mu.weight f4 [4, 100]
00000000: 33a1 193d 10e6 753d 0045 163d ff95 43bd
00000010: 9288 f43a 1def 0a3d 502d 8f3c c6b0 213d
00000020: 66b0 bdbd 4b08 893d cec4 343b 7bc6 d1bc
00000030: f5b9 43bd 9cca b23d 8149 3dbd 8228 8fbc
00000040: fd69 403c b107 243c 7cd7 883c 176f f23c
00000050: d0c8 4bbb 4c9d 103b 9823 19bc fc58 92bc
00000060: d305 04be dc2c c73b 9164 4d3c be83 adbd
00000070: d900 ab3b 093d 51bb bae9 c3bd 41b7 90bd
00000080: 2218 b23c eb97 c73c 1b63 8cbd 30f2 08bc
00000090: b0c1 11bd 8cc9 7c3d 971d 47bc 8283 82bc
000000a0: 2ff3 21b9 d3f3 6fbd a5ed 3fbd e0f2 bd3c
000000b0: 528e 453c 299a 0abc c6c8 043e 1339 babd
000000c0: a37c 193d 01bf 8abd e26f 5dbd 189b 403d
000000d0: 577b a0bd e6f6 32bd 4b18 6dbb 474f 0ebc
000000e0: e7af a5bb 9a67 5e3c 5566 7b3d 6cee b8bd
000000f0: ad0a 103b 5477 07bd 06ec e937 f6b1 f8bc
00000100: 07b2 493c 7434 69bc b4ba d8bc ccce 583d
00000110: 0683 393d fafd 5cbc a401 c83c 993a 70bb
00000120: d78d f63c 6a63 c43d 9285 5d3d c13f 7fbb
00000130: 310e b6ba 0d2b 7abd 7511 313b 8842 1ebd
00000140: c34b 1c3d 35d6 3d3d 1aa4 67bd 73aa 533d
00000150: 65e4 533d 23eb 14be bdd9 f53b 2f97 1dbd
00000160: 57be 063b 3f5c 233d ca4f 073d f80b 72bd
00000170: ec00 66bb 4aca 2abc 8262 7ebd e71f 9a3d
00000180: 4077 be3d df77 353a 8b74 8a3b 6a6c 8b3c
00000190: dcba 96bb 61f9 523c e02b 173d 46e4 d03b
000001a0: cd57 553e 0d62 2bbd 7030 4cbd b180 643d
000001b0: ada2 643c 1416 113c c088 bbbb f457 863c
000001c0: 29bd 72bb 47e2 d83b ed08 94bd 6a4f cb3c
000001d0: e627 893d d923 153d 2d98 30bc d0c1 1a3d
000001e0: fb92 2cbd a9ba 28be aeee 6e3d 16bd febc
000001f0: 1ed3 b43c f6bc 83bd 8503 fb3c 0cc9 983c
00000200: 8649 473d b96e 1c3c aa00 44bd 54f1 45bc
00000210: b3b2 adbd 9a1e 833d d229 39bd 05ab 353e
00000220: 5f98 c93c 3d36 bbb9 be60 a63c 8fc5 41bd
00000230: 3d01 c33b 5625 b93b cb3e 5ebd 132a 7aba
00000240: c570 353c 2df2 91bd a57b 823c cb24 913c
00000250: e196 72bd 5496 073d 9a7d 913d 51f7 9d3b
00000260: b10c 353d 4b88 75bc 2e2f 8cbd 553d 693e
00000270: be79 33bc cb16 ccbb 18ae 49bd 0121 1dbc
00000280: 391f 073d 41ce e53c b835 843d a9b2 f33c
00000290: 8e60 65bd e531 8bbd 94e5 d83c 8c6e c7bc
000002a0: 3cfb 1cbd 2aba 9739 f445 343d 6c5e 2e3c
000002b0: 1539 0b3d a81d 08bd 7a79 363d b5f4 af3d
000002c0: fa59 e93c 6488 643c e831 79bd 7e59 143c
000002d0: 3588 0abd 2a5c cd3a bac1 173b 0901 6abd
000002e0: de79 823c b275 e63c e012 c53d c5f0 57bd
000002f0: 8dd2 573d 9a6e b93c cfad 1ebd 77b0 253d
00000300: 5c23 3a3e 1007 fdbb b1a1 513d a045 39bd
00000310: ac0f a2bd 3d84 97bc d408 17be ee82 93bc
00000320: 6be9 d138 f095 86bc 3336 ab3c ddaf 27bd
00000330: 966b f1ba d002 803d ef38 923d 02f0 313d
00000340: 2b5e 11bd 078d b93d 38b1 083c 3276 8b3d
00000350: 2afc 4c3d a121 183d 1fc4 e73c e9ac 553d
00000360: d0fb 4fbd a38d 143d 663c 873d 10f6 5f3c
00000370: a7c4 2e3b d04c 883b 6b96 803c eef3 9f3c
00000380: 560d 013b 3633 9c3a ec89 283d 5f5e e6bc
00000390: 5037 fc3a d097 9bbb 17b3 6abd 1187 4b3c
000003a0: 2fc2 78bd 6ad6 c83d 91db 863d 8d58 69bc
000003b0: 86d4 243d 6e29 c3bc 849b 2f3d 20d9 84bd
000003c0: eae2 8ebc 0adf f93d eb8c 41bd 23b2 473d
000003d0: b0ff 80bc 7b3d 823a 7d4b 1bbd 2158 6bbd
000003e0: 535a ce3c 60a4 25bd 39fa 803d 4d5c 683b
000003f0: 0462 843c 9020 8fbc 45d4 87bb 7dd9 93ba
0.037507247 0.060033858 0.036686897 -0.04775047 0.0018656424 0.033919442 0.017477661 0.039475225
-0.09262161 0.06691035 0.0027583125 -0.025607338 -0.047784764 0.08730051 -0.046212677 -0.01747537
0.01174402 0.010011599 0.016704313 0.029593987 -0.0031095035 0.0022066412 -0.009346865 -0.017864697
-0.12892847 0.0060783457 0.012536184 -0.084723935 0.005218607 -0.003192725 -0.09566064 -0.07066203
0.021740023 0.024364432 -0.0685484 -0.008358523 -0.035585105 0.061715648 -0.012153051 -0.015931848
-0.0001544475 -0.05858214 -0.046857495 0.0231871 0.012057858 -0.008459606 0.12967214 -0.09092917
0.03747238 -0.06774712 -0.054061778 0.04702291 -0.07836025 -0.043692492 -0.003617781 -0.008685893
-0.0050563696 0.013574505 0.06137689 -0.0902985 0.002197902 -0.033072785 2.7885671e-05 -0.030358296
0.012310511 -0.014233697 -0.026456214 0.052931592 0.04529097 -0.013488287 0.024414845 -0.003665602
0.030096931 0.09589274 0.05408246 -0.0038947912 -0.0013889727 -0.061076213 0.0027018462 -0.038637668
0.03815819 0.046346862 -0.056552984 0.051676225 0.051731486 -0.14542823 0.007502763 -0.038474258
0.0020560229 0.039882895 0.033035077 -0.059093446 -0.0035095764 -0.010424206 -0.062105663 0.07525616
0.09300089 0.0006922464 0.004225319 0.01701947 -0.004599912 0.012876839 0.036907077 0.0063748686
0.20834275 -0.041841555 -0.04985088 0.055786792 0.013954801 0.0088553615 -0.005723089 0.016399361
-0.0037039018 0.0066187712 -0.07228265 0.024818141 0.06697063 0.03641114 -0.010778469 0.03778249
-0.04213236 -0.16477455 0.05833309 -0.031096023 0.022073325 -0.06432526 0.030641327 0.018650554
0.0486541 0.009547883 -0.047852196 -0.012081463 -0.0848135 0.06402321 -0.0452059 0.1774102
0.024608789 -0.0003570783 0.020309802 -0.047307547 0.0059510753 0.0056502027 -0.054259103 -0.0009543013
0.01107425 -0.071262695 0.015928099 0.01771774 -0.05922592 0.03310235 0.07104035 0.004820742
0.044201557 -0.014986108 -0.06844936 0.22777303 -0.010954319 -0.006228303 -0.049238294 -0.009590388
0.03298876 0.028052451 0.064555585 0.029748278 -0.056000285 -0.06796626 0.026476659 -0.024344705
-0.038325533 0.00028939667 0.044012025 0.010642629 0.033989985 -0.033231407 0.044549443 0.08591596
0.028485287 0.013948534 -0.06083861 0.00905454 -0.033821303 0.0015667726 0.0023156242 -0.057129893
0.015927251 0.028132293 0.09622741 -0.05271985 0.05269103 0.022635747 -0.038739976 0.040451493
0.18177551 -0.007721789 0.05117959 -0.045232415 -0.079131454 -0.018495673 -0.14749461 -0.018006768
0.00010009374 -0.016428918 0.020899868 -0.0409392 -0.0018418904 0.062505364 0.071397655 0.04344178
-0.035490196 0.09060102 0.0083430335 0.06809653 0.05004517 0.037141446 0.02829176 0.052166853
-0.050777256 0.036267888 0.06603317 0.013669506 0.0026667507 0.0041595474 0.015696725 0.019525494
0.0019691787 0.0011917118 0.041147158 -0.028121172 0.0019242559 -0.004748322 -0.0572997 0.012422339
-0.060732063 0.09806521 0.06584848 -0.014242304 0.04024174 -0.023823466 0.04287292 -0.06486726
-0.017442185 0.122007445 -0.04725353 0.04875387 -0.015746921 0.0009936535 -0.037913788 -0.057457093
0.025189554 -0.040439963 0.06297726 0.0035455406 0.016160019 -0.017471582 -0.0041451775 -0.0011280027

fc_mu.bias f4 [4]
00000000: 4568 38bc 400a 20bf 49f7 f4bb 033f 053a
-0.011255329 -0.6251564 -0.0074757678 0.0005082937

fc_logvar.weight f4 [4, 100]
00000000: 00b5 273c 2c1f 253d 2fda 103c 0a02 01bd
00000010: 0ca0 30ba 8b06 cebc b4f5 c83a 228e a8bd
00000020: 4ab0 523c 191f 00bd a964 8dbc c6cc d7bc
00000030: 2843 353d 6b7c 9fba 1064 09bb ddc3 80bd
00000040: 771f eebb 9bdd f53c 5a55 19bd f7ee cc3d
00000050: 3895 cb3a 1ba8 8eba ca1e beba 1b30 963a
00000060: 2b06 85bd 4ed7 06bb 9916 4ebb a4e9 53bd
00000070: d94e 9eb7 801e 0ebb 1c7b 0dbd 0da8 353c
00000080: 1156 043c 97f1 6ebd 78d5 c33d 5b06 193b
00000090: a2b3 523d 816f 0bbd 834a cb3c c3a1 be3c
000000a0: 9d7a ba3c 36c4 59bd 5e25 fabc b73f 1bbd
000000b0: 0783 9f3c df24 193a 6f6f 57bd c537 033d
000000c0: 878f 62ba 23b7 433d a766 06bd b59f 993c
000000d0: e4e1 dc3c 1ae1 2bbd 075b aa39 3707 0e3c
000000e0: 803c c3b9 e3a2 003e ba8c a13d 2f1e a83d
000000f0: c78d d3ba 01f6 133c a8dc edba a89d c03c
00000100: 78e0 8bbc ce0c 893c 30bd 613d e274 903d
00000110: 0c04 4c3d 2289 26be cc8c bf3c 62a5 2e3d
00000120: 70c5 353d 7778 9d3d e542 0739 ab0d fe39
00000130: bbe2 913a 5c79 a6bd f7c3 01bb dd24 a23c
00000140: 7bbe 903d 5cd8 9c3b 480c 2d3d 290d 843c
00000150: 0e06 233d 2530 25bd d01a cfba 565f c0bd
00000160: 3adc 103a 2b92 e3bd 6994 223b f9a1 8e3d
00000170: c438 2939 3f56 22bd 1f11 d9bd 4e8c 723d
00000180: a0e4 9d3c 4cd6 5fbb 3e83 3f3a f134 aabc
00000190: e36f 8abc 2fe8 11bd ca6b 613d b179 74bc
000001a0: c72e f1bd e1b4 cc3d 98b0 363c 08ee 2ebc
000001b0: 1a6d 86bc cc97 883d f66e 173c e8e5 5dba
000001c0: 2ba7 b53c 113a 4f3d a60c 45bc 3d89 31bd
000001d0: 7f75 f33b 096c 063e 41a3 4e3d f1f2 2ebd
000001e0: d481 a8bd ce4e d2bd 56c7 34bd 8757 15bd
000001f0: f152 c2bc 10e6 f33d b419 ff3d 3c19 59ba
00000200: caf6 08be dd84 1abe 5f9e 67bd c694 6bbd
00000210: 6ddf 9dbb 3ad2 823d dddf 5a3d 98a1 073e
00000220: bb38 32bb ab40 c6bb 9449 813d 9e45 433d
00000230: 193a c6bd 0ae7 5a3d b3b6 d7bc 7901 eabc
00000240: 4c5f a3bd 976f 4d3e f810 193c d462 f03c
00000250: fec3 b93d 1a21 033c fa88 58bd 6404 ba3d
00000260: 0cc1 e6bc 7662 52ba d8fc abbd 9dae bd3e
00000270: 501a e6bd 81c2 7a3d d3b9 de3c 535c 2cbc
00000280: c850 87be 2ef7 8c3d c35f 043e e505 0c3d
00000290: 0c0b 313d d5af 9a3e 7f07 3a3c 54eb d53b
000002a0: 79e9 72bd 5a5a ac3d 0212 b13c b15d 78bd
000002b0: 2816 083e 950f b13b 6e79 633d 9799 d53d
000002c0: 22c6 e33d cadd 193d 3fe6 da3d 5c5a ab3c
000002d0: 0df6 2d3c 8b96 7ebc 19c8 12bc a201 893d
000002e0: 0765 593d 5ebf 063d 0837 f1bd 02c4 983c
000002f0: 3633 25bd ace5 253d 5fef 05bd e9b4 1f3d
00000300: 6adf 0c3e e6da 643d 4222 723d 6630 bb3c
00000310: c3eb 693d f491 46be d5de 703e f82c 263d
00000320: a706 453b e67d db3c 44ea 82bd af28 23bd
00000330: 3956 aab9 920e 503c 116b c53c a6c2 793d
00000340: b1f9 2b3c a2c3 8f3c 86fc 9fbd f319 143d
00000350: 796b 92bd 99d3 d13d 1b8e 533d 917b 8cbd
00000360: 791f 9b3d caf6 00be 9d1b b9bc d397 15bd
00000370: 777e ac3a 4f22 eab8 f12c 173d a737 123d
00000380: 9c80 143d d7f5 a6ba 97c1 cf3b 38b1 413c
00000390: 85b4 d3b9 8cdc cfba a6f5 683d 1306 d83d
000003a0: 6105 30bd a3ad 923c 463d fd3d d36b d939
000003b0: 5562 ddbc c228 bcbc f431 6f3d 47a5 2fbc
000003c0: c701 3dbc 544a 3a3d 755c 643d 686e dd37
000003d0: 430d 4b3d 46ae 3dba ac65 4ebb f21a 5dbd
000003e0: 2fcf 4f3d ae46 8c3d b98a 32bc 14ee a13c
000003f0: 3a36 61bd 8bb2 fb3c 5b8a 2c3b cd72 ff3a
0.010236025 0.04031293 0.0088410815 -0.031496085 -0.0006737716 -0.025149604 0.0015332014 -0.08230235
0.012859413 -0.031279657 -0.017259913 -0.02634276 0.0442535 -0.0012167817 -0.0020964183 -0.06287358
-0.0072669345 0.030012896 -0.037434913 0.100065164 0.0015532142 -0.001088384 -0.0014505025 0.0011458428
-0.06495317 -0.002057511 -0.0031446575 -0.05173649 -1.8871784e-05 -0.002168566 -0.034541234 0.01108743
0.00807716 -0.058335867 0.095622 0.0023349735 0.051440842 -0.034041885 0.024815803 0.023270493
0.022763545 -0.053165637 -0.030535396 -0.03790256 0.019471658 0.0005841981 -0.052596506 0.032035608
-0.0008642603 0.047782075 -0.03281274 0.018752912 0.026963182 -0.04196272 0.00032492747 0.008668712
-0.00037238374 0.12562136 0.078881696 0.08208882 -0.0016140275 0.00903082 -0.0018147426 0.023512676
-0.017074808 0.016729739 0.055112064 0.070535436 0.049808547 -0.1626325 0.023382567 0.04263819
0.044377744 0.076889925 0.00012899523 0.0004845684 0.0011130193 -0.08128616 -0.0019800642 0.019792968
0.07067581 0.0047865342 0.04224804 0.016119557 0.039800696 -0.040329117 -0.0015800837 -0.09393184
0.00055259804 -0.11111864 0.0024807698 0.069644876 0.00016138243 -0.039633032 -0.10598969 0.059215836
0.019274056 -0.003415483 0.00073056284 -0.020777198 -0.016899055 -0.03562182 0.055034436 -0.014921592
-0.117765 0.099954374 0.011150502 -0.010676868 -0.016409446 0.06669578 0.009242764 -0.00084647397
0.022174438 0.050592486 -0.012026941 -0.04334377 0.007429778 0.1312715 0.05044866 -0.042712156
-0.08227888 -0.10268937 -0.044135414 -0.036460426 -0.02372119 0.11909115 0.12456074 -0.0008281653
-0.13375393 -0.15089746 -0.05654752 -0.05751493 -0.004817894 0.06387754 0.05343615 0.13245237
-0.0027194459 -0.0060501895 0.06312862 0.047673814 -0.0967905 0.053442992 -0.026332235 -0.028565155
-0.07977161 0.200621 0.009342425 0.029344 0.09070586 0.0080034975 -0.052865006 0.09082869
-0.028168224 -0.0008025536 -0.083978355 0.37047282 -0.112354875 0.06122065 0.027188217 -0.010520059
-0.2642882 0.06883083 0.12927155 0.03418531 0.043223426 0.30212274 0.011354326 0.0065282974
-0.059304688 0.08415671 0.021615032 -0.060636226 0.13289702 0.005403469 0.055535726 0.104296856
0.11121775 0.03756503 0.10688447 0.02091711 0.010617745 -0.015538822 -0.00895884 0.066897646
0.053074863 0.032897346 -0.117780745 0.018648151 -0.04033204 0.040502235 -0.032698985 0.03899089
0.137571 0.05587282 0.059114702 0.022850227 0.057109606 -0.19391614 0.23522504 0.04057023
0.003006378 0.026793431 -0.06392339 -0.03983372 -0.00032489168 0.012698786 0.024098905 0.060976647
0.010496543 0.01754934 -0.07811837 0.03615756 -0.07149405 0.10245437 0.051649194 -0.06859506
0.07574362 -0.12594143 -0.022596175 -0.036521744 0.0013160248 -0.0001116438 0.036908094 0.035697605
0.036255464 -0.0012738061 0.0063402164 0.011822037 -0.00040379554 -0.0015858575 0.056874894 0.105480336
-0.04297388 0.017905062 0.123652026 0.000414698 -0.027024427 -0.022968654 0.05839725 -0.0107205575
-0.011536068 0.04548104 0.055752236 2.6396665e-05 0.049573194 -0.00072357466 -0.0031493707 -0.053980775
0.050734695 0.068494186 -0.010897332 0.019766845 -0.054983355 0.030724784 0.0026327583 0.0019489169

fc_logvar.bias f4 [4]
00000000: 07f4 5c3a b419 38bf 9281 853a 5eff d83a
0.0008428697 -0.7191422 0.001018571 0.0016555598

decoders.0.weight f4 [100, 5]
00000000: acb2 273a ae1e 8d3c e374 bcba ba97 6aba
00000010: 1519 fe3f 0c53 e5ba f467 aaba 7767 2c3b
00000020: 1ed4 183c 9a59 ddbe 95d9 25bd cf60 d33b
00000030: 8f65 353c 2b5d 1cbc f5bd 2bc0 eb1c b43c
00000040: c083 083e 2600 54bd 7f1e fd3c bb0c 71c0
00000050: 0329 d839 99ff a7bb f662 843a 96db b839
00000060: afc0 cebf ff4b 4dbc b4cb a63a f8e0 7fbc
00000070: c27a 98bb 63ea c2bf 99a4 8abd 8c7b 0abc
00000080: 7d32 543c 244d 1b3d 6ee2 913e 02d4 5e3b
00000090: 3487 6f3e 923b 903b f49e 9f3b dc84 e23f
000000a0: 1679 113d 249a 94bb 1c06 3a3a 4258 a9bc
000000b0: e445 49bf f841 803c a314 16bd 74fc 993b
000000c0: 46e1 5abc 48d5 a03e 2322 9bbc 01cd b7ba
000000d0: d8ae f4bc cedb cbbb 24ee 8c3f 8377 043b
000000e0: 9ba2 3a3b 25c8 e1b9 7def 083b e1b0 72c0
000000f0: 0585 033c 80c4 423c d4c7 db3b dbc0 b3ba
00000100: c2a0 07c0 9b53 b9ba 718b 5abb 03e0 103a
00000110: 0dc5 39b9 1514 02be ad6d 8aba e193 df3d
00000120: 9678 20bb ec4b 84ba 429c 0840 9432 09bc
00000130: fa20 cdbc 8ff1 e23d 7e9e ddbb 682a 5ebf
00000140: 9ab1 dabb 3603 1abe e80f b8bb eb97 39bc
00000150: 4bf7 a6bf b68f 643c 83f3 323c 3c10 56b9
00000160: 2a45 a6bc 0570 963d 933b bcbc ae07 853e
00000170: 550d 62bb 2cae 213c 3ab3 68c0 124c 9ebb
00000180: 69b6 4a3e fd5a 1bb8 e085 833c d9d0 60c0
00000190: 6743 acba 75e9 80bb d557 63bb 3d3c 1a3b
000001a0: 3a6c fb3e c0d5 af3b 31cb 1fbf 2cf9 a13c
000001b0: 7f98 b2ba 3ee0 093f 5e09 5c3c 9614 93ba
000001c0: 9e9e 8abc bc31 fb3c d98d c3bf 1dc4 00bc
000001d0: ccf2 01bc a956 9a3a d3d3 c93c 3405 813f
000001e0: bb37 e0bc 0f33 6cbc b9d7 5bbc aa27 e2bc
000001f0: 4fd7 18bf bf75 76ba 186f d6bc 5583 813b
00000200: 970d a9ba 77d9 3440 a17f a7ba 1118 01bf
00000210: f2e9 863b 9c3f 0bbc 96ae adbd d58d a8bc
00000220: bb76 cc3e 36b4 8bbc f01d 3d3c 9a3c 14c0
00000230: 4008 11bc c876 90bc 29a7 e5bb 87e5 893c
00000240: df20 963e 6957 4639 aab1 2cbd e6dc a8bb
00000250: 5809 d43b e682 b13f fbb7 7cbb 50da 26bc
00000260: 5dcd f4bb 2a3e 20bc c2b2 1d3f d987 80bc
00000270: b443 953e c5b4 6d3c 030e ffb7 b278 0940
00000280: 3b60 493a fc16 0c3f 0495 023a 9b55 b7ba
00000290: 2562 5f3f c689 2dbc 1204 35bc e760 9fbb
000002a0: 00c6 563b 2864 19be 22df c7bc 6d9d 533b
000002b0: fe4a 31bc 3a0d cc3b 7e7f 153f 082b 903b
000002c0: 6240 f73c 9def 5c3c 0dd6 513b 8e88 0bc0
000002d0: b150 8dbb bd3f 00bc e523 0a3b e1d0 013c
000002e0: 7b91 a33f f45a 813c 062b f6bd fe6d fd3c
000002f0: 25c6 bcbc 2807 0e40 789a 5fbc 68c9 f6ba
00000300: bdad 3d3c 4efb 063d a593 f2bf 9545 12bc
00000310: 4f06 5e3d cb06 91ba 7952 283c 6b88 533f
00000320: 7c14 61bc f9f0 e13e 1930 cf3c 981d 563b
00000330: 5513 fc3e c8b4 4abc 6842 55bc 1d20 083c
00000340: fd32 e0bb d886 29bf 2b8a 873b 6132 dcbd
00000350: aae0 b3bb 801c 9a3b f552 4340 4b46 ba3c
00000360: b73e dabd 864d e13a b669 00bc 47ca 07be
00000370: a8dd 8fba 3fab 903b aaba 1abb bb34 223b
00000380: 728c 4dbf f640 1bbc 27ff 803d e31d a5ba
00000390: 67a8 54bc c47a 1fc0 8093 0a3c 3bca 9bbb
000003a0: e781 73bb 3a14 6fbb 7b8a 023f 5a0c 15bc
000003b0: 5faf 18bd d971 98bb db40 043b 6dda 2dc0
000003c0: a560 b5bb 05e6 11bc b447 7dbb 9a62 08bb
000003d0: d2ed 4cbf 9428 fabb 0949 e6bc eb77 53ba
000003e0: a7aa b13b 587e 6fc0 8e06 07bc 0523 c5bd
000003f0: 89b6 36bb 3bd7 753b 37d5 b7bf 4ead 88bc
0.00063971686 0.017226543 -0.0014378097 -0.00089490006 1.9851404 -0.0017496063 -0.0013000951 0.0026306787
0.009327916 -0.43232423 -0.040490706 0.0064507495 0.011071577 -0.009543697 -2.683469 0.021986445
0.13331509 -0.051757954 0.03089833 -3.766402 0.00041229287 -0.005126905 0.0010100293 0.0003525882
-1.6152552 -0.012530326 0.0012725503 -0.015617602 -0.0046533057 -1.5227779 -0.06769676 -0.008452307
0.0129514905 0.037915364 0.28493065 0.0034000878 0.2339142 0.0044016326 0.0048712436 1.7696795
0.035515867 -0.0045349766 0.0007096247 -0.020671967 -0.7862227 0.015656456 -0.036640774 0.004699284
-0.013359373 0.3141272 -0.018937176 -0.0014022888 -0.029868528 -0.006221271 1.1010175 0.0020212836
0.0028478268 -0.00043064464 0.00208947 -3.7920458 0.00802732 0.01188767 0.006707171 -0.0013714092
-2.1191869 -0.0014139296 -0.0033347274 0.00055265444 -0.00017716382 -0.12702973 -0.001056125 0.109168775
-0.0024485937 -0.0010093427 2.1345372 -0.008373875 -0.025040139 0.1108123 -0.0067632785 -0.86783457
-0.006674004 -0.15040287 -0.0056171305 -0.011327724 -1.3044218 0.013950279 0.0109223155 -0.00020414678
-0.020296652 0.07345585 -0.022977626 0.25982422 -0.003449281 0.009868186 -3.6359391 -0.0048308456
0.19796146 -3.703962e-05 0.016055048 -3.512747 -0.0013142646 -0.0039340802 -0.0034689803 0.002353444
0.49106008 0.005366057 -0.6241942 0.019772135 -0.001362577 0.5385779 0.013429968 -0.0011221345
-0.016921338 0.030663364 -1.5277663 -0.007859257 -0.007931422 0.0011775094 0.024637138 1.0079713
-0.027370324 -0.01441647 -0.0134181315 -0.027606804 -0.59703535 -0.0009401701 -0.02617602 0.0039524236
-0.0012897727 2.825773 -0.0012779125 -0.5042735 0.004117244 -0.008499052 -0.08480565 -0.020575443
0.39934334 -0.017053705 0.011542782 -2.3161988 -0.008852065 -0.017634764 -0.0070084524 0.01683308
0.29321954 0.00018915314 -0.04216162 -0.0051532863 0.0064708404 1.3868072 -0.003856181 -0.010183886
-0.0074707703 -0.009780446 0.6160089 -0.015689777 0.29153216 0.014508431 -3.0404894e-05 2.1479917
0.0007681881 0.5472257 0.00049813115 -0.0013987304 0.8725913 -0.01059193 -0.011048334 -0.0048638466
0.0032771826 -0.14979613 -0.02439839 0.0032289878 -0.010821102 0.0062271627 0.5839766 0.004399661
0.030182067 0.013484863 0.0032018453 -2.1802096 -0.0043125977 -0.007827696 0.0021078524 0.007923336
1.2778772 0.01579044 -0.12019925 0.030936237 -0.023043701 2.2191868 -0.013647668 -0.0018828334
0.011577067 0.032954507 -1.8951308 -0.008927722 0.054205235 -0.0011064647 0.010273569 0.8263003
-0.013737794 0.4412916 0.02529149 0.0032671448 0.492335 -0.012372203 -0.013016321 0.008308438
-0.006842016 -0.6622138 0.004136344 -0.107517965 -0.0054894285 0.0047031045 3.0519383 0.022738596
-0.10656493 0.0017189241 -0.007837703 -0.13260756 -0.0010976093 0.0044149454 -0.0023609796 0.0024750668
-0.8029243 -0.009475937 0.062986664 -0.0012597408 -0.012979603 -2.491868 0.008458018 -0.0047543324
-0.0037156285 -0.0036480562 0.50992554 -0.009097183 -0.037276622 -0.0046522436 0.0020180258 -2.7164567
-0.0055352026 -0.008904939 -0.0038647475 -0.0020810724 -0.80050385 -0.007634232 -0.028110998 -0.00080668804
0.0054219547 -3.7420864 -0.008241309 -0.0962582 -0.0027879796 0.003751232 -1.4361943 -0.0166842

decoders.0.bias f4 [100]
00000000: 68ad 21be 221a 49bd da76 05be 47e5 9dbd
00000010: f28a 703d a200 18bd 4cd2 25bf 933b 68be
00000020: 1fd3 49be 3d28 91be 6e7a 0dbf f366 f63e
00000030: b2dc e13e b830 16bc ebb2 84be 4588 25bf
00000040: 086e 0a3f e60b 30be 3638 8dbe 969e 1e3e
00000050: 5da0 32be e34a 94bf df76 e5bd 8904 d7be
00000060: 836b bcbe a22c dabd e7c9 95be f63c 82bf
00000070: 36f9 54be 60a3 0dbe 0431 9dbe f83a 3ebf
00000080: acba 673e 3aef edbd 5cbc b3be a6a7 023f
00000090: a6a8 e9be 1e30 1abf 7d07 f5bd 3de3 03bf
000000a0: 46a5 3dbf 3eba f8bd a20a 0bbf e67e 44bf
000000b0: a556 8e3c 4443 d0bd 04ef 59be 8c96 e23e
000000c0: 3505 f1bc 703f b13e ab32 003f 71cf a23e
000000d0: 4e62 5fbe 9dc5 75be 387d febc 6921 0fbf
000000e0: 5442 0dbf 67d6 06bf 8a38 9cbf 020e dbbd
000000f0: c654 8ebe 2db6 403d e07a 153f 3ed1 d6be
00000100: ce2c 88be 6fc8 95bf 8cec a23e 9128 debe
00000110: 5347 0abd 93a9 3ebe 9d0a 5fbf 1be3 afbd
00000120: 7419 293e 8e8d 4cbf d9e6 b9be 2f48 9f3e
00000130: c450 973e 1229 b5be cf22 c8be 8a08 b8be
00000140: a589 4abf c413 de3e 62e6 76be c548 16bf
00000150: 01fa 09bf e243 f9bc 330d 39be 3764 19be
00000160: 4ef3 0cbf 5c8e 11bf 9dff e23e ffc6 073f
00000170: 4103 5e3e bce6 33be 92d2 eebe 1c53 6fbf
00000180: dfc0 edbe 1500 85be 4f5c f93e 9e93 23be
-0.15788805 -0.049097188 -0.1303362 -0.07709747 0.05872626 -0.03710998 -0.6477401 -0.22678976
-0.19709443 -0.28351012 -0.5526494 0.4812542 0.4411369 -0.009166889 -0.25917754 -0.64661056
0.54074144 -0.17192039 -0.27581948 0.15490183 -0.17443986 -1.1585354 -0.112043135 -0.41995648
-0.36800775 -0.10653044 -0.29255602 -1.0174854 -0.20798191 -0.13831854 -0.30701458 -0.7430873
0.22629803 -0.116178945 -0.35104644 0.5103706 -0.4563648 -0.6022967 -0.11964319 -0.51518613
-0.7408031 -0.12144898 -0.543131 -0.7675613 0.0173753 -0.1016908 -0.21282583 0.44255483
-0.029421428 0.3461871 0.50077313 0.3179889 -0.21814844 -0.24001165 -0.031065568 -0.55910355
-0.55179334 -0.526709 -1.2204754 -0.10696031 -0.27799052 0.047048736 0.5839062 -0.41956514
-0.26596683 -1.1701792 0.31821096 -0.43390325 -0.033759426 -0.18619375 -0.8712557 -0.08588239
0.16513616 -0.79903495 -0.36308935 0.3110976 0.29553807 -0.35382897 -0.39089057 -0.35944015
-0.7911628 0.43374455 -0.24111322 -0.5870479 -0.538971 -0.030427877 -0.18071441 -0.14979635
-0.55058753 -0.5685785 0.44335642 0.5303802 0.21680929 -0.17568487 -0.46645027 -0.9348619
-0.4643621 -0.25976625 0.48703238 -0.1597428

decoders.1.weight f4 [200, 100]
00000000: d044 97bd bbd0 c2bd b36a c3bd dcfc 113d
00000010: fcad 753c 06c1 e93c 5da2 83bd 83a0 3bbc
00000020: 1340 f9bc d332 8abd 0271 14bd ce9d 323d
00000030: 63e1 0cbd 1c55 8cbd f508 04bd f34d 72bd
00000040: 7450 353d cdb4 9abd 2fef f8bd daa4 0cbd
00000050: 8834 acbd 6c96 6fbd faf1 02be c766 98bd
00000060: b3cd 163d 5ea6 17bd 4d7a 9fbd 1cfe 48bc
00000070: 5316 dabc 79f7 c9bd 5244 00be cdb7 523d
00000080: 62a9 91bd 9160 48bd 09a9 2d3d af0a 04be
00000090: d934 823c d032 a73c 933d 97bd d65d a7bd
000000a0: 80e8 13bc b05d f83c 47f0 6ebd 6d53 08bd
000000b0: e0ba e4bd 02c9 3a3d 45eb c9bd a6cf debd
000000c0: bb75 86bd 2c22 a7bc 70d6 ffbc 620d cbbd
000000d0: 1ebd 63bd 3e42 9b3c 5253 963c 1807 4ebd
000000e0: db95 12bc 3329 a7bd 1bc0 30bd f38c 7ebd
000000f0: 8d76 4ebd 12d9 0ebe ec25 fe3c 70a2 323d
00000100: d35a 51bd 464a 603d 6a85 06ba 685a 8b3d
00000110: 80d0 313d a930 b3bd 61d7 243d 9bdb a9bd
00000120: b509 f4bc 1cda b0bd 97f2 9cbd 34c3 5fbd
00000130: ebbb 44bd 6b6e 54bd e3d5 62bc 2777 953d
00000140: 7374 7ebb ec8d 083d 46e4 823c 8063 263c
00000150: 4f7d ebbc 4ab6 dc3c 22ae ee3c 8c1b c7bd
00000160: e8cd 82bd 2dae 8abb 6f32 a13c edbe d1bb
00000170: 258f bfbd d18a a8bd 011c 803d 2063 5d3d
00000180: 8476 96bd 8c3e 7b3d fc44 763c b716 72bb
00000190: 00ae c2bd d1ff 93bc eb61 573d 9670 efbc
000001a0: 923f ddbd bdfb 1fbc f42c 49bc af72 9abd
000001b0: c3c2 a33d 3bb9 fe3c 4e4d 5fbd 2bf9 8b3d
000001c0: 1b67 d8bc 0304 82bd dc43 23bd 44d8 55bd
000001d0: baea 80bd 8b56 5d3d 8491 fabc 91ea 413d
000001e0: 4f4a 9cbc 4895 2fbd 15b2 c43c 735c 2abd
000001f0: 7f9b d3bd 7b00 e1bc 168a 5cba c241 4a3d
00000200: 355d 06bd 02b2 28bd 4115 9ebc 17c7 4e3d
00000210: 9a32 b7bc 3b93 633c 7a1b 85bd 5c9e 04bd
00000220: 8496 45bc ce7c 7a3d 7762 043d beeb ccbc
00000230: 2542 2bbd eb82 8fbd af4b 883c 12cb 62bb
00000240: e97b 28bd 72a4 5dbd acdc 7cbd 67b3 833d
00000250: 408a 75bd 0a25 5e3d 980d af3c abd6 7cbd
00000260: 4968 9fbd c5cb 2dbc 33ce 77bc fd87 01be
00000270: b316 553d 14b5 fc3c aea2 a5bd dd54 903d
00000280: 4357 3bbd ff96 a8ba 95f9 9bbd 3744 cfbc
00000290: a086 b03c 8ffb 623d 10fb 523d bfe0 573c
000002a0: 722f d1bc 5ccb c9bd 8a8c f2bd d040 62bd
000002b0: e413 493d 8f35 dabd 0f1f d9bc 1a0a c6bd
000002c0: c590 ffbd 17e9 b4bd a3b7 b23c ad2c 9a3d
000002d0: ace6 273d 7084 453c 7d79 a2bd 0d88 ae3d
000002e0: 67bb 3dbd d883 4cbd 0044 723d 21d8 073d
000002f0: 0c02 edbd 5347 44bc 5177 72bc b01c 633d
00000300: be65 a93c cac6 46bd e4eb 6e3d 674e bdbd
00000310: fe96 c33b eef1 b1bd 3da2 42bc f9fa 963d
00000320: cfc2 e0bd 68c7 573b da49 8fbd 71de 843d
00000330: 7aef 0c3d 9a45 cf3d f1bf 1a3d c3d1 d2bc
00000340: ef2b 1dbe b5e1 23bd 9e07 1bbe f850 89bf
00000350: 01ff 9abe f6e4 fbba 09c4 e8bf 635c e2bc
00000360: 2074 f03d fc4d 803d 87df 003e 900a f53c
00000370: 0849 333d c925 b83e 493e 1a3e da1b 1ebe
00000380: 979d 71bc 7192 8d3d 5121 793e f528 373d
00000390: b1ee a73d 3477 2c3d 9ac5 9cbd 74bd 72bd
000003a0: 7296 d3be 5d5b 16bd 3e9a 06bb 90ef f6be
000003b0: 0e36 99bd 5486 0fbe 4fd1 babd 5d19 fabd
000003c0: eec5 823c eda9 cabe a598 14bd 971c 4c3c
000003d0: 5a68 0fbf fa9f 4ebd 8533 74bd 6754 3ebe
000003e0: 8e74 4cbd e9bc 183e f694 8e3d da65 18bf
000003f0: d694 b1bd ce08 60bd 927e 10bf b96e 883d
-0.07386172 -0.095124684 -0.09541836 0.035641536 0.014995094 0.028534424 -0.06427453 -0.011451843
-0.03042606 -0.06747975 -0.036240585 0.043607526 -0.034394633 -0.06852171 -0.032235105 -0.05915637
0.04426618 -0.07554016 -0.12154996 -0.034336902 -0.08408457 -0.058493063 -0.12787619 -0.07441478
0.036817264 -0.037023894 -0.07786999 -0.012267616 -0.026621973 -0.09861655 -0.12526062 0.051444817
-0.07112385 -0.048920218 0.042397533 -0.128947 0.01589434 0.020409971 -0.07384791 -0.08172195
-0.0090276 0.030318111 -0.058334615 -0.033282686 -0.11168456 0.045601852 -0.09859327 -0.108794495
-0.06565424 -0.020402037 -0.031230181 -0.09914662 -0.055600278 0.018952485 0.018350277 -0.050299734
-0.008946861 -0.08162155 -0.043151956 -0.06214614 -0.050406028 -0.13949993 0.031023942 0.043611944
-0.051112007 0.054758333 -0.00051315746 0.06804353 0.04341173 -0.087495156 0.040244464 -0.082938395
-0.029789785 -0.08635351 -0.07663458 -0.05462952 -0.048030775 -0.051863115 -0.01384494 0.07298117
-0.0038826733 0.033338472 0.01597799 0.010155559 -0.028746275 0.026942391 0.029135767 -0.09722051
-0.0638693 -0.004232189 0.019677369 -0.006400934 -0.093534745 -0.08229602 0.06255341 0.05404961
-0.07346824 0.061338946 0.015031096 -0.0036939809 -0.09505844 -0.018066319 0.052583616 -0.02922849
-0.10803141 -0.009764609 -0.012278784 -0.075414054 0.07996132 0.031094184 -0.054517083 0.068346344
-0.026416352 -0.063484214 -0.039859638 -0.0522082 -0.062947705 0.054037612 -0.030586965 0.04734284
-0.019078402 -0.042866975 0.024010697 -0.041592073 -0.10332393 -0.02746605 -0.00084129104 0.049379118
-0.032803733 -0.041185386 -0.019297244 0.050482836 -0.022362996 0.013890083 -0.06499381 -0.032377586
-0.0120598115 0.06115418 0.032320466 -0.025014754 -0.041811127 -0.070073925 0.016637651 -0.0034605903
-0.041133795 -0.054111905 -0.061733887 0.06430703 -0.0599463 0.054234542 0.021368787 -0.06172816
-0.07783563 -0.0106076645 -0.015124845 -0.12649532 0.0520236 0.030848064 -0.08087669 0.070474364
-0.045737516 -0.0012862383 -0.07615963 -0.025301082 0.02154857 0.055415686 0.051508963 0.013176142
-0.025535319 -0.09853241 -0.11843212 -0.05523759 0.049091235 -0.10654747 -0.026504068 -0.096698955
-0.124787845 -0.08833521 0.02181608 0.075280525 0.04099147 0.012055501 -0.07933328 0.085220434
-0.0463213 -0.049930423 0.05914688 0.0331651 -0.11572656 -0.011979896 -0.014798955 0.05544728
0.020678397 -0.048529424 0.05833043 -0.0924347 0.0059689274 -0.086887226 -0.011879501 0.07372088
-0.10974657 0.0032925252 -0.06996508 0.0648774 0.03440807 0.10120697 0.037780706 -0.025734788
-0.1534879 -0.040010173 -0.15139624 -1.0727835 -0.30272678 -0.0019218016 -1.8184825 -0.027631944
0.11740899 0.06264874 0.12585269 0.029912263 0.04377082 0.35966328 0.15062822 -0.15440312
-0.014747045 0.06912697 0.24329115 0.044716794 0.08199824 0.04210587 -0.07654877 -0.059262708
-0.41325718 -0.036708225 -0.0020538713 -0.48229647 -0.07481013 -0.14016086 -0.09121954 -0.12211869
0.01596352 -0.39582768 -0.036278386 0.012457988 -0.560186 -0.050445534 -0.059619445 -0.18586884
-0.049915843 0.14915814 0.06962006 -0.59530413 -0.08670966 -0.054695897 -0.5644313 0.06661744
