m2_afd_cvae/Condition4 cl/best_cvae.pth (torch, 492496 bytes, 14 tensors)

encoders.0.weight f4 [200, 200]
000000 60 99 0f 3d 5e 75 8d bd 9e 87 17 bd 0f c3 e1 bc
       0.03505838 -0.06907152 -0.03699457 -0.027558831
000010 4f 56 b2 3c 9a 92 f5 3c a4 98 d9 3c 1a 2d 01 3d
       0.02176967 0.029977132 0.026562043 0.031537153
000020 85 53 2f bd ea a9 f0 3b b5 e2 fe 39 d4 74 1d 3d
       -0.04280426 0.007344474 0.00048615565 0.038441494
000030 e9 3d f2 3c 88 91 62 bc 46 86 2b 3d e3 c1 28 bd
       0.029570537 -0.013828643 0.0418761 -0.04120053
000040 54 d9 8d 3c 60 f9 b4 3c ba 74 01 3c 85 b3 de bc
       0.017315544 0.022091568 0.007901365 -0.027185211
000050 96 3a 37 bd 64 f2 78 bd 8c 13 37 bd 7d 64 5c bc
       -0.044733606 -0.060778037 -0.044696376 -0.013451693
000060 4e 49 24 3d 77 a8 54 bd 35 2b ea bc 82 9d 6f 3d
       0.04010897 -0.051918473 -0.028585056 0.05849982
000070 42 94 2a bd 2b b8 31 bc 4b ff a9 3c 44 9f 22 3c
       -0.041645296 -0.010847132 0.020751616 0.009925667
000080 35 26 87 bd 15 a8 2c bb d8 e7 67 3d 5b 86 e5 bb
       -0.06599084 -0.0026345302 0.056617588 -0.007004542
000090 29 da dc 3c ba 7b 6e 3d a0 a8 31 3d cf 15 a0 bc
       0.026959496 0.058223464 0.043373704 -0.01954165
0000a0 f2 4d 8c bc 80 14 c9 bc 70 11 46 3d f2 dd 41 3d
       -0.017127011 -0.024545908 0.048356473 0.047330804
0000b0 5e c1 42 bc fe 02 70 3d 37 23 89 bd 27 7c ba bc
       -0.011886923 0.058596604 -0.0669617 -0.022764279
0000c0 e4 19 23 bd a8 e2 39 3d ca d5 97 bd c5 bf 99 3c
       -0.039819613 0.045382172 -0.07413824 0.0187682
0000d0 a6 15 94 bd 04 73 bf 3a 38 2b 55 bd ef d9 9e bb
       -0.072306916 0.0014606421 -0.05204317 -0.004847757
0000e0 28 95 6e bd 37 4f 9a 3a 3f f2 d2 bb aa 04 17 3d
       -0.058247715 0.0011772875 -0.0064375694 0.036869682
0000f0 65 b9 83 bc 6d 06 46 bd 22 3a 4e bd ca 3a 00 3c
       -0.016079614 -0.04834597 -0.05034841 0.007826516
000100 e5 46 86 3c 61 41 a2 3b 78 b9 d3 bc 7f 88 2a bd
       0.016391227 0.0049516414 -0.025845274 -0.04163408
000110 c1 a9 9a bd 96 8a 7c bd 7f c7 79 bb 21 62 5d 3c
       -0.07551909 -0.061655603 -0.0038113294 0.013512165
000120 a4 fc 87 3c 4e ad 25 bd be 01 45 3d a3 5a a8 bb
       0.01659996 -0.04044848 0.048097365 -0.005137758
000130 ea be 03 3c 58 9b 61 3d 3f ec bf 3b e1 04 e3 bc
       0.008041123 0.055079788 0.00585702 -0.027712287
000140 cc 51 0f 3d 47 04 66 3c 48 e1 3f 3c 42 8f fe bc
       0.034990117 0.014039106 0.011711426 -0.03107417
000150 c6 08 f8 bc 49 99 a9 bc b2 28 45 bd 21 b6 ad bc
       -0.030277621 -0.020702975 -0.048134513 -0.02120501
000160 c4 3a 1a 3d c7 04 e8 3c b6 e6 d0 bb fc d3 c0 3c
       0.0376537 0.02832259 -0.006375159 0.023538582
000170 c7 b2 bd bb 18 7e 84 3c 91 ba 51 3c 48 9a 28 3d
       -0.005789134 0.016173407 0.012800829 0.04116276
000180 cb 9f 8b bd c7 66 65 bc 0d 61 5c bd 2e 55 15 3d
       -0.068175875 -0.014001555 -0.053803492 0.036458187
000190 72 c4 27 3d 60 89 f2 3c fd 25 90 bd 38 cb 49 3d
       0.04095883 0.029606521 -0.07038496 0.04926607
0001a0 9b cc ae 3c 2f c6 9e bc 0e 8b 9e 3c 08 26 16 bc
       0.021337798 -0.01938161 0.019353416 -0.009164341
0001b0 38 f1 95 bd 08 52 49 3d d4 9c 90 3c 37 dc 2c bc
       -0.073213995 0.049150497 0.017652906 -0.01055055
0001c0 57 e6 9a 3c 3c 86 6d bc b2 15 57 bd f7 68 ef 3c
       0.018908663 -0.014497336 -0.052510925 0.029224856
0001d0 2f 98 e7 bc a0 6d 56 3c 32 13 0a 3d d3 e3 ed bc
       -0.028270809 0.01308766 0.033709712 -0.0290393
0001e0 57 75 40 bd dc 4e 84 3d 30 0b 25 3c 6f b3 6d 3d
       -0.046986904 0.06460354 0.010073468 0.05803245
0001f0 98 4a 04 3d 48 28 1e 3c 70 25 25 3c fa 89 11 3d
       0.0322977 0.0096531585 0.010079727 0.035531975
000200 7a a2 13 3d 7e 54 8f bd b4 b9 08 3d 00 e2 b1 3c
       0.03604362 -0.069985375 0.033380225 0.02171421
000210 fc f4 75 bd cb c4 e6 bc 36 27 86 bd 4f 2f 41 bc
       -0.06004809 -0.02817001 -0.06550448 -0.011791064
000220 07 5a 11 bd 3c f2 96 bd c7 d1 e2 bc db 5c a0 3c
       -0.035486247 -0.07370421 -0.02768792 0.019575527
000230 50 1f 6d bd 8c 94 57 3d 26 f4 3a 3d dd 20 5a bd
       -0.05789119 0.0526319 0.045642994 -0.053253997
000240 15 b2 63 3b 07 1f 9b 3c 08 7c 0c 3d 23 08 79 ba
       0.0034743596 0.018935693 0.034297973 -0.00094998087
000250 2b 10 6d bc 8e a3 72 bd 45 d5 a0 bb 05 89 32 bd
       -0.014469187 -0.05923801 -0.004908236 -0.043587703
000260 e8 6a 2b 3d 5e 7f 31 bd 5a 1c f4 3c 47 db 88 bc
       0.04185 -0.043334357 0.029798675 -0.016706122
000270 a2 ad 7b 3d 08 b4 0a 3d 16 55 61 bd 83 04 b0 3c
       0.061444886 0.033863097 -0.055012785 0.021486526
000280 e0 56 51 3d f3 87 a1 3c 24 3e 6f bd 24 0e 96 bc
       0.05110824 0.019718146 -0.05840887 -0.01831729
000290 5e b2 3a 3d 8b d6 90 3c bc 99 7d bd a8 78 20 3c
       0.04558026 0.017680427 -0.06191419 0.009794392
0002a0 67 f9 ec 3c 59 4b 0d 3a e2 98 9a bd 27 88 7e bd
       0.028927518 0.0005389951 -0.07548691 -0.062141564
0002b0 f8 2a da 3c 92 5e 74 bd 47 14 44 bc 4f 41 e9 3c
       0.026631817 -0.0596605 -0.011967725 0.028473524
0002c0 14 22 9d 3c 6f 38 01 bd b4 bf 34 bd d0 bb 6d bd
       0.019181289 -0.03154796 -0.044128135 -0.05804044
0002d0 60 e3 6b bd 0d 85 9d bc c6 00 5e bd 08 22 44 3d
       -0.05758989 -0.019228483 -0.054199956 0.047884017
0002e0 ba 81 5d bd 2b 7c ec bc 9f 67 1c bc dd ac 24 bd
       -0.054078795 -0.028867802 -0.00954619 -0.040203918
0002f0 a6 a4 8e bd 84 21 67 3d 80 22 24 3c 2b 3f cf 3c
       -0.06964998 0.056428447 0.010017991 0.025298676
000300 da f2 91 bd 66 c3 2e 3d 49 de a8 bc 5c bc f0 3c
       -0.071263984 0.042666815 -0.020613806 0.029386692
000310 eb b6 27 bd 44 00 48 bd 87 9b 2d bc 3a c0 81 bd
       -0.04094593 -0.04882838 -0.010596163 -0.063354924
000320 80 13 68 3e 24 39 a6 3e 06 88 96 3e 12 3a 9d 3e
       0.22663689 0.3246547 0.29400653 0.30708367
000330 d2 27 a1 3e e4 4d 81 3e a7 cb 29 3e ac d2 75 3e
       0.31475693 0.25254738 0.16581593 0.24006146
000340 13 05 79 3e c5 0a d5 3d 63 7e 45 3e d7 64 f9 3d
       0.24318342 0.10402445 0.19286494 0.12177437
000350 b1 be 52 3d bb 1e 60 3b f3 7d 86 3d e1 38 aa bd
       0.05145139 0.0034198004 0.06566992 -0.0831163
000360 98 9e c4 bd bc 9e 1a be ed af 6d be 18 f7 59 be
       -0.09600562 -0.15099615 -0.23211642 -0.21285665
000370 a1 50 51 be 27 e5 78 be a9 8e c0 be 54 75 bf be
       -0.20440914 -0.24306165 -0.3760884 -0.37394202
000380 48 a9 e3 be 30 5f cb be b5 52 de be 56 d7 d7 be
       -0.4446509 -0.3972106 -0.43422475 -0.42156476
000390 a5 fb f5 be 0c 1f e2 be 44 48 d1 be ed 20 cc be
       -0.48043552 -0.44164312 -0.40875447 -0.3986887
0003a0 7c b6 e4 be ff 80 dc be de 2d b0 be 1e 2a 9d be
       -0.44670475 -0.43067166 -0.34409994 -0.30696195
0003b0 bf e6 a9 be 78 0e a8 be 25 30 b5 be 41 52 99 be
       -0.33183858 -0.3282354 -0.35388294 -0.29945567
0003c0 a2 62 af be 90 d0 bb be c5 49 ad be a5 ac b1 be
       -0.34254938 -0.36682558 -0.33845344 -0.3470203
0003d0 28 90 8d be 1c 5e a8 be 6d e7 85 be dc c2 9d be
       -0.27649045 -0.328843 -0.26153126 -0.30812728
0003e0 a6 26 7f be 8c 8e 6c be 35 5a aa be 0a cb 53 be
       -0.24917087 -0.23101252 -0.33271948 -0.20682922
0003f0 8b cb 4d be 21 ab 3e be c7 b3 6c be 60 e4 8d be
       -0.20097177 -0.18619968 -0.23115455 -0.277133

encoders.0.bias f4 [200]
000000 c1 05 67 bd ed 36 89 3e b1 92 51 bd ec e7 36 bc
       -0.05640197 0.26799718 -0.051165286 -0.011163693
000010 42 6d 43 bd 19 06 93 be 60 38 aa bc 93 87 6e bc
       -0.04771162 -0.2871559 -0.020778835 -0.014558691
000020 e7 cb 67 3d 68 97 e7 3c c5 4e 0a 3e e0 10 66 3c
       0.05659094 0.028270438 0.1350661 0.014042109
000030 20 b6 6f bd 64 18 fd 3c 3c 98 f9 3c 54 48 4f 3d
       -0.058523297 0.03089542 0.030468099 0.050606087
000040 09 c2 10 3d ad 1c 88 bd c8 38 5d 3c 00 3d ed 3c
       0.035341296 -0.066460945 0.013502307 0.028959751
000050 a9 8f 97 bd 53 b9 8a 3c 50 88 7b bd b7 74 ab bc
       -0.07400448 0.016934073 -0.061409295 -0.020929677
000060 e0 63 cd bc 43 59 42 bd 5a 5f e6 3b c6 0b 20 bd
       -0.025072038 -0.047448408 0.0070304098 -0.039073728
000070 43 a4 f9 3e d8 69 51 3d 5b 69 09 3d e4 20 1e bd
       0.48758134 0.05112633 0.03354774 -0.038605586
000080 ae 40 32 3d ac 11 35 bd 50 62 bc bb 18 ef 20 bd
       0.043518715 -0.044206306 -0.0057490245 -0.039290518
000090 3a 39 87 bb 6b 6d 93 bc a4 d9 58 3d b6 72 dd bb
       -0.004126695 -0.01799651 0.052941933 -0.0067580594
0000a0 e2 95 b6 bc 18 5d b9 3c 5f 2e 7c bd 1b 34 80 bd
       -0.022288267 0.022627398 -0.06156766 -0.06259938
0000b0 e2 b4 92 bd 6f 19 09 bc 27 fb dd bd d0 63 3f 3c
       -0.07163407 -0.00836788 -0.10838919 0.011681512
0000c0 66 0a 64 3d 1a 04 00 bc a7 1c a8 3c 60 15 2d 3d
       0.05567398 -0.007813478 0.020521475 0.042256713
0000d0 95 0f 8a 3d 7c 6c 65 bd 3d c4 8a bd 7e 88 15 bf
       0.06741253 -0.056011662 -0.06775711 -0.58411396
0000e0 4d 53 53 bd aa 55 fd bc 3c 2a 73 3c 11 22 08 3d
       -0.051593114 -0.030924637 0.014841612 0.033235613
0000f0 91 15 6f bd 22 a7 85 bc dd 89 41 bd c0 2e 76 3d
       -0.058370177 -0.016315047 -0.047250617 0.060103178
000100 34 16 be 3e da 7a 5a bd 14 6a b7 be 45 b9 6b 3c
       0.37126315 -0.053339817 -0.3582312 0.014387433
000110 a5 39 5d be f9 28 d3 bc bb d0 ef bb 63 1e 24 3d
       -0.21604021 -0.025776373 -0.007318584 0.04006804
000120 01 61 c7 3c ad 61 9a 3e e1 46 17 bd 2b 87 3b bd
       0.024338247 0.30152646 -0.03693283 -0.045783203
000130 0e e5 52 3d c0 76 cb 3c af 8e b3 3c 79 92 83 3c
       0.051487975 0.024836898 0.021918623 0.016061055
000140 c7 9c 6f 3d 6c 1f 8c bd 55 db a7 3c 93 5b 58 3d
       0.058499124 -0.06841931 0.020490328 0.052821707
000150 de dc 4d bd ef 43 04 3d e2 c4 00 3d fa 6c 2a 3d
       -0.050259463 0.03229135 0.031437762 0.041607834
000160 f0 b3 fc 3b c9 2b c3 bb 58 47 55 bd fe 26 37 bd
       0.00771188 -0.0059561473 -0.05206999 -0.04471492
000170 c7 bf 84 3d 37 c2 50 3b 1a 8f 94 3a 4d 89 8a 3d
       0.06481891 0.0031854042 0.0011334151 0.06764469
000180 0c 52 42 3d f0 67 26 3e 8c ea f4 3c 7a 6a 3b bd
       0.047441527 0.16250587 0.029896997 -0.04575584
000190 02 1f 7e 3d bc 9f 87 bd 4f c1 01 bc 08 4f 59 bd
       0.06204129 -0.06622264 -0.0079196235 -0.053053886
0001a0 8f 40 42 3d ec 91 bf 3c aa ff 88 3e 38 03 2f 3d
       0.04742485 0.02338501 0.26757556 0.04272768
0001b0 02 46 70 bd ff 42 33 be 81 93 09 bd 7c e7 09 3d
       -0.058660515 -0.17506026 -0.033587936 0.033668026
0001c0 cd 79 78 3f d2 02 3b 3d 21 f7 d5 3c 09 08 df 3c
       0.97060853 0.045656987 0.026118817 0.027225511
0001d0 99 e3 3b bd 0b 85 ee bc 40 ba 64 bc 8e aa 50 3c
       -0.04587135 -0.029116174 -0.013960421 0.012735976
0001e0 89 c4 8e bd c0 62 c6 3a 3c b1 e5 bc 3b cb db 3c
       -0.0697108 0.0015135631 -0.028038613 0.026830306
0001f0 ee fe 98 3c b3 ca 8e bd c8 ac d2 bd c8 eb 8d bc
       0.018676247 -0.069722556 -0.10286862 -0.017324343
000200 43 84 df bb 53 95 99 bd a4 54 4d 3e dd fe 0c 3d
       -0.0068211867 -0.074991845 0.20051819 0.034422744
000210 88 ba d7 bc d9 aa 44 be 13 ae 69 bd c5 c1 2b bd
       -0.026334062 -0.19205798 -0.057050776 -0.04193284
000220 b5 4a 94 bd c4 7d a8 bc 7f 49 08 3d e4 27 70 bd
       -0.07240812 -0.020567782 0.033273216 -0.058631793
000230 73 f7 a3 bc e4 34 70 bd 01 a0 61 3d 41 95 08 be
       -0.020015454 -0.05864419 0.055084232 -0.13338186
000240 66 d5 24 3d 5a 09 20 3d a5 a7 24 3c ee f4 93 bb
       0.040242575 0.03907142 0.010049735 -0.004515282
000250 9f 28 03 bd d7 20 8c 3b 7e 97 19 bd bc aa b6 3c
       -0.03202116 0.0042763758 -0.03749799 0.02229821
000260 57 12 cd 3b c5 af 73 3d 07 1d 21 3d 5d 1c 53 bd
       0.00625829 0.0594938 0.039334323 -0.05154072
000270 df b6 b3 3d 4a db 16 3d 38 2c 2d 3d 32 d6 64 3d
       0.08775114 0.036830224 0.0422785 0.055868335
000280 53 8d 37 bd 7d cd 9f 3b e6 b4 40 3d ec 6d 46 3c
       -0.04481251 0.004876791 0.04704752 0.012111168
000290 2d d3 f1 3d 06 f8 4e bd d6 f7 cf bc 7b 92 39 3d
       0.11807857 -0.050529502 -0.025386732 0.04530571
0002a0 ae ec 2e be 3a 3c 42 3d 7e 74 b8 3d 91 11 2e 3c
       -0.17082474 0.047420718 0.09006594 0.010624305
0002b0 88 95 2c 3d ae 0b 77 3d 1b c5 7c 3d 28 8f 7f bc
       0.04213479 0.060313873 0.061711412 -0.015598096
0002c0 9a 51 97 3d 2a 23 d4 bc ad f9 37 bd 0d 8e 76 bd
       0.07388611 -0.025895674 -0.044915844 -0.060194064
0002d0 04 0c 49 bd 8e 9b c1 3c 98 35 1c bd e9 ac b6 bc
       -0.049083725 0.023633745 -0.03813705 -0.022299247
0002e0 6f c2 8a bc bb f1 67 bd 1b 0d 98 bc 6c ff 38 bd
       -0.016938416 -0.056627017 -0.018560937 -0.045165464
0002f0 2d b8 28 bc 63 39 1d 3d 58 7f 24 bd b4 09 2d 3d
       -0.010297817 0.038384806 -0.040160507 0.04224558
000300 b5 28 46 3b a8 d6 ea 3a ee af d7 bc f9 d5 89 bd
       0.0030236666 0.0017916756 -0.026329007 -0.06730265
000310 94 33 06 bd 22 84 6a bd b4 d4 4a bd ca 57 42 bd
       -0.032764032 -0.057254918 -0.049519256 -0.047447003

encoders.1.weight f4 [100, 200]
000000 57 5d 5f bd 06 65 ac 3c 22 99 55 3d b1 76 18 bd
       -0.054532375 0.021044265 0.052147992 -0.037222568
000010 c0 dd 10 3d 83 07 8a bd a8 24 67 3c 0e 4d f5 bc
       0.035367727 -0.06739714 0.014107861 -0.02994397
000020 7f c1 df bc 73 6e 02 bd f7 50 d1 3c ae 40 ec 3c
       -0.027313946 -0.031843614 0.025551302 0.028839435
000030 50 ba 0b 3d 45 de 8c 3d c0 18 fc bb 5d 23 63 bd
       0.03411323 0.06878332 -0.00769338 -0.055453647
000040 e7 6c 01 3c a8 f4 73 bd 33 9a 06 bd d8 40 72 bc
       0.0078994995 -0.059559494 -0.0328619 -0.014785968
000050 78 7b b9 bb d4 8d d3 3c 98 3c 81 3c c5 5b 41 bd
       -0.0056604706 0.025824465 0.015775964 -0.04720666
000060 0c 40 8d bc ea 19 3d bc ba f1 72 3d 80 a8 45 bc
       -0.017242454 -0.011541823 0.05931256 -0.012064099
000070 1a 19 82 bd 20 ab f5 3c 6d 1a bf bc 24 41 ab bb
       -0.06352444 0.029988825 -0.02332803 -0.005226271
000080 7f 22 df 3c 53 6a 6e bd 62 96 17 3d cc 66 60 bd
       0.027238129 -0.058206867 0.03700865 -0.054785535
000090 f3 23 6c bd 24 d6 4d bd ea d1 7b bd ee 63 10 bd
       -0.05765147 -0.05025305 -0.061479487 -0.03525155
0000a0 0e 0e 80 3d 1a c8 7d 3d e0 09 e6 bb 31 cb 86 3d
       0.06252681 0.06195841 -0.00702022 0.065817244
0000b0 29 98 81 bd 6e 7a a6 bc 6f a3 98 bd a0 ab 97 3c
       -0.0632785 -0.02032205 -0.074530475 0.018514454
0000c0 20 e9 d4 3c 9e a5 9a bb 0b 5d 54 bd e9 69 b0 3c
       0.025990069 -0.00471945 -0.051846545 0.021534877
0000d0 05 8f b4 3c 99 19 76 bd 17 a8 b1 bc 6b ce 71 bd
       0.022040853 -0.060083006 -0.021686597 -0.059034746
0000e0 f4 8e a9 bc 46 cf e1 bc ea d6 40 3d 85 ab 4d bc
       -0.020698048 -0.027564656 0.047079958 -0.0125531005
0000f0 d8 89 1e bc cb f3 2c bd d4 2c 4a 3d c2 d5 d9 3c
       -0.009676419 -0.042224687 0.049359158 0.026591185
000100 4e 76 a2 bd 42 cc f7 3c fa 23 30 3c b1 03 60 3d
       -0.07932721 0.030248765 0.010750765 0.05469102
000110 bc 8e f9 3b 64 28 11 3d 0a 0c 48 3b f1 44 a5 bb
       0.007615892 0.03543891 0.0030524754 -0.005043619
000120 30 b8 a1 bd 8e b8 f9 3c fc d3 65 bc 4c a5 dc 3c
       -0.07896459 0.03048351 -0.014027592 0.026934288
000130 46 16 02 bd 48 68 e0 3c d6 22 fe 3c ff 90 03 3d
       -0.031759523 0.027393475 0.03102247 0.0321207
000140 09 d0 73 bd ef 41 72 3d df 5d 6f 3d 92 62 b0 bc
       -0.05952457 0.05914491 0.05843913 -0.021531377
000150 1c 64 af 3c 2e db 99 bc 64 f3 88 3c 3e 2f 97 bc
       0.02141004 -0.01878127 0.01671762 -0.018455144
000160 67 c0 8d 3d 5b 9e 90 bd d7 18 85 3d 07 1f 2e bd
       0.069214635 -0.07061454 0.064988784 -0.04251006
000170 68 7e c5 bc b3 ad 18 bd 4c c7 47 bd c2 7f b3 bb
       -0.024108127 -0.037275027 -0.04877405 -0.0054778764
000180 92 7c 90 bd 11 ae 71 3d 66 49 23 bb 80 ac 6c bb
       -0.0705501 0.059003893 -0.0024915575 -0.003611356
000190 e0 92 a9 bc 54 44 e8 bc ab 18 8b bd 92 d0 33 3d
       -0.020699918 -0.028352894 -0.067918144 0.04390008
0001a0 3e e7 1b 3d fe ac 2e bd 18 08 10 bd 34 65 fb bc
       0.038062327 -0.042645447 -0.03516397 -0.030687906
0001b0 89 68 83 bd 4b 84 39 3d 40 04 0a 3d 20 e2 6e 3b
       -0.06416423 0.04529218 0.03369546 0.00364507
0001c0 bd 91 6f bb f6 b8 0e bd e1 b4 3f 3d c5 3f 88 3d
       -0.0036555373 -0.03484436 0.04680336 0.06652788
0001d0 ca 7b 21 bd ff f4 13 bd dc 66 09 bc 90 3e b5 39
       -0.039424695 -0.03612232 -0.00838634 0.00034569623
0001e0 90 24 0b 3c 2a 59 27 bd 40 ea cd 3b 24 97 0e bc
       0.008492604 -0.040856518 0.0062840283 -0.008703027
0001f0 3c d9 e6 bc 06 ca 86 bd 2a c1 ed 3c 00 d0 f6 3a
       -0.028179757 -0.06581502 0.029022772 0.0018830299
000200 cd a2 d3 bd e6 fd 54 bd 11 57 fb bc ac 0e 33 3d
       -0.10333786 -0.05199995 -0.030681165 0.043715164
000210 11 2e 5f bc 96 e9 4a bc 34 c2 95 bd fb 18 f0 bc
       -0.013621823 -0.012384793 -0.07312432 -0.029308787
000220 f1 1c 23 bd 80 9c 5e bc 6a ce 37 3c 34 5d 81 bc
       -0.039822523 -0.013587117 0.011218647 -0.015791513
000230 53 11 6c bd fa 27 99 3b d2 92 4c 3d 18 bb 36 bd
       -0.05763371 0.004673955 0.049944706 -0.04461202
000240 a7 7e dc bc 4f 69 81 bd 21 39 76 bd 10 ae 87 bd
       -0.026915861 -0.06318914 -0.060113076 -0.06624997
000250 3e 39 be bc 5f 16 ec ba 96 a1 59 3d 58 fe 6d bc
       -0.023220655 -0.0018012038 0.053132616 -0.014525972
000260 90 a5 99 3d b3 ea d0 3c 3d bf d1 bc a5 0d 36 bd
       0.07502282 0.025502538 -0.025603885 -0.044446606
000270 db 7a 8d 3c ce e4 8b bd 20 43 59 3c 4a 78 16 bc
       0.017270496 -0.068307504 0.013260633 -0.009183953
000280 44 c8 b1 3c 76 2c 06 3d 72 ad 7c 3d 25 ae da 3b
       0.02170194 0.032757245 0.061688848 0.0066735917
000290 c6 8f 10 be 5e 92 60 bd e0 1b 54 bd 56 2b 3f bd
       -0.14117345 -0.054827087 -0.051784396 -0.046672188
0002a0 4f ee 31 bd 50 a0 91 3c 46 ed 17 bc da 7d 34 bd
       -0.04344016 0.017776638 -0.009272879 -0.044065334
0002b0 2a 89 69 3d 80 e3 9b ba 94 19 d1 3c e2 44 c6 bc
       0.057015575 -0.0011893362 0.025524892 -0.024202768
0002c0 b9 18 02 bc 88 45 52 bd 11 f0 0c 3d a4 a7 1c bc
       -0.007940465 -0.05133584 0.034408633 -0.009561453
0002d0 06 dd c6 bc cc b6 3f bd 04 91 5f bd 83 79 19 bd
       -0.024275314 -0.046805188 -0.054581657 -0.0374694
0002e0 6f a9 48 bd d4 5e 59 bc 5a e1 aa 3c 40 92 80 3c
       -0.04898971 -0.013267238 0.02085941 0.015694737
0002f0 f9 ae 17 bd 68 bc 6d 3d ce eb 84 3d 6b 53 32 bd
       -0.0370321 0.058041006 0.06490289 -0.043536585
000300 30 2f 84 bd b4 8a 88 bc a2 45 07 bd b8 e0 89 bc
       -0.06454313 -0.016667701 -0.03302539 -0.016830787
000310 b7 66 e2 3c d6 06 6d 3d d0 76 86 bd c0 7c 77 3c
       0.027636869 0.057867847 -0.065656304 0.015105426
000320 36 8d 77 bd 19 14 2c 3e 64 7c 91 3c 2c 44 b3 3c
       -0.060437404 0.16804542 0.01775951 0.021883093
000330 4b 8e 1d bd a3 bd 85 be 60 9c 80 bb cc 30 26 3e
       -0.03846578 -0.26121244 -0.0039248914 0.16229552
000340 4e c9 58 bd e0 c4 98 bb 64 26 41 bc 19 e9 84 3d
       -0.052926354 -0.004662141 -0.011788938 0.06489772
000350 b0 64 ca bb c7 7a 8d 3d 01 0c 8b 3d 42 68 ca bc
       -0.0061765537 0.069081835 0.06789399 -0.024707917
000360 38 aa 8d 3c 1c 46 84 bc a6 7f 13 3d b6 ff 7b 3d
       0.01729308 -0.016146712 0.036010407 0.06152316
000370 f5 2e 97 bc 14 33 ec 3c cc 56 7b bd 76 e7 69 3d
       -0.018455008 0.02883295 -0.061362073 0.057105504
000380 9d 1b 6e bc 5e 08 88 bc 0c 16 b5 3c c0 e0 33 bb
       -0.014532951 -0.016605552 0.02210524 -0.0027447194
000390 57 2e 95 3d b0 40 49 3c 10 fe 4b 3c 5e d0 c5 3d
       0.07284229 0.012283489 0.01245071 0.096588835
0003a0 a5 1d df 3c 9a 36 d7 bc 6c b8 b8 3c b3 6d 5e bc
       0.027235815 -0.026271153 0.022548877 -0.013575959
0003b0 3c dc 19 bd 56 a9 87 bd 8c 13 25 3d a5 57 2e bd
       -0.037563547 -0.06624095 0.040301844 -0.042564053
0003c0 53 1c 90 bd b0 7e 4c 3d 70 72 21 3c 78 81 c4 3c
       -0.070366524 0.049925506 0.009853944 0.023987517
0003d0 b8 58 20 bc 96 0f 25 3d 71 63 e6 3d 38 b5 c0 bc
       -0.009786777 0.040298067 0.11249436 -0.023523912
0003e0 56 f8 5b 3d 22 52 5c 3d 98 89 67 3c 72 47 3e bd
       0.05370363 0.053789265 0.014131926 -0.046454854
0003f0 0e 0d b9 3d d6 c9 fe bb 04 20 8d bc c6 d5 4d be
       0.09035693 -0.0077755256 -0.01722718 -0.2010108

encoders.1.bias f4 [100]
000000 ed d3 b2 bd 7d 4c 86 3f 43 19 d2 bd 56 1c c7 bd
       -0.08731828 1.0492092 -0.102587245 -0.097222015
000010 97 5c 93 be 8f 3b 8d bd c2 61 1f bf 08 21 fa 3e
       -0.28781578 -0.068961255 -0.6225854 0.48853326
000020 06 33 0b bd db 6b 96 bd b9 a9 2b 3c 25 d8 20 bf
       -0.033984207 -0.073447905 0.010477477 -0.6282981
000030 00 25 46 3b 8d b6 37 bd cb c1 a0 bd 6f 34 63 b9
       0.0030234456 -0.04485183 -0.07849463 -0.0002166794
000040 9d c6 a0 bf 86 fc 30 3e 67 1d 18 be 3d 52 56 bf
       -1.2560612 0.1728383 -0.14854966 -0.83719236
000050 02 e9 05 bd 3d ee b8 3b 05 b0 47 bd c5 bb c3 3e
       -0.032692917 0.0056436346 -0.04875185 0.38229194
000060 19 f0 b3 bd fc c4 1e be bc 74 82 bf 70 f5 5a bd
       -0.08786029 -0.15504831 -1.0191875 -0.053456724
000070 61 b9 76 3e 7d bc 58 bd 24 05 b6 bd a4 ab 13 bc
       0.24094154 -0.05291413 -0.08887699 -0.00901309
000080 3d 5e 9e bc 6e 43 8c 3c 6c 11 36 3f 19 65 8a bf
       -0.019332046 0.017121997 0.71120334 -1.0812103
000090 c9 6a a6 bd 2e ab 12 be 47 e5 62 bc 8f 63 35 be
       -0.081258364 -0.14323112 -0.013848609 -0.1771376
0000a0 a9 41 b4 bd 7a 81 52 3d 05 cc 77 be b0 69 ca bd
       -0.08801586 0.05139301 -0.24198921 -0.098834395
0000b0 46 0b 4f be 06 4a 97 3c 4d d4 7c 3c 2b 9a 8a bd
       -0.20219144 0.018467914 0.015431476 -0.067676865
0000c0 ce 4c ea bb c6 b1 87 bd 7f a8 9d 3f fa f6 3e 3f
       -0.007150269 -0.066257045 1.2317046 0.74595606
0000d0 78 a8 f6 bd 85 5f aa bd 07 0f 03 bf 47 d0 83 bd
       -0.120438516 -0.08319 -0.51194805 -0.0643621
0000e0 9b a5 78 bd 81 0a c8 3c 0a 26 07 bb 6d 8a 91 3c
       -0.06070481 0.024419071 -0.0020622038 0.017766202
0000f0 73 96 35 bf 88 e7 b5 bd 25 38 d4 bd d5 56 e6 bc
       -0.7093269 -0.08882052 -0.10362271 -0.028117577
000100 7b bb 9e bf 20 a1 8c 3f a4 e4 b8 bc be 7d 08 be
       -1.2400964 1.0986671 -0.022569962 -0.13329217
000110 47 6f 27 3c 4c cf 96 bf d3 16 ac bd 1c 94 b8 3d
       0.010219402 -1.1782012 -0.08402791 0.090126246
000120 5d 4f 0c bd 1e d3 45 3f ff e7 50 bd ae 57 fd 3d
       -0.034255374 0.77275264 -0.0510025 0.12370239
000130 09 2f 99 bf 8f 80 3c 3d 09 02 66 3c db b0 4a 3e
       -1.1967479 0.04602104 0.014038571 0.19794028
000140 66 2c 9a 3f a9 ac ce 3e c4 c9 56 bd c3 96 0a 3f
       1.2044799 0.40366104 -0.052438512 0.54136294
000150 6a 95 b4 bd eb ec 38 3f d9 96 4c bc 89 fd 93 be
       -0.08817561 0.7223651 -0.012487137 -0.2890437
000160 d5 8a 4f bd a8 2d bf be f2 3f 1a be a3 cc 45 bd
       -0.05066951 -0.3733952 -0.15063456 -0.04829086
000170 a2 24 34 3f 58 08 84 3c 24 dd 15 bd 35 9f 97 be
       0.703684 0.01611726 -0.03658785 -0.29613653
000180 1a 7d 84 be 84 40 c4 bd 9c de 97 bc 19 46 87 bc
       -0.25876695 -0.09582618 -0.018538766 -0.016512917

fc_mu.weight f4 [4, 100]
000000 8c 6e c2 3c 0c 68 8a bd f4 fe 44 3d 73 2f 90 3d
       0.023734353 -0.067581266 0.048094705 0.070403
000010 8c b5 2d bd 88 2f a7 3d 1f a6 3a 3e 6c df 8f bd
       -0.042409465 0.08163363 0.18227433 -0.07025036
000020 ae 84 42 3d 6d 68 0a bd 89 14 1c 3d 59 39 d7 3d
       0.047489814 -0.033790994 0.03810552 0.10508985
000030 35 f1 c9 3c 2e 5e 36 3d 4a 7f b5 3d 81 0b 3c 3d
       0.02465115 0.04452341 0.08862169 0.04590941
000040 96 29 4a 3e 1d 7a b2 3b 2c fc b4 3e c9 e1 fb 3c
       0.19742426 0.005446686 0.35348642 0.030747311
000050 7f ad 35 3e 9d 1c 1c bd 0e ee 06 bc cd 68 67 bb
       0.17741965 -0.038113225 -0.008235468 -0.003531027
000060 3d 7c 23 bd 89 2a e6 3c 6a da 5b 3e 7f de 0e 3d
       -0.039913405 0.028096454 0.21470037 0.034880158
000070 07 00 7a bd c0 97 b0 3a ed a0 25 3c 2e f8 b7 bd
       -0.061035182 0.0013472959 0.0101091685 -0.089828834
000080 7d 65 32 3d 9a cb 8c bd 4a 5d c8 be 5e 57 8d be
       0.043553818 -0.068747714 -0.39133674 -0.27605718
000090 a7 48 ce bc 43 19 05 bd 0c 6f 69 bd da cd 3d 3e
       -0.025181128 -0.032494795 -0.05699067 0.18535557
0000a0 db ed ef 3b bd e9 9b 3e e7 38 1e bc 03 63 27 3d
       0.0073220558 0.30451766 -0.009657121 0.04086591
0000b0 f0 10 a8 bd 3b 34 ad bd f5 e2 9f bc 45 81 2c 3d
       -0.082063556 -0.08457228 -0.019517401 0.04211547
0000c0 f9 54 cc bc 44 f8 2b bc 83 8a fd 3d 05 cb ff bd
       -0.024942862 -0.010496203 0.12379935 -0.12489895
0000d0 a2 db 37 3b b5 a1 56 bd 0a 54 09 be b9 46 1e bc
       0.0028054495 -0.05240031 -0.13410965 -0.009660416
0000e0 9b 3f 9d bb f6 ba 2e 3c 35 2e bb bd d2 d0 e5 bc
       -0.004798842 0.010664692 -0.09139673 -0.028053675
0000f0 18 8b ed 3d 2a f0 cf 3d e6 ef 27 3e f9 01 7f bc
       0.11598796 0.101532295 0.16400108 -0.015564435
000100 a7 f6 62 3e 8b bd 3c 3d db e1 71 3d bf f4 0f bd
       0.22164403 0.0460792 0.059053283 -0.035145517
000110 4a f4 17 bd 1a bd 0e bd 2b c8 86 3d d4 ae 0e 3d
       -0.037098207 -0.03484831 0.06581148 0.034834698
000120 3e 46 a5 3d 60 80 33 3d 5c 91 1f 3d 8c f6 69 3d
       0.08070038 0.0438236 0.038956985 0.05711989
000130 62 58 5e 3c dd 34 f2 bc b1 ea c2 bc fc 64 e7 3d
       0.013570877 -0.029566223 -0.02379355 0.11298558
000140 a8 50 bd bd ea 8c e3 bd bf b3 53 bd f9 6d 97 3d
       -0.092438996 -0.111108616 -0.05168509 0.073940225
000150 ba a9 fd bb 84 68 a5 bc 83 4a 84 bc 1c 1e 97 bd
       -0.0077411802 -0.020191438 -0.016148811 -0.0737879
000160 2c ab a8 bd 5f ca 6f 3c ec 55 2b 3d ca 2b 5e 3d
       -0.082357734 0.014635651 0.04182999 0.05424098
000170 16 ab a2 be 92 2b cc bc bf d1 af 3d 1a a6 9c bd
       -0.31771153 -0.02492312 0.08584928 -0.07648869
000180 0e cf 69 3e 86 f8 1a bd 28 6b 04 bc 4a b7 2b bd
       0.22832891 -0.037834667 -0.008082189 -0.041922845
000190 e6 4d b8 3b d3 9c 6f bd 4c 1a 1a 3d 0b 95 cc bc
       0.0056245206 -0.05849917 0.037622735 -0.024973413
0001a0 03 64 99 bd b9 50 ed 3b 26 d3 b6 ba 93 bd d8 3c
       -0.07489779 0.007242289 -0.0013948425 0.026457584
0001b0 13 7e 2f bd 3c 51 bb bd 38 f0 63 3d 73 00 4b 3d
       -0.042844843 -0.091463536 0.055649012 0.049560975
0001c0 78 ef 40 3d 96 13 08 bd 17 c5 90 bc 2d 06 e4 bc
       0.047103375 -0.033221804 -0.017672105 -0.027834976
0001d0 5d f0 67 bc d2 b2 00 3d 7f 83 4a 40 bb 4c f9 3d
       -0.014156428 0.031420536 3.164276 0.12172838
0001e0 8d c5 a3 bc 44 b7 ae bc 11 39 30 3d 9d 15 aa 3e
       -0.01999166 -0.021327622 0.043023173 0.33219615
0001f0 0f c7 8e 3d 56 35 18 3c c2 a2 72 bd 49 fe e0 3c
       0.06971561 0.00929006 -0.05923725 0.027465003
000200 24 06 bb 3c 89 aa d5 3d 34 85 d3 3b 61 e9 5d 3d
       0.022830077 0.104329176 0.006455088 0.054177646
000210 b2 e5 08 bb 50 b8 41 39 91 25 17 bc dc 53 51 bc
       -0.0020888862 0.00018474576 -0.009225265 -0.012776341
000220 f6 52 a7 3a 5e 07 2d 3c cf a3 11 3d 0f f6 93 bd
       0.0012765813 0.0105608385 0.03555661 -0.07224666
000230 46 48 9c bc a1 f6 c7 bb 2b 37 22 be ff 54 56 3c
       -0.019077431 -0.0061023985 -0.15841357 0.013081788
000240 dd 76 15 bc af 2f 8f 3b 08 cf 17 bc 01 a9 c7 bb
       -0.0091225775 0.004369698 -0.009265669 -0.006093145
000250 33 fa 4a bd b8 11 01 be 3d 3e 55 be 04 10 16 bc
       -0.049555015 -0.12604415 -0.20824523 -0.009159092
000260 f8 b9 11 be ed 88 28 bd 5b 56 48 bb e3 12 30 3d
       -0.14231098 -0.041146208 -0.003056905 0.04298676
000270 f8 ac 68 3d 01 96 42 3c a5 95 99 3d d5 f6 21 bd
       0.05680558 0.011876584 0.074992456 -0.039542038
000280 74 11 b1 bc ed ab 0e bd 6c bd 97 3d 70 7f 93 bd
       -0.021614768 -0.03483193 0.07409176 -0.07202041
000290 60 42 61 3d d0 86 85 bd db e8 14 bd c2 b4 92 bc
       0.05499494 -0.06519854 -0.03635488 -0.017908458
0002a0 82 9c 46 3a cd b5 01 3f 99 ac ae bc 31 47 cb 3c
       0.0007576422 0.5066803 -0.021322535 0.02481422
0002b0 cf 2a 57 bd f2 e8 49 3b ea b2 b1 3c 5a 45 ed 3c
       -0.05253106 0.0030809012 0.021691758 0.028963733
0002c0 45 18 30 bd 13 e3 2b 3d 63 21 23 bd 07 e5 da 3c
       -0.042991895 0.0419646 -0.039826762 0.026720537
0002d0 03 81 1c bf 75 a8 ea 3c 19 28 28 3d c5 c8 63 bb
       -0.61134356 0.02864478 0.041053865 -0.003475712
0002e0 ef 79 19 bd 77 79 bd bc 2c 50 bd bd 57 e6 03 3f
       -0.0374698 -0.023129208 -0.09243807 0.51523346
0002f0 a7 a1 a8 3c 82 bb 40 bd 3d 9f 07 bc 54 eb 19 bd
       0.020584894 -0.04705382 -0.008277711 -0.037577942
000300 e9 92 87 3d 36 c0 90 3d e6 54 b3 3b 8d c5 45 3d
       0.06619818 0.07067911 0.005472767 0.048284102
000310 18 dc 01 3d 1e c3 b7 3c cb fe 9e bb e6 f5 85 bc
       0.03170404 0.022431906 -0.004852151 -0.016352605
000320 49 14 15 3d 0e ea 09 bc 61 bb 66 bd 9e be 34 3d
       0.0363963 -0.008417619 -0.056331042 0.0441271
000330 c7 37 5b 3c a2 a8 97 bd 81 00 c9 3b 44 c2 8f bb
       0.013379998 -0.07405211 0.0061340933 -0.004387172
000340 fd e7 8b 3c 3b 0d 4c 3d e1 79 31 bb 6d 64 7e 3c
       0.017078394 0.049817305 -0.0027080702 0.015526873
000350 10 a5 6f bd 3c d8 89 3c ff 62 8c 3d 7d 6f 85 3d
       -0.058507025 0.016826741 0.068548195 0.06515405
000360 00 c6 f1 3b 8a 15 ce ba 09 5e 93 3d 60 c8 bb 3b
       0.00737834 -0.0015722972 0.0719567 0.0057306737
000370 b7 0b 12 bd 28 02 15 3d 4d 90 b9 3c a3 bf 16 bc
       -0.035655703 0.03637901 0.022651816 -0.009200963
000380 83 1b d5 bb 06 ea 95 3b 25 49 51 bc f8 5b 98 3c
       -0.006503524 0.004575017 -0.012773787 0.018598542
000390 07 82 ef 3b 89 a5 bc bd 2a 0c 7c bc 8a e3 62 bd
       0.0073092016 -0.09211261 -0.0153837595 -0.05539278
0003a0 67 46 a1 3d c2 7c 80 bc fb f7 e8 bb 68 77 aa bb
       0.07874756 -0.01568449 -0.0071096397 -0.0052022226
0003b0 78 36 cd 3c c7 c0 a9 3b a0 f2 a6 3d a2 10 d2 bc
       0.025050387 0.0051804516 0.08151746 -0.025642697
0003c0 d7 17 55 bc be 4d 01 3b f5 78 fa 3b 96 8a 0a bd
       -0.013006172 0.0019730176 0.0076438137 -0.033823572
0003d0 25 04 e5 bd ee c8 bf bc d7 58 c2 3d 8a 09 b2 3c
       -0.11182431 -0.02341124 0.09489601 0.021733064
0003e0 62 85 82 bd 60 99 77 3c ba d9 d6 3b bf 1a a6 bb
       -0.06373097 0.015112251 0.0065567167 -0.0050691064
0003f0 02 41 12 3d f4 99 f8 3d 93 2f f5 b9 a2 26 59 3d
       0.035706528 0.12138739 -0.00046765487 0.05301536

fc_mu.bias f4 [4]
000000 b9 89 08 bf bf ee e1 be 43 c5 60 3b 37 d8 07 bc
       -0.5333515 -0.4412746 0.0034297265 -0.008291296

fc_logvar.weight f4 [4, 100]
000000 dc 56 1e 3c d6 17 cf bd 69 d4 1f bd c0 a2 0c be
       0.009664264 -0.10111968 -0.03902093 -0.13733959
000010 3d 6d 2c 3e f3 86 1a bc 96 ca 9b 3e 44 2d b2 bd
       0.16838546 -0.009431588 0.30427998 -0.0870004
000020 19 14 0d 3e c5 96 4a bd bc f6 d4 3d 04 92 5c be
       0.13777198 -0.04946019 0.10398623 -0.21540076
000030 3c 7f 22 bd 6b 70 da 3d 68 15 47 3d 9e c8 82 bd
       -0.03967212 0.10665973 0.0486044 -0.06385921
000040 1a 85 f8 3e a5 cc 38 bd b2 4e 3c bd 5d 89 e5 be
       0.48539048 -0.04511704 -0.045973487 -0.44831362
000050 96 f8 e0 3e 82 c2 b2 3d 66 5c de 3d e7 55 17 bc
       0.43939656 0.08728506 0.10857467 -0.009236789
000060 19 24 6f 3d 2f 52 12 3f a7 ce d3 3e e6 9d 38 ba
       0.058384035 0.5715665 0.413686 -0.00070425717
000070 04 2c 0b 3e 35 3d bb bc ca 2e 87 3d 37 80 01 3d
       0.1359101 -0.022856334 0.06600721 0.031616416
000080 ac f9 9d 3c 42 5f 7f 3d 58 1f d3 be 3b e7 4e 3d
       0.019284092 0.062346704 -0.4123485 0.050513487
000090 7a 8d 1e 3d 70 2c e1 bc 7c fd b7 3d 59 47 83 3e
       0.03870914 -0.02748701 0.08983895 0.2564037
0000a0 9e 73 3a 3d b5 a5 ba 3d f0 41 ae bc 67 e0 b5 bc
       0.045520417 0.09113637 -0.021271676 -0.02220173
0000b0 0c 08 f0 3c 72 e8 30 bc 26 3b 26 3d 21 b2 72 3d
       0.029300712 -0.010797607 0.040583752 0.05925191
0000c0 e3 eb f4 bc 5d e7 2a 3d 56 cc 85 be 7f 12 ac be
       -0.029897636 0.04172455 -0.26132458 -0.3360786
0000d0 d0 56 e7 bb f7 70 d8 3d 4b ae 03 3f 0d c4 a9 bc
       -0.0070599094 0.10568421 0.51437825 -0.020723367
0000e0 5b 08 2e bd 83 8d 19 bd 9b 68 8c bc 05 66 a0 bb
       -0.042488437 -0.03748847 -0.017139724 -0.004894974
0000f0 e1 9a d1 3c 4a 3f ff bc 82 d3 48 be f7 7c ff 3c
       0.025586547 -0.031158108 -0.19611934 0.031187518
000100 5e 72 12 bf 6d 15 88 be 05 77 9b 3c 32 3d be 3d
       -0.5720576 -0.26578847 0.018977651 0.09289016
000110 ae 04 5c 3d c1 5d 24 3d 33 1f 24 3d ee 4c 5f 3d
       0.0537154 0.040128473 0.040068816 0.054516725
000120 da 1f d7 3d 4b 59 af be 9c 8f d5 3d 6f 8c e2 3d
       0.10504122 -0.34247813 0.10427782 0.11061942
000130 cf e2 10 3f b7 de 86 3d 4c 7a 5e 3d 4b 40 9b 3c
       0.5659608 0.06585448 0.05431585 0.018951556
000140 b4 2e 0d bd e2 d1 08 be 51 a8 88 3d cf 40 99 be
       -0.034468368 -0.13361314 0.06672729 -0.29932258
000150 a8 9f b2 bc 13 e8 99 be eb a2 33 3d a2 ac 06 3e
       -0.021804646 -0.3005987 0.043856543 0.13151792
000160 3b b4 22 bd ed 99 7d 3e 6a 09 5e bd 73 9a 4b 3d
       -0.039722662 0.2476575 -0.054208197 0.04970784
000170 35 26 a9 be 77 99 ac 3d 82 e2 9d 3d 91 96 4f be
       -0.33036962 0.084277086 0.077092186 -0.2027228
000180 19 4d 11 be ca 5e db 3c e9 70 ca 3c 8b c8 bb bc
       -0.14189567 0.026778597 0.024712043 -0.022922775
000190 e6 3d 12 bc 69 dd bb 3e cd ec c1 3d 21 b8 0f 3e
       -0.008925891 0.3669236 0.09468994 0.14035083
0001a0 b0 61 d9 3e 3a 05 24 3d 38 7b a8 bd 6b c7 3a bd
       0.42457342 0.040044047 -0.08226627 -0.045600336
0001b0 d5 ce d2 3d 68 e5 9a bd 53 4d 06 bd 6f 59 1d be
       0.10293356 -0.07563287 -0.032788586 -0.15366147
0001c0 6f a6 ae 3c c2 28 86 bd 5e 63 88 3d 6a 66 95 3d
       0.021319596 -0.06550743 0.06659578 0.072949246
0001d0 18 9e a3 3d 65 5e 3a 3d ae d5 84 3f 10 a8 a3 be
       0.07989138 0.045500178 1.037771 -0.3196416
0001e0 fa e9 0e 40 76 0f 99 3c 07 73 a2 bd 61 56 2f 3e
       2.2330308 0.01868413 -0.07932096 0.17122795
0001f0 0b b8 fa 3d 73 a1 ae 3c 7f 5b 21 3e 05 01 23 3d
       0.12242135 0.02131722 0.15757559 0.039795894
000200 91 cb 8b bb cf 4e 17 be 9c 04 a4 3c 98 6f 5d 3d
       -0.0042662104 -0.14776157 0.02002173 0.054061502
000210 da d0 dd 3b c3 d4 6f 3d e1 9d d8 bc 57 27 65 ba
       0.006769282 0.058552515 -0.02644247 -0.0008741519
000220 ca 00 bf 3c 8a 01 9c 3d b2 aa 19 bd fd 00 0e 3f
       0.023315806 0.07617481 -0.037516303 0.5547026
000230 77 46 4a bc 6e 89 68 3c 32 9f 22 3d cb ad b7 3d
       -0.012345902 0.014192922 0.0397026 0.08968695
000240 46 db e4 3d c3 2f 49 3d 10 f9 7d 3c 25 61 85 bd
       0.111746356 0.049117815 0.015501276 -0.065126695
000250 f4 20 55 3d 4b 12 58 bd fe ea b0 3e 0f 5f d0 3b
       0.05203338 -0.05275182 0.34554285 0.006358988
000260 e2 a2 7d 3c e7 15 ee 3d 35 ba 07 bd f0 41 58 3d
       0.015480729 0.11625271 -0.033136565 0.052797258
000270 75 cf 24 bd 79 e1 18 3d 95 9d 7b bd 3a d0 2f bb
       -0.04023691 0.037324402 -0.06142958 -0.0026826994
000280 6f 78 e6 bc 4a 37 e9 3d 87 24 0a 3d d1 1a 53 bb
       -0.0281336 0.11387499 0.03372624 -0.0032212029
000290 d0 a8 21 bd b3 2a ba 3d 84 86 13 bd aa 55 8a 3d
       -0.039467633 0.090901755 -0.036016956 0.067546204
0002a0 9d 49 0f 3c a0 33 81 bd 49 8b 9b 3d 31 63 6a 3c
       0.008745578 -0.06308675 0.07594926 0.014305876
0002b0 0e da 77 bd 9e 2e af bc e6 ee 04 3d 99 94 45 bd
       -0.060510688 -0.021384533 0.032454394 -0.048237417
0002c0 98 75 29 3f 76 88 04 bd e0 fe 9b 3d b2 d7 0b 3d
       0.6619506 -0.0323567 0.07616973 0.03414125
0002d0 96 a1 48 bf 21 18 e2 bc 4e b9 c0 3d 60 d3 a6 3c
       -0.7837156 -0.027599396 0.09410344 0.020364463
0002e0 14 5b 61 3d 4b 3d 3a ba e7 51 27 3e 95 1f a4 bf
       0.0550185 -0.000710447 0.16339837 -1.2822138
0002f0 37 8f ac 3c 2d 14 1b 3f ab 28 13 3e ef 3b 4a 3d
       0.021064384 0.6057766 0.14370982 0.049373563
000300 a7 fd 02 bd b6 22 01 3d 63 e4 ab 3d 05 6e b4 3d
       -0.031980183 0.031527244 0.08393171 0.08810047
000310 54 da 22 3e f0 4f 93 3d db 07 7f 3c a5 68 93 3d
       0.15903598 0.07192981 0.015565838 0.07197694
000320 63 a5 68 3d 01 42 a2 b7 ac 5a aa bc 37 3d 58 39
       0.05679835 -1.934264e-05 -0.020795189 0.0002062217
000330 d1 bd fe bc 4c f2 e0 b9 1a 40 0b ba df 02 27 bb
       -0.03109637 -0.00042905135 -0.0005311981 -0.002548389
000340 75 7a 7a 3a 26 1f 2c bc 67 1a 10 bd 06 e3 a0 bc
       0.00095549907 -0.010505473 -0.03518143 -0.019639503
000350 1d b4 e4 3c 4f fc aa 3c dc e2 f8 bb 54 4c 76 3d
       0.027917916 0.020872263 -0.007595403 0.060131386
000360 b8 b5 56 3b cb d1 aa bb fa 49 21 bd 15 5e fd b9
       0.0032762121 -0.0052129976 -0.03937719 -0.00048326017
000370 8a fe d0 bc 21 88 08 3c 95 d7 a4 bc a7 af 43 3b
       -0.025511999 0.008333237 -0.020122329 0.0029859336
000380 af c4 2d bc e7 41 07 bb 7b 5a ae bb 27 ea 97 3d
       -0.010605975 -0.0020638646 -0.0053208447 0.07417708
000390 71 ee 98 3a 36 3f 3e bb 0a 07 d1 bb 41 cb 60 3a
       0.0011667741 -0.0029029376 -0.006379013 0.0008575209
0003a0 49 72 eb 3c f6 e5 88 bd 17 07 8c 3a 78 06 d2 b8
       0.028741019 -0.066844866 0.0010683265 -0.00010014785
0003b0 dc a3 35 3d cd 62 0f 3c e6 e9 50 3d e8 42 c2 bc
       0.04434572 0.008751583 0.051004313 -0.023713544
0003c0 e5 43 37 3d 77 1c e0 ba 74 05 5d bd e2 70 86 3b
       0.044742484 -0.0017098327 -0.05396028 0.004102812
0003d0 d2 b9 c4 3c 83 2d 6e bc 23 f0 68 3d c6 32 f5 3b
       0.024014387 -0.014537218 0.056869637 0.0074828593
0003e0 03 81 08 3c b2 e0 86 3c 94 2c b1 bb 9a 1d 13 3b
       0.00833154 0.016464565 -0.0054069255 0.0022448064
0003f0 cf 6d 6c bc 6f bd 80 3d d0 85 b9 b9 bb 71 d3 bd
       -0.014430477 0.062861316 -0.00035385648 -0.10324427

fc_logvar.bias f4 [4]
000000 4e 71 4b bf ff 14 56 be 50 ef 9e ba 15 1b 64 39
       -0.79469764 -0.20906447 -0.0012125764 0.00021753863

decoders.0.weight f4 [100, 5]
000000 98 a8 84 3b f5 d4 21 3c 9a d9 34 3c e1 b6 90 3b
       0.0040484183 0.009877433 0.011038208 0.004416332
000010 36 f8 00 3e aa 11 cc bb 58 2b 38 bb 75 eb a5 ba
       0.12594685 -0.0062276917 -0.0028102007 -0.0012658673
000020 6b fd 5d 39 65 dd c5 bf e8 81 6d 3b d4 58 c2 39
       0.00021170608 -1.5458189 0.003624076 0.00037068746
000030 c3 d7 82 39 87 d8 3d 3b 05 71 b7 3d 97 5e 22 bf
       0.00024956287 0.0028968172 0.08957104 -0.6342558
000040 2b ad 0d 3c 65 7c 7d bc 9e 28 27 bb 9f ac 53 3d
       0.0086472435 -0.0154715525 -0.0025506387 0.051678296
000050 3a f9 d3 3d 89 5b ca 3b 7b b3 03 bc d0 44 45 bc
       0.103502706 0.0061754626 -0.008038397 -0.012040332
000060 4e 09 37 bf d9 4c da bc 47 de 2f 3d 21 21 b6 bc
       -0.7149857 -0.026647972 0.04293659 -0.022232594
000070 68 18 d4 3c c5 c5 b8 be 5c 0c 97 3d a7 5d 88 3d
       0.025890544 -0.36088386 0.07375404 0.06658488
000080 c5 fb 0e bc 34 95 fe 3b 07 01 30 bf 00 12 a5 be
       -0.008727019 0.0077692512 -0.6875157 -0.32240295
000090 75 db 3b 3d f6 b7 73 3c 66 fe 0e 3a 34 8b 81 3f
       0.045863587 0.014875403 0.00054547784 1.0120606
0000a0 36 2d aa 3c f6 d0 4d 3b 75 50 21 bc db 8f b2 bb
       0.020773511 0.0031405068 -0.009845843 -0.005449278
0000b0 a6 01 52 c0 7a f8 6f bd 00 72 3e 3e d2 93 e3 3b
       -3.2813506 -0.058586575 0.18598175 0.006945112
0000c0 09 3b c1 bc 49 fb 8d 3e da 13 48 bc f5 d2 57 bb
       -0.02358772 0.27730778 -0.012211764 -0.0032932137
0000d0 85 37 17 3d 9e 84 54 bc 02 7b 85 bd 32 c3 55 be
       0.036918182 -0.0129710715 -0.065176025 -0.20875242
0000e0 7e 83 0a be 8d 0f c2 bc 3e 09 49 3c e8 57 74 bf
       -0.13526723 -0.023689056 0.01227027 -0.95446634
0000f0 95 a2 0e be bb 97 c8 3a 0e 55 a4 3b 2f ae 65 bb
       -0.13929208 0.0015304008 0.005015022 -0.0035046448
000100 46 23 01 c0 0a 69 a7 3e ac fd 03 b8 4a 6b a9 3b
       -2.017778 0.32697326 -3.1469084e-05 0.0051702606
000110 53 b3 f3 3b 02 db 46 bf 3b 92 07 3e a1 80 1f 3c
       0.0074371486 -0.7767793 0.13239376 0.009735257
000120 35 3c 04 3a be 68 61 3c 2b 07 15 bf ee 0b d5 be
       0.0005044372 0.013757883 -0.5821406 -0.41610664
000130 cf a5 5e 3b 59 b8 10 3c 7e 00 62 3c 8f 76 35 bf
       0.0033973341 0.008833014 0.013794063 -0.7088403
000140 69 a5 e9 3c e7 be 0c 3b c4 7e 41 3b ba 8e 4c bb
       0.028521257 0.0021476091 0.002952502 -0.0031213001
000150 b1 88 25 bf b5 09 2a 3b 7d d4 64 bc bd 10 02 3b
       -0.646617 0.0025945727 -0.013966677 0.0019846403
000160 5d 04 5f bb ae c8 b6 be 74 f3 a3 b9 fc 66 f7 3b
       -0.00340297 -0.3569998 -0.0003127117 0.0075501185
000170 a9 34 d3 bb 88 da fc 3b 60 be fb 3c 0e 00 c6 3c
       -0.0064454866 0.0077164806 0.030730426 0.024169948
000180 8f 5f 61 bb 2a 68 07 3b 16 1d 19 bc 6d 8e 66 be
       -0.0034389233 0.0020661452 -0.0093453135 -0.22515269
000190 75 49 5b be 9c 4a 17 3c f0 d9 99 ba 23 25 13 bb
       -0.2141474 0.009234097 -0.0011737924 -0.0022452555
0001a0 9b 6f 8e 3f bf a0 92 bd 6e 9c e9 bb fb 34 53 ba
       1.1127809 -0.07159566 -0.0071292436 -0.0008056906
0001b0 ea 23 c8 bb 9f 70 99 3f 7f a8 b9 3a 86 03 c0 bb
       -0.006107797 1.1987494 0.0014164596 -0.005859795
0001c0 4c 9d 2f bb 1b ab cd bb f4 b0 25 be 97 62 f7 be
       -0.0026796637 -0.006276501 -0.16180784 -0.48317406
0001d0 b6 8f ec 3c ad ff bb 3b 68 e3 83 3a 89 77 94 c0
       0.02887712 0.005737266 0.0010062279 -4.6395917
0001e0 5b 53 ad bd 5f 58 1a bb 9a f7 8f 38 ea d8 8f 3b
       -0.084631644 -0.0023551208 6.864891e-05 0.004389872
0001f0 cb ce 40 c0 6f e9 0c bc ad 03 a6 3a 6c 29 4f bb
       -3.0126216 -0.008600577 0.001266589 -0.0031610383
000200 66 ae 6a 3a 30 a3 71 bd 18 0f 53 3d 98 b8 bc bb
       0.0008952379 -0.05899352 0.051528066 -0.00575931
000210 77 38 6a bb c6 06 7f 3b cc 27 93 c0 02 a0 91 3c
       -0.0035739222 0.003891395 -4.598608 0.017776493
000220 4a 21 b1 3b fd 59 df bb 6e 0c 84 3c 32 d7 4b bf
       0.0054055797 -0.0068161474 0.016119208 -0.79625237
000230 bb e3 2c 3b 9d 80 58 3a 64 d4 a3 bb 4c a7 4b 39
       0.0026380855 0.0008258911 -0.004999684 0.00019421912
000240 6f 3f ae be 0d 0a cf 3a f0 fc c6 bd c9 8b 8e 3d
       -0.3403277 0.0015795842 -0.09716213 0.06960256
000250 b5 67 3a bd 60 06 08 3f ba 1d 25 be 51 74 e2 be
       -0.04550906 0.5313473 -0.16124621 -0.44229367
000260 44 6a 06 bb 5c 61 db bb cb 7c 99 3d 70 30 8b bb
       -0.0020510117 -0.0066949558 0.074945055 -0.0042477176
000270 b6 af dd bb 63 7a 62 bc 85 d3 e8 3c 23 b9 d6 be
       -0.006765331 -0.013823125 0.028421173 -0.41938123
000280 b5 e8 16 be e1 ae ac be 7d 5b cb bb c3 2f ce 3c
       -0.14737208 -0.33727172 -0.0062059746 0.025169259
000290 f1 74 65 3f c7 47 50 39 47 2f d3 ba 8b cd 29 bb
       0.89631563 0.00019863165 -0.0016112112 -0.0025909867
0002a0 53 4f 9e bb 0d 9b de be c7 9a 10 3c b1 c0 b3 3b
       -0.0048312335 -0.4347767 0.008825964 0.005485617
0002b0 47 d6 73 bc 6d 94 51 b8 58 8a e6 3d c4 d6 ab 3e
       -0.014882631 -4.9967715e-05 0.11256856 0.3356229
0002c0 09 3e 03 bc 12 2d 2a 3c 7c 01 95 3c bc e2 b5 bc
       -0.008010396 0.010386722 0.018189184 -0.022202842
0002d0 86 c3 62 3b 45 06 6a bc 1d 9c ab bc da e5 cb bc
       0.0034601404 -0.014283721 -0.020948464 -0.024889875
0002e0 c8 ad 5a be dc d1 8c 3e 61 fc 75 bb bd f9 90 3a
       -0.21355355 0.2750386 -0.0037534463 0.0011060756
0002f0 91 05 3d 3b fa 00 e5 3e cd 2b 5f 3a 0d 17 d6 3b
       0.002884243 0.44727308 0.0008513302 0.0065335096
000300 20 bf 1f bc 0c 95 05 bc df 4f 86 3e 5e 80 f9 bc
       -0.009750158 -0.008153211 0.26232812 -0.030456718
000310 4d e0 57 3d 87 6c af bb 46 ca 40 3b 5c 84 50 bd
       0.052704144 -0.0053535136 0.002941744 -0.050907478
000320 97 70 6d 3c fd 6a 6a 3b a4 79 5a 39 6d 0a 34 bb
       0.014492176 0.0035769336 0.00020835415 -0.0027472035
000330 c5 8c 8e bf c3 19 5b bb 5d a7 b2 bb 34 2e c0 3c
       -1.113671 -0.0033432103 -0.00545208 0.023459531
000340 f5 46 63 bc ee a4 c0 3d 3c 50 45 3c cb c2 88 bc
       -0.013871898 0.09406458 0.012043055 -0.016694447
000350 13 b5 bc bc 87 0d 0e 3d 69 e6 ef be 32 3b 38 39
       -0.023035562 0.03468087 -0.46855476 0.0001756966
000360 e7 ec 3d 3a b8 70 fa ba 45 b1 e0 b9 ca 57 80 bc
       0.0007245079 -0.0019107079 -0.00042856685 -0.015666861
000370 cb 8c b3 bd f9 61 d2 be b6 25 bb 3a 07 c6 fc 3b
       -0.087670885 -0.41090372 0.0014278207 0.0077140364
000380 56 9b cd bf e4 ea 11 3c 65 77 6e 3c 0a 6c 35 bc
       -1.606303 0.0089061 0.014554833 -0.011073122
000390 6a ed 16 bc d0 35 d1 be 29 0b 0e bc a9 ec 62 3d
       -0.009211877 -0.40861368 -0.008669653 0.055401478
0003a0 53 ba ef bc 1b 3c e8 3c 43 b5 00 3d 33 06 23 3d
       -0.029263651 0.028348973 0.031422865 0.039800834
0003b0 8b 5b 00 bd 7a c3 ca 3c fb f9 06 3c a5 8a 03 bf
       -0.031337302 0.024751414 0.008238311 -0.5138343
0003c0 81 4b 08 bf 38 8c e1 3b 51 ff 83 ba b5 59 87 bc
       -0.5324021 0.0068831705 -0.0010070597 -0.016522268
0003d0 4f b4 f4 3d c1 3f e4 bc f4 7a ad 3b a4 36 33 3b
       0.11948454 -0.027862431 0.005294198 0.00273458
0003e0 0d 10 29 bc f9 01 d5 3d 05 2e 50 be ce 80 dd 3b
       -0.010318768 0.10400767 -0.20330055 0.0067597395
0003f0 c9 2e 43 3b bd bc 77 bb 33 ee 93 3f ae 70 a8 3c
       0.0029782525 -0.0037801706 1.1557068 0.020561542

decoders.0.bias f4 [100]
000000 a5 1b 80 be 45 02 0e 3f d0 56 00 be dc a9 91 bf
       -0.2502109 0.55472213 -0.12533116 -1.1379962
000010 15 0d eb 3e 51 ff f1 be bb b2 d1 be b6 9d b4 bf
       0.45908418 -0.47265103 -0.40956673 -1.411063
000020 ea 94 07 3f a0 2e c9 be 84 3c c5 be a8 1d 1a bf
       0.529616 -0.39293385 -0.38522732 -0.602015
000030 72 3e 1c 3f 9c 51 cf 3e 1e 6d 00 3f 21 e5 af be
       0.61032784 0.4049195 0.501665 -0.343545
000040 76 ed 08 3f bb a1 05 be ec 53 f4 bd 93 cd bb bd
       0.53487337 -0.13049977 -0.11930069 -0.091700695
000050 7e 06 0d bf c2 53 5e bf 1d a1 8f bd cc c8 2a be
       -0.5508803 -0.86846554 -0.07013152 -0.1667816
000060 05 ab ed 3e 70 40 54 bd d4 96 cf 3e bb dc d6 bd
       0.4641954 -0.051819265 0.4054476 -0.1049132
000070 5e 18 21 bd 23 8d 9b bf 77 36 b3 bf 18 57 24 be
       -0.03932988 -1.2152447 -1.4000996 -0.16048849
000080 7e 9e ce bf 05 60 0b bd 0d 26 91 be 17 38 6d be
       -1.6142118 -0.03402712 -0.28349343 -0.23165928
000090 82 01 34 be 9f cd 89 be 26 fe b4 be d9 34 03 bf
       -0.175787 -0.2691469 -0.3535015 -0.51252514
0000a0 e7 7d 11 bd ff 31 85 be 0d de ae be 7f ff 30 bc
       -0.03552046 -0.26014706 -0.34153786 -0.0108031025
0000b0 f8 86 70 bf af e6 1f be 50 47 d9 be 35 02 9d be
       -0.93955946 -0.15615343 -0.4243722 -0.30665746
0000c0 b0 ef a4 bf 25 9d 9d be f9 ce 37 bf 62 43 5d be
       -1.2885647 -0.30783954 -0.7180019 -0.21607736
0000d0 00 bb d0 bd 1d a7 52 be 08 d2 f1 bd 1d 7f d5 bf
       -0.101919174 -0.20571561 -0.118076384 -1.6679417
0000e0 89 5d 58 bf ee dc d7 be f7 bb 7a be 26 65 25 bf
       -0.84517723 -0.42160743 -0.24485765 -0.64607465
0000f0 62 43 9c bd c8 92 cb be bf ed de be 67 56 1b bf
       -0.0763004 -0.39760423 -0.4354076 -0.60678715
000100 6c 67 87 bf 9b b3 a4 be f1 07 6a be 9e c5 aa bf
       -1.0578437 -0.32168278 -0.22854592 -1.3341558
000110 63 ee 5b bf 5c 10 3d 3e b7 7a 07 bd cb b2 b3 bc
       -0.85910624 0.18463272 -0.033076014 -0.021935841
000120 cf a5 45 be b5 62 2a be 84 22 1f be 12 cb 1a be
       -0.19301532 -0.16639216 -0.1554051 -0.15116528
000130 9e 2b 36 bf 14 ae 04 bf a7 95 33 be 71 22 a9 be
       -0.71160305 -0.5182812 -0.17537557 -0.3303409
000140 eb 1f 18 bf fd 8b 07 3f 2d 95 e8 be d1 52 b7 bd
       -0.594237 0.5294798 -0.45426312 -0.08951343
000150 81 f8 7f bf 92 28 91 bf bb d7 72 3e 53 df 08 3f
       -0.9998856 -1.1340506 0.23715107 0.53465766
000160 e9 0d 1d be 00 34 83 be 13 d4 ea bd d8 1c 24 bf
       -0.15337338 -0.2562561 -0.11466231 -0.6410651
000170 4a 4c cd be e9 07 cd 3e 8b 5f 18 3f 1d 52 2a bf
       -0.40097266 0.40045097 0.59520787 -0.66531545
000180 10 ff 93 bf e9 4b 05 3f f1 5a 21 be 85 91 cf be
       -1.1562214 0.52068955 -0.15757348 -0.4054071
