m1_airfoilvae/ActFun_relu/best_vae.pth (torch, 739518 bytes, 14 tensors)

encoders.0.weight f4 [200, 199]
-0.0062385756 -0.11247623 -0.10395482 -0.040398937 -0.06929309 -0.01436683 0.012022698 0.01035008
-0.109671816 0.020825481 -0.048169646 -0.0891904 -0.111222446 -0.08943431 -0.017328804 0.019581316
0.0049067056 -0.010251737 -0.047294557 -0.03010081 -0.010528594 0.01628878 -0.005407391 -0.07117709
-0.05757612 -0.09703096 -0.017688544 0.018526634 -0.10040308 -0.10103819 -0.032442596 -0.09157415
-0.11109461 -0.059797302 -0.09054447 0.008837276 0.007108721 -0.0710308 0.022466341 -0.07151898
-0.0383013 -0.0081840465 -0.09867235 -0.04390836 -0.07690316 0.009493714 -0.018225767 0.02282494
-0.00055414013 -0.0652407 -0.03780502 -0.004429064 -0.08218353 -0.10817804 -0.03436915 0.023554327
-0.10807202 -0.065441705 -0.011725601 -0.08969824 -0.012420943 -0.015950898 -0.021887679 -0.05187342
-0.108304635 -0.03312295 -0.07859214 -0.033893123 0.022082128 -0.014459917 -0.054551814 -0.040099885
-0.054752275 -0.017435305 0.0136498725 -0.00975532 -0.027166639 0.012343938 -0.076525904 -0.056873113
-0.076414846 -0.082794495 -0.028013969 -0.093524575 -0.08969043 -0.072527915 -0.057805125 0.0006604653
-0.0007820449 -0.01744324 0.021888096 -0.10247755 -0.017983664 -0.08689919 -0.008476799 -0.08435108
-0.096554756 -0.013079352 -0.08085817 -0.051908113 -0.079451956 -0.10945448 -0.02050503 -0.086297676
-0.074979894 0.0010423454 0.013621329 -0.08134207 -0.08809859 -0.031052807 -0.09414036 -0.022209542
-0.06822933 0.0069609927 -0.08654039 0.0147109805 -0.0300735 -0.05620305 -0.0529609 -0.008889245
-0.048528757 -0.0203854 -0.06695115 -0.02036202 -0.06259511 -0.097781636 0.001916312 -0.04637245
0.007149533 -0.014507201 -0.03993121 0.0033665262 -0.053385794 -0.10538182 -0.0546891 0.013601438
-0.020465028 -0.05618256 0.014810389 -0.10547153 0.009127462 -0.09902212 -0.10150334 -0.07116033
-0.05249348 -0.032735135 -0.063963406 -0.0620318 -0.0933778 -0.056528743 -0.018144274 -0.10709134
-0.027962238 0.017037021 -0.022610921 0.010450167 0.00458726 0.016539883 -0.030319935 -0.02213576
-0.047128744 -0.05378628 0.015335954 -0.059092373 -0.100968786 -0.05349754 -0.08925408 -0.09680718
-0.09510402 -0.051892858 -0.05993903 -0.069933474 -0.040388767 -0.09709501 -0.109693296 -0.09739678
-0.0967415 -0.050945386 -0.093057804 -0.056068838 -0.04616615 -0.015518949 -0.09082438 -0.115516074
0.013476538 -0.047017153 -0.050168496 0.005604459 -0.060707647 -0.039620582 -0.015403675 -0.03226458
-0.029451644 -0.10769686 0.011477508 -0.08548217 -0.08317995 -0.03977051 -0.029936029 0.00833756
0.059708778 -0.05351647 -0.021508733 -0.062002134 -0.00246441 -0.029607313 0.054861818 -0.047782827
-0.06355168 0.046715695 -0.006010371 -0.06368092 -0.02384169 0.03425788 0.018166015 0.05363619
-0.026552318 0.036849186 0.05654613 -0.0641535 0.06495317 -0.03464398 -0.06406906 -0.06515216
0.016527103 -0.013420728 -0.024684751 0.03443054 -0.07666708 0.0058207386 -0.055737745 0.051271766
-0.016394403 -0.008451791 -0.04845273 0.053523436 -0.021519534 0.0015513115 -0.049850535 -0.003976024
0.03001408 0.037595168 0.051383253 0.035769336 -0.058165777 -0.07109731 0.017613275 -0.0056950385
-0.073290244 0.059645563 -0.04168615 -0.043265726 -0.03874814 -0.011022434 -0.042473633 -0.07203212
00000000: f76c ccbb f059 e6bd 44e6 d4bd 5b79 25bd
00000010: 89e9 8dbd da62 6bbc dafa 443c 6293 293c
00000020: 9e9b e0bd 339a aa3c 894d 45bd 75a9 b6bd
00000030: 98c8 e3bd 5629 b7bd 23f5 8dbc ff68 a03c
00000040: 6ec8 a03b e7f6 27bc f0b7 41bd f995 f6bc
00000050: 2080 2cbc 0c70 853c 7c30 b1bb 4bc5 91bd
00000060: f0d4 6bbd 2bb8 c6bd 91e7 90bc 2bc5 973c
00000070: 21a0 cdbd 1ced cebd 87e2 04bd 3a8b bbbd
00000080: 9285 e3bd 04ee 74bd 616f b9bd 39ca 103c
00000090: 46f0 e83b 9978 91bd 550b b83c 8b78 92bd
000000a0: d3e1 1cbd 6116 06bc bb14 cabd 41d9 33bd
000000b0: 677f 9dbd 868b 1b3c 344e 95bc 5efb ba3c
000000c0: b743 11ba eb9c 85bd 70d9 1abd af21 91bb
000000d0: d74f a8bd 738c ddbd aac6 0cbd 01f5 c03c
000000e0: dd54 ddbd 4d06 86bd bc1c 40bc b6b3 b7bd
000000f0: 3681 4bbc 75ab 82bc ca4d b3bc 3979 54bd
00000100: d2ce ddbd eeab 07bd eaf4 a0bd 84d3 0abd
00000110: 94e5 b43c 4ae9 6cbc b971 5fbd c73f 24bd
00000120: ec43 60bd 7cd4 8ebc b7a3 5f3c c7d4 1fbc
00000130: 928c debc 3b3e 4a3c 9db9 9cbd c8f3 68bd
00000140: 637f 9cbd 2990 a9bd 8d7d e5bc d089 bfbd
00000150: 9eaf b7bd 8489 94bd 11c5 6cbd 1323 2d3a
00000160: 2502 4dba 20e5 8ebc aa4e b33c c0df d1bd
00000170: 7a52 93bc 34f8 b1bd 46e2 0abc 42c0 acbd
00000180: 80be c5bd c74a 56bc f898 a5bd 9a9d 54bd
00000190: b5b7 a2bd ac29 e0bd 2afa a7bc d6bc b0bd
000001a0: 0f8f 99bd 4f9f 883a ff2b 5f3c ac96 a6bd
000001b0: 096d b4bd 7562 febc a9cc c0bd c9f0 b5bc
000001c0: d2bb 8bbd 0a19 e43b 173c b1bd 5306 713c
000001d0: b35c f6bc 2b35 66bd 87ed 58bd 32a4 11bc
000001e0: 17c6 46bd 48ff a6bc af1d 89bd 40ce a6bc
000001f0: dd31 80bd bd41 c8bd c32c fb3a 0af1 3dbd
00000200: a146 ea3b 9caf 6dbc e98e 23bd f0a0 5c3b
00000210: 10ab 5abd 6cd2 d7bd ad01 60bd 91d8 5e3c
00000220: 46a6 a7bc af1f 66bd 46a7 723c 7501 d8bd
00000230: 5a8b 153c 1ccc cabd fce0 cfbd 82bc 91bd
00000240: 6703 57bd 4715 06bd 3fff 82bd 0f15 7ebd
00000250: dc3c bfbd af8a 67bd 4da3 94bc b452 dbbd
00000260: 1011 e5bc 3991 8b3c 8a3a b9bc 2d37 2b3c
00000270: ba50 963b a67e 873c 8361 f8bc 0e56 b5bc
00000280: 120a 41bd 014f 5cbd a743 7b3c d80a 72bd
00000290: b9c8 cebd 3d20 5bbd d8ca b6bd d842 c6bd
000002a0: e5c5 c2bd 9b8d 54bd a182 75bd 4839 8fbd
000002b0: b16e 25bd c0d9 c6bd e1a6 e0bd f777 c7bd
000002c0: 6820 c6bd 1cac 50bd 1795 bebd 70a8 65bd
000002d0: b818 3dbd 3143 7ebc 2202 babd b193 ecbd
000002e0: b2cc 5c3c 0f95 40bd 7b7d 4dbd 9ca5 b73b
000002f0: 95a8 78bd 3149 22bd b25f 7cbc dd27 04bd
00000300: 9344 f1bc 2c90 dcbd 280c 3c3c 4711 afbd
00000310: 405a aabd 67e6 22bd 673c f5bc 439a 083c
00000320: 3191 743d 1634 5bbd 1533 b0bc f3f5 7dbd
00000330: f081 21bb 098b f2bc c9b6 603d edb7 43bd
00000340: 6227 82bd f558 3f3d a5f2 c4bb 246b 82bd
00000350: a64f c3bc fe51 0c3d e5d0 943c 9fb1 5b3d
00000360: 3f84 d9bc 2cef 163d ea9c 673d e962 83bd
00000370: 2b06 853d d9e6 0dbd a436 83bd 7f6e 85bd
00000380: d963 873c 9de2 5bbc ad37 cabc 0a07 0d3d
00000390: a103 9dbd e5bb be3b 434d 64bd 5802 523d
000003a0: 8e4d 86bc 6179 0abc 5f76 46bd 643b 5b3d
000003b0: bc49 b0bc 6055 cb3a 1330 4cbd 4f49 82bb
000003c0: 17e0 f53c 64fd 193d 3f77 523d de82 123d
000003d0: 3d3f 6ebd 779b 91bd b749 903c 729d babb
000003e0: 3219 96bd e84e 743d 19bf 2abd 6737 31bd
000003f0: 5fb6 1ebd 7097 34bc d5f8 2dbd 9385 93bd

encoders.0.bias f4 [200]
0.014440126 -0.015810847 -0.04154758 0.0013914257 0.042585343 -0.05439562 -0.09786068 -0.096038945
-0.0037533052 0.02014614 0.006155307 -0.01017667 -0.12029079 -0.11165341 -0.026591364 0.0029215608
-0.056106903 -0.030589668 0.0025949422 -0.09822068 -0.051487695 -0.05344872 -0.022237847 -0.042577423
-0.04236621 -0.022657156 -0.02966803 -0.014280603 -0.062574916 -0.06971948 0.016915688 -0.06809887
0.017486252 -0.052670818 -0.048384443 -0.12664013 0.055759847 0.02814854 0.0047202595 -0.05195517
-0.0860601 -0.043085594 0.021623487 0.005288964 -0.011484703 -0.10227179 -0.037461434 -0.119261734
0.014163411 -0.1065352 -0.0039954856 -0.037303716 -0.03645071 -0.07305499 -0.020318134 0.0029453612
0.06999409 -0.11867146 0.05059076 -0.0116117215 -0.113715224 -0.09805172 -0.087096944 0.017466247
-0.1092451 -0.08327151 -0.08311539 -0.023031985 -1.4762919 -0.00020582229 -0.071205504 -0.10706031
-0.08674542 -0.08449222 0.01025077 -0.087553605 -0.05636833 0.029722944 -0.0032956302 -0.0067166667
-0.08623226 0.030523427 -0.0024176002 -0.10830397 -0.016371422 -0.056577682 0.011831893 -0.011695828
-0.072269246 -0.08852794 0.030923419 0.010493545 -0.058439493 0.016660016 0.049506925 -0.09816301
-0.02917035 0.029595047 -0.06768276 0.009962367 -0.118153974 0.06616129 -0.1136199 -0.058722988
-0.034262877 0.016127186 -0.09465439 0.018964604 -0.07017599 -0.08215163 0.027594045 0.010667221
0.17683965 -0.09413147 -0.000763483 0.0038336965 -0.090477355 -0.07243847 -0.038435996 -0.1152391
-0.0076942816 -0.015005176 -0.046909727 0.006048379 -0.04375708 -0.034116127 -0.10799908 0.061469257
-0.047146086 -0.021440793 -0.06135743 -0.024826279 -0.0855624 -0.0018684915 0.056520626 -0.11589869
-0.0425115 -0.021259468 -0.008149614 -0.03735172 -0.101977736 -0.010334204 0.00517881 -0.08346997
-0.0395821 0.028229237 -0.04152666 -0.0701378 -0.086522646 0.032068625 -0.067045644 -0.032009292
-0.089402564 -0.028585136 0.0050654393 -0.07538126 -0.09297169 -0.04689736 -0.006068759 -0.011711341
0.018382384 0.005267752 -0.05756874 -0.03847746 0.011523915 -0.021748858 0.06540257 -0.11282161
-0.06265217 0.5118791 -0.06211499 -0.05935487 -0.09789342 -0.045805026 -0.051888406 -0.044779696
-0.081286035 -0.10170867 -0.12581412 -0.068164356 -0.0030738174 -0.113399826 0.00700324 0.015617697
-0.1172739 -0.046008717 0.015195452 0.010056009 -0.068975195 -0.00067488104 -0.065651536 -0.007953805
-0.02756571 -0.01591403 -0.00380277 -0.066323526 -0.06874318 0.0675232 -0.100354925 -0.03515207
00000000: 4796 6c3c c085 81bc cc2d 2abd 8060 b63a
00000010: f86d 2e3d f1cd 5ebd 2e6b c8bd 11b0 c4bd
00000020: 03fa 75bb 8509 a53c 75b2 c93b 0cbc 26bc
00000030: 055b f6bd 8baa e4bd 22d6 d9bc a877 3f3b
00000040: 5ad0 65bd 2f97 fabc e80f 2a3b ed27 c9bd
00000050: c3e4 52bd 0ced 5abd 252c b6bc aa65 2ebd
00000060: 3188 2dbd 809b b9bc 5e0a f3bc 31f9 69bc
00000070: 4727 80bd 16c9 8ebd c592 8a3c 6c77 8bbd
00000080: 543f 8f3c 5bbd 57bd c42e 46bd f3ad 01be
00000090: 7064 643d c497 e63c 68ac 9a3b f2ce 54bd
000000a0: 4740 b0bd 857a 30bd bd23 b13c 0c4f ad3b
000000b0: 562a 3cbc df73 d1bd 2971 19bd 7f3f f4bd
000000c0: a70d 683c 202f dabd 90ec 82bb c8cb 18bd
000000d0: 574d 15bd db9d 95bd 3772 a6bc f606 413b
000000e0: 1059 8f3d 060a f3bd 4238 4f3d 173f 3ebc
000000f0: 87e3 e8bd 57cf c8bd e25f b2bd 6015 8f3c
00000100: e5bb dfbd 418a aabd 6738 aabd 93ad bcbc
00000110: 22f7 bcbf 00d2 57b9 31d4 91bd 7042 dbbd
00000120: 95a7 b1bd 420a adbd d8f2 273c 4e4f b3bd
00000130: 7ae2 66bd 887d f33c 80fb 57bb 7c17 dcbb
00000140: 8a9a b0bd 440c fa3c 9a70 1ebb 79ce ddbd
00000150: 5c1d 86bc 00be 67bd 8eda 413c dc9f 3fbc
00000160: e601 94bd 234e b5bd 1c53 fd3c 1eed 2b3c
00000170: 405e 6fbd 967a 883c c6c7 4a3d b009 c9bd
00000180: a8f6 eebc 5071 f23c 429d 8abd 3239 233c
00000190: b6fa f1bd 927f 873d 8db1 e8bd 8487 70bd
000001a0: 3b57 0cbd 291d 843c 29da c1bd a85b 9b3c
000001b0: 6eb8 8fbd 1d3f a8bd e80c e23c 91c5 2e3c
000001c0: 7415 353e 00c8 c0bd 7a24 48ba c13e 7b3b
000001d0: 314c b9bd 9f5a 94bd 106f 1dbd 7a02 ecbd
000001e0: 5020 fcbb 45d8 75bc 6a24 40bd 7b31 c63b
000001f0: a03a 33bd 5abd 0bbd 9f2e ddbd 30c7 7b3d
00000200: 411c 41bd 9aa4 afbc ee51 7bbd 7b60 cbbc
00000210: 573b afbd 2ce8 f4ba 2c82 673d 4b5c edbd
00000220: 8a20 2ebd 5628 aebc f585 05bc 1efe 18bd
00000230: b4d9 d0bd cb50 29bc 02b3 a93b 4ef2 aabd
00000240: d720 22bd 0041 e73c dc17 2abd 68a4 8fbd
00000250: c932 b1bd 645a 033d 3a4f 89bd 2d1c 03bd
00000260: b118 b7bd 602b eabc fcfb a53b 7d61 9abd
00000270: f167 bebd 7217 40bd 71dc c6bb ede0 3fbc
00000280: a796 963c 1b9d ac3b 33cd 6bbd 8b9a 1dbd
00000290: cece 3c3c a92a b2bc c8f1 853d 040f e7bd
000002a0: c84f 80bd 820a 033f 4a6c 7ebd 181e 73bd
000002b0: 587c c8bd 0d9e 3bbd f088 54bd ea6a 37bd
000002c0: 4b79 a6bd a34c d0bd 6bd5 00be c199 8bbd
000002d0: 1972 49bb 2b3e e8bd 6f7b e53b 5ee1 7f3c
000002e0: 4c2d f0bd a373 3cbd 58f6 783c f5c1 243c
000002f0: de42 8dbd 80ea 30ba 5074 86bd ad50 02bc
00000300: 7cd1 e1bc 245e 82bc e537 79bb a1d4 87bd
00000310: 39c9 8cbd 9a49 8a3d e286 cdbd 9efb 0fbd

encoders.1.weight f4 [250, 200]
-0.0032433206 0.0010940108 -0.05096125 0.031111702 0.05642254 0.0038252398 0.12229647 0.039050832
-0.06478863 -0.06856579 0.062362622 -0.06842951 -0.07184066 0.04481999 -0.017007437 -0.022235043
-0.006199444 0.023710482 0.07288738 0.022296496 0.01922432 0.05136566 -0.028255438 -0.08470664
-0.024952656 -0.030951686 -0.11466493 0.036136054 0.08307967 -0.009109594 0.018724464 0.04433707
0.03809057 0.06339775 0.014957383 -0.05122321 0.040515065 0.0202403 0.046282127 0.04703535
-0.0031805933 0.05576737 -0.0062223356 0.10756694 -0.061260372 0.10704827 -0.1088899 0.0837707
-0.048510112 -0.10664321 0.057387777 0.025654057 -0.047743022 -0.037210733 0.028992703 -0.07807606
0.005238168 -0.071033694 -0.046309855 0.08422767 0.12839907 -0.0939236 -0.068380244 0.0186821
0.071107954 0.029371724 -0.048872743 0.08849246 -0.07504047 -0.00418476 0.05294578 0.0527341
-0.073278144 0.006507665 0.061858036 0.0130131915 0.054506946 0.063788064 -0.012457977 0.01119249
0.011945666 -0.100829 0.08828512 -0.006117874 -0.049939122 -0.078202344 -0.09413151 -0.036011163
-0.02069715 -0.06693807 0.007631734 0.0037797403 0.021239221 -0.090332754 -0.03888074 -0.09690074
0.010562977 -0.058355745 -0.0017040273 -0.106753394 0.07175373 -0.05276629 0.07686449 0.07163764
0.007253223 -0.014383155 0.052704386 0.020322919 0.018691033 0.07216174 -0.059340462 -0.094671085
-0.040432684 0.10216855 0.018402472 -0.000916421 -0.05773166 -0.0028155597 -0.029030243 -0.05962235
-0.042742323 0.022651665 -0.04986271 -0.07493728 0.01928476 0.051003285 0.0133005 -0.060210958
0.049483575 -0.025878798 -0.02350169 -0.049929187 0.10336736 0.017181374 -0.063297056 -0.08256412
-0.055018 -0.044502504 -0.07395101 0.09350434 -0.09790536 0.060076285 0.08258614 -0.11247194
0.042347852 -0.058109675 -0.02099451 -0.022074498 -0.06968151 0.040543683 0.05674202 -0.06348016
0.06866655 0.083719894 0.007164007 -0.0937644 0.09357902 -0.0971321 0.045150686 0.06457368
-0.047778312 -0.018616354 -0.019194243 -0.068480834 -0.020499106 0.019451834 -0.03846417 0.06967484
0.018386876 -0.10623233 0.037762098 -0.02136496 0.027041906 -0.11349907 0.035713047 0.016960284
0.12371745 -0.005360629 -0.06194299 -0.049371406 0.06395678 -0.036200956 -0.120876715 -0.053927146
0.021994835 0.01607385 0.0044875666 0.019811543 0.08506452 0.0035672113 0.033763565 0.034043174
0.10426618 0.11686023 0.079064324 -0.029639613 -0.030706476 0.04132299 -0.07951001 -0.09894582
-0.0026110585 -0.05807826 0.041897148 -0.00763309 0.06894568 -0.00014127791 0.0125135705 0.01121904
0.113591745 0.08552313 0.0146515 0.03631343 -0.0027015787 0.06416581 0.070262186 0.0075489264
0.11387254 0.11651625 0.05883143 -0.013552379 -0.055943917 -0.05453199 0.014081944 0.051011253
0.11523267 0.10891169 0.10781201 0.024231456 0.04870832 -0.022929177 0.07792033 0.011349589
0.059464343 -0.032046966 -0.03269021 -0.064516164 0.0019932687 -0.009568803 -0.032656163 -0.010788128
-0.01438675 0.008396804 0.11955257 -0.027956951 -0.025592461 -0.01668062 0.018219957 0.0696572
0.023869881 0.010763833 -0.0634453 0.0416855 -0.05849709 0.012633633 0.049340256 0.04299572
00000000: e48d 54bb e964 8f3a bebc 50bd f8dd fe3c
00000010: 521b 673d e0b0 7a3b 9276 fa3d c4f3 1f3d
00000020: e7af 84bd 396c 8cbd f36f 7f3d c524 8cbd
00000030: 3221 93bd 2a95 373d 2e53 8bbc 4426 b6bc
00000040: b524 cbbb 7c3c c23c fb45 953d 24a7 b63c
00000050: 527c 9d3c cc64 523d f377 e7bc ad7a adbd
00000060: 8369 ccbc 648e fdbc 72d5 eabd 6603 143d
00000070: ad25 aa3d 6840 15bc 0c64 993c ca9a 353d
00000080: dc04 1c3d aed6 813d d00f 753c 6ecf 51bd
00000090: 20f3 253d fcce a53c 5492 3d3d 24a8 403d
000000a0: 8071 50bb 536c 643d bce4 cbbb 0e4c dc3d
000000b0: 28ec 7abd 203c db3d ab01 dfbd f98f ab3d
000000c0: 8ab2 46bd c167 dabd 720f 6b3d 7528 d23c
000000d0: 308e 43bd 486a 18bd 1b82 ed3c 57e6 9fbd
000000e0: f0a4 ab3b 1d7a 91bd 67af 3dbd 8f7f ac3d
000000f0: 0c7b 033e 045b c0bd f10a 8cbd 340b 993c
00000100: 0ca1 913d f89c f03c c92e 48bd 893b b53d
00000110: d1ae 99bd 5020 89bb addd 583d b6ff 573d
00000120: da12 96bd 403e d53b da5e 7d3d 4835 553c
00000130: ad42 5f3d 51a3 823d 8b1c 4cbc b560 373c
00000140: c1b7 433c 6f7f cebd d4ce b43d 7278 c8bb
00000150: f78c 4cbd 8d28 a0bd 05c8 c0bd 7180 13bd
00000160: 128d a9bc d416 89bd a013 fa3b 85b5 773b
00000170: e0fd ad3c 6100 b9bd 6941 1fbd e573 c6bd
00000180: 5610 2d3c 6f06 6fbd ab59 dfba 86a1 dabd
00000190: 9ff3 923d 7721 58bd 216b 9d3d c1b6 923d
000001a0: 72ac ed3b 53a7 6bbc 8ee0 573d 407c a63c
000001b0: f01d 993c 89c9 933d fc0e 73bd eae2 c1bd
000001c0: be9c 25bd bf3d d13d c8c0 963c f93b 70ba
000001d0: 0878 6cbd 4185 38bb d5d0 edbc 9136 74bd
000001e0: 9312 2fbd fc8f b93c d73c 4cbd b778 99bd
000001f0: 13fb 9d3c d2e8 503d 57ea 593c c49f 76bd
00000200: 4aaf 4a3d c6ff d3bc 9e86 c0bc 8c82 4cbd
00000210: 44b2 d33d f4bf 8c3c e3a1 81bd 6117 a9bd
00000220: 8e5a 61bd 4248 36bd a173 97bd 347f bf3d
00000230: 9b82 c8bd 8d12 763d ec22 a93d b057 e6bd
00000240: f174 2d3d 6904 6ebd aefc abbc 94d5 b4bc
00000250: 2eb5 8ebd 2211 263d 526a 683d e301 82bd
00000260: 0ca1 8c3d 5675 ab3d 0cc0 ea3b 8d07 c0bd
00000270: 5ba6 bf3d 32ed c6bd edef 383d 353f 843d
00000280: 31b3 43bd 5381 98bc 3f3d 9dbc ae3f 8cbd
00000290: beed a7bc 7459 9f3c 9b8c 1dbd afb1 8e3d
000002a0: 13a0 963c 5690 d9bd 6eac 1a3d 9205 afbc
000002b0: fd86 dd3c 3372 e8bd d847 123d 4bf0 8a3c
000002c0: 935f fd3d 37a8 afbb efb7 7dbd ac39 4abd
000002d0: c6fb 823d 7447 14bd 368e f7bd b6e2 5cbd
000002e0: 832e b43c 4fad 833c 700c 933b d14b a23c
000002f0: 4f36 ae3d e0c7 693b aa4b 0a3d db70 0b3d
00000300: 8289 d53d 6b54 ef3d 7aec a13d c6ce f2bc
00000310: 268c fbbc 4c42 293d 25d6 a2bd 1ba4 cabd
00000320: 4b1e 2bbb 78e3 6dbd 589c 2b3d 001f fabb
00000330: 6533 8d3d 0024 14b9 b805 4d3c 10d0 373c
00000340: caa2 e83d c026 af3d d80c 703c 64bd 143d
00000350: f80c 31bb 5d69 833d 9fe5 8f3d fc5c f73b
00000360: 0236 e93d 12a0 ee3d 3af9 703d cc0a 5ebc
00000370: 7325 65bd f05c 5fbd f4b7 663c 2df1 503d
00000380: 1bff eb3d 180d df3d 8bcc dc3d 0c81 c63c
00000390: 6082 473d f8d5 bbbc b294 9f3d a0f3 393c
000003a0: e290 733d ae43 03bd 2be6 05bd 0d21 84bd
000003b0: 80a1 023b 78c6 1cbc 78c2 05bd b0c0 30bc
000003c0: 67b6 6bbc c092 093c fad7 f43d fa05 e5bc
000003d0: 48a7 d1bc cca5 88bc 0542 953c 6fa8 8e3d
000003e0: c58a c33c ca5a 303c 9cef 81bd 6abe 2a3d
000003f0: a59a 6fbd 4cfd 4e3c 0219 4a3d 481c 303d

encoders.1.bias f4 [250]
-0.0060591535 -0.021574462 -0.20731412 0.008187971 -0.008188379 0.0019957104 -0.00990601 -0.16540347
-0.38561758 -0.11581278 -0.08801933 -0.017838428 -0.09417867 0.003025751 -0.0922283 -0.027289286
0.016712178 -0.07554259 -0.09554313 0.016639909 -0.14833002 -0.11337667 -0.021759173 -0.11534906
-0.047282714 0.2161486 -0.012181378 -0.029738432 -0.057792667 0.014726167 -0.06258711 -0.10668109
-0.35558563 0.008569173 -0.10467259 -0.087648615 -0.01132191 -0.13358311 -0.07541217 -0.06324011
-0.011823493 -0.18741724 -0.055676676 -0.01552434 0.15042678 0.032273997 0.007891615 -0.06781349
-0.0055047 0.9722153 0.003090288 0.0006657936 -1.6316829 -0.028780255 2.1622283 0.3363392
-0.06780613 0.023376923 -2.0609896 -0.10670618 1.7419878 0.0074483408 1.6199 -0.060674556
-0.008283914 -0.08590011 0.012000289 -0.09976041 -0.07108762 -0.016730852 -0.0028514839 0.03891464
-0.11466463 -0.061437394 -0.1676626 -0.102377646 -0.16945687 -0.0256843 -0.09828531 0.0118116755
-0.3360265 -0.27505365 0.0028710633 -0.01852385 0.008334819 -0.02932008 -0.0972861 -0.05861962
0.019278536 -1.30066 -0.074301966 -0.87365115 -0.0058347485 0.11479027 -0.07351896 -0.22409393
0.04429418 -0.016795356 -0.08470084 -0.084059946 -0.06300413 -0.014704436 -0.16448644 -0.0020247486
-0.055457544 -0.07840546 -2.3255942 0.009311626 -0.035013128 0.071086325 -0.22933444 0.021496195
-0.37698126 -0.36482707 -0.08498142 -0.088025816 -0.09880175 -0.07020507 0.0065276357 -0.11794174
0.22349447 -0.048862543 -0.10275304 -0.024060506 -0.018293098 -0.025256945 0.026801838 -0.1560324
1.8375419 -0.20822336 0.011783007 -0.076992534 0.007816698 -0.10223913 -0.06752998 -0.011217911
-0.07988059 -0.05984664 -0.09115968 -0.008122328 -1.5757921 0.004748507 -0.025388138 -0.52135885
0.018968986 -0.032425717 -0.087583534 -0.065753855 -0.065704465 -0.032298878 -0.19879004 -0.009192252
-0.09266705 -0.014127998 -0.19321807 -0.09991045 -0.0011637027 -0.018344712 -0.07667677 -0.018352512
0.005511453 -0.5649408 0.009499797 -0.034581248 -0.010701513 -0.065817356 -0.07010602 -0.07341367
-0.05191186 0.050162148 -0.1655405 -0.13280576 -0.12182467 -0.234411 -0.03189789 1.0365628
0.018829169 -0.06964996 -0.06909415 -0.07210608 -0.055694766 -0.022316333 0.10043866 -0.10377489
-0.017474167 -0.0853225 -0.05212374 1.1784148 -0.09641438 -0.056844514 -0.4471692 -0.053684834
-0.11393444 0.0052675297 -0.02963895 0.72925556 -0.2633049 0.004074779 -0.10908896 -0.0652409
-0.067211166 2.7615573 -0.002897288 -0.066774376 -0.018440008 -0.0914234 -0.09023217 -0.1683996
-0.035078954 -0.066436455 0.063338496 -0.2082979 -0.019383982 -0.38213953 -0.14017847 2.185461
-0.106735855 -0.011309784 -0.038050227 -0.06959228 -0.060314056 -0.0392047 -0.045415588 -0.0891508
-0.042650886 0.012975277 -0.112981945 -0.018614093 1.1759849 0.13272537 -0.04797506 -0.0012653
-0.048274525 -0.02866843 -0.13285527 -0.108054586 -0.04215004 -0.08446368 -0.2357879 -0.3469626
-7.989391e-06 -0.19483148 -0.1294565 -0.076826066 -0.09294845 0.010307047 0.037708566 0.0029055476
-0.19158316 -0.07220242
00000000: dd8b c6bb edbc b0bc 274a 54be d726 063c
00000010: 8d28 06bc 77ca 023b d14c 22bc 875f 29be
00000020: ab6f c5be 402f edbd 7a43 b4bd e521 92bc
00000030: bfe0 c0bd ae4b 463b 31e2 bcbd c88d dfbc
00000040: fae7 883c 13b6 9abd 1eac c3bd 6b50 883c
00000050: d3e3 17be 0732 e8bd 4b40 b2bc 213c ecbd
00000060: 85ab 41bd 0f56 5d3e 6794 47bc 039e f3bc
00000070: 01b8 6cbd 0546 713c ac2d 80bd 9e7b dabd
00000080: 520f b6be b765 0c3c 955e d6bd 1e81 b3bd
00000090: 887f 39bc 03ca 08be b271 9abd 0884 81bd
000000a0: 53b7 41bc 4eea 3fbe 3a0d 64bd cd59 7ebc
000000b0: 7a09 1a3e bd31 043d d54b 013c cde1 8abd
000000c0: c560 b4bb 1ae3 783f 6e86 4a3b a788 2e3a
000000d0: fcda d0bf 92c4 ebbc f361 0a40 a734 ac3e
000000e0: f1dd 8abd f680 bf3c 41e7 03c0 c588 dabd
000000f0: 75f9 de3f 3611 f43b e258 cf3f e285 78bd
00000100: 41b9 07bc 66ec afbd dc9c 443c 304f ccbd
00000110: 6396 91bd 240f 89bc f6df 3abb f564 1f3d
00000120: 4ad5 eabd c7a5 7bbd bfaf 2bbe 5fab d1bd
00000130: 1a86 2dbe e267 d2bc cf49 c9bd c285 413c
00000140: aa0b acbe d5d3 8cbe 7328 3c3b 54bf 97bc
00000150: c48e 083c aa30 f0bc ef3d c7bd 201b 70bd
00000160: 05ee 9d3c 077c a6bf a12b 98bd 9aa7 5fbf
00000170: 6b31 bfbb 2917 eb3d 1c91 96bd e178 65be
00000180: d06d 353d 6a96 89bc a277 adbd 9f27 acbd
00000190: 4f08 81bd e0ea 70bc 226f 28be a5b1 04bb
000001a0: 7327 63bd 0b93 a0bd 89d6 14c0 ca8f 183c
000001b0: ed69 0fbd b595 913d a6d6 6abe ca18 b03c
000001c0: b003 c1be 9dca babe bd0a aebd e146 b4bd
000001d0: 9258 cabd adc7 8fbd c7e5 d53b 708b f1bd
000001e0: bcdb 643e 1724 48bd 3070 d2bd 8a1a c5bc
000001f0: 68db 95bc a7e7 cebc 878f db3c f5c6 1fbe
00000200: 9334 eb3f 8138 55be 830d 413c 43ae 9dbd
00000210: 9c11 003c c062 d1bd 284d 8abd 54cb 37bc
00000220: 6f98 a3bd c021 75bd edb1 babd 8313 05bc
00000230: 8eb3 c9bf 5d99 9b3b c9fa cfbc c677 05bf
00000240: d964 9b3c d4d0 04bd ff5e b3bd f5a9 86bd
00000250: 1090 86bd d44b 04bd 9e8f 4bbe 199b 16bc
00000260: 39c8 bdbd 1e79 67bc f5da 45be da9d ccbd
00000270: 6287 98ba a647 96bc b608 9dbd 0258 96bc
00000280: 6b99 b43b f69f 10bf 09a5 1b3c 11a5 0dbd
00000290: 6655 2fbc 40cb 86bd bf93 8fbd e859 96bd
000002a0: 88a1 54bd d376 4d3d 7383 29be 3cfe 07be
000002b0: 367f f9bd 7009 70be 5da7 02bd 17ae 843f
000002c0: a13f 9a3c a3a4 8ebd 3c81 8dbd 5aac 93bd
000002d0: 3220 64bd bed0 b6bc c9b2 cd3d ee87 d4bd
000002e0: fc25 8fbc 90bd aebd b47f 55bd 4cd6 963f
000002f0: e774 c5bd cbd5 68bd 5df3 e4be a1e4 5bbd
00000300: 7656 e9bd 3e9b ac3b 62cd f2bc 7eb0 3a3f
00000310: e6cf 86be b985 853b 086a dfbd 059d 85bd
00000320: 02a6 89bd 5bbd 3040 6de0 3dbb 01c1 88bd
00000330: 800f 97bc 313c bbbd a5cb b8bd f270 2cbe
00000340: f3ae 0fbd d60f 88bd 9db7 813d 0b4c 55be
00000350: 28cb 9ebc cba7 c3be f28a 0fbe 98de 0b40
00000360: 5498 dabd ac4c 39bc 8eda 1bbd 6686 8ebd
00000370: df0b 77bd 1c95 20bd b205 3abd b294 b6bd
00000380: b2b2 2ebd 4296 543c 1463 e7bd 957c 98bc
00000390: ac86 963f 29e9 073e 7f81 44bd 6cd8 a5ba
000003a0: 82bb 45bd 0eda eabc 360b 08be b94b ddbd
000003b0: 85a5 2cbd 4bfb acbd 6272 71be 15a5 b1be
000003c0: 2c0a 06b7 e781 47be 3f90 04be fc56 9dbd
000003d0: c25b bebd e3de 283c 4c74 1a3d 006b 3e3b
000003e0: 602e 44be ddde 93bd

fc_mu.weight f4 [4, 250]
-0.11218858 -0.07074262 0.21361353 -0.023501148 -0.02512303 0.002700157 0.0056572543 0.29251125
0.2833251 -0.057657007 -0.017861977 0.028184442 0.09118249 -0.0036561312 -0.06837622 -0.11603971
0.022794824 0.006309452 0.068042636 -0.05454763 0.016312076 0.10337061 0.005052162 -0.055197883
-0.034280088 0.01706967 -0.009365548 -0.110524945 -0.02007012 -0.06866327 -0.09102465 0.044036306
0.0063441778 0.070450835 -0.03595432 -0.031424075 -0.04798636 -0.044293612 0.08230954 -0.027727105
0.02435162 -0.027262604 -0.030691456 -0.105875626 0.04480725 0.0666165 -0.047810495 0.07003465
-0.060626596 -0.024850173 0.009335614 -0.047036562 0.040375702 -0.060140215 0.0046557225 0.01075665
-0.031290278 -0.04676605 -0.0077617713 -0.04624437 -0.0025694696 -0.072070256 0.009929564 -0.02116816
0.00093009 -0.084927306 0.04550549 -5.218956e-05 0.08601573 -0.00862882 -0.009937962 0.00043085436
-0.11478862 -0.09444886 -0.22524735 -0.024226816 -0.00428128 -0.07611038 0.061332043 -0.10403324
0.0823271 -0.17556106 -0.073872276 0.09332202 -0.088549614 0.104267925 -0.03160827 -0.006063451
-0.05084554 -0.00027259794 -0.05137966 0.04243838 -0.060386114 0.00014500166 -0.01659512 0.30373552
-0.023637613 -0.086857244 -0.01808645 -0.02552623 -0.037810367 0.0338417 0.13376972 -0.026074434
-0.031604894 -0.08894767 -0.011285839 0.006892098 0.021748103 0.07514428 0.23650928 0.068395376
0.2920732 0.4074515 -0.00091536687 -0.023100028 -0.019667495 -0.0059296302 -0.045532893 0.066987075
-0.019207926 -0.11044406 0.05087271 0.10149004 0.02256863 4.9300375e-05 -0.026471868 -0.0906673
0.011336949 -0.12774493 -0.09052463 -0.108595595 -0.057765085 -0.09961113 0.0037501021 -0.015283053
-0.0801382 -0.008470288 0.091362655 -0.072434925 -0.0022898018 -0.016174665 0.005539469 0.052705944
-0.104367584 0.014441545 -0.014362469 -0.03707342 0.06885028 -0.10128507 0.01254093 -0.065762475
0.011598886 -0.007951222 0.062388726 0.0020556443 -0.074796185 0.026084661 0.07333592 0.11132605
-0.014269019 -0.015533831 -0.07053702 -0.019927612 -0.018533401 -0.09447046 -0.10116687 -0.040093295
-0.06052967 0.012519438 0.13459694 0.029331138 0.011695655 -0.17909253 -0.04008753 0.009301585
-0.033407234 -0.0656328 -0.05756589 -0.02224417 -0.03972419 0.009676623 -0.035293788 -0.010148489
-0.00081064133 0.10372321 -0.031173984 0.006372608 -0.10413346 -0.09661567 0.016525738 -0.025484707
-0.032841526 -0.05236607 0.08298748 0.051705576 -0.056943182 0.0028311987 -0.085552245 0.017716803
-0.03294059 0.087695464 -0.028618865 0.0646436 -0.10113939 -0.10827414 0.100129634 -0.109329574
0.01153664 -0.04752449 -0.026022796 0.008519805 -0.08189086 -0.0035530627 0.30169305 -0.0013356964
-0.027039409 0.051135503 -0.008818631 0.04972149 0.10677803 -0.018520525 -0.06268307 0.08164237
0.11350203 -0.0692668 0.00052311254 -0.07668481 0.0119007565 -0.020420695 -0.075546555 0.017570127
0.1100122 -0.07575918 0.07136066 0.016960844 0.011442291 -0.039747775 -0.01650552 0.27481452
-0.06646772 -0.1762077 -0.08716694 -0.009466515 -0.036706705 -0.044943858 -0.104511045 0.029392336
0.29558244 0.059884243 0.042134073 0.07306217 0.23407991 0.0315911 0.00049002457 0.025358394
00000000: 20c3 e5bd 82e1 90bd 81bd 5a3e 7b85 c0bc
00000010: d0ce cdbc 1ef5 303b 7d60 b93b 09c4 953e
00000020: fd0f 913e c129 6cbd 4853 92bc 0fe3 e63c
00000030: e3bd ba3d b49b 6fbb d508 8cbd 3aa6 edbd
00000040: 36bc ba3c 85bf ce3b f059 8b3d 566d 5fbd
00000050: e7a0 853c f8b3 d33d 9b8c a53b 2d17 62bd
00000060: 4769 0cbd b1d5 8b3c f571 19bc e75a e2bd
00000070: 186a a4bc 549f 8cbd 226b babd 6a5f 343d
00000080: d2e2 cf3b 8748 903d d644 13bd 88b6 00bd
00000090: 588d 44bd 386d 35bd e791 a83d f423 e3bc
000000a0: 0c7d c73c d355 dfbc a66c fbbc 52d5 d8bd
000000b0: cf87 373d 3b6e 883d f0d4 43bd 546e 8f3d
000000c0: 9853 78bd 9792 cbbc 67f4 183c 69a9 40bd
000000d0: fe60 253d 9655 76bd 088f 983b a93c 303c
000000e0: 3c2a 00bd c28d 3fbd 7556 febb bd6a 3dbd
000000f0: 8c64 28bb 9299 93bd 9caf 223c d968 adbc
00000100: 49d1 733a 5eee adbd f763 3a3d 1de6 5ab8
00000110: 0429 b03d e55f 0dbc d5d2 22bc 4be4 e139
00000120: 4c16 ebbd 676e c1bd 3ea7 66be 5177 c6bc
00000130: fb49 8cbb c2df 9bbd 4f37 7b3d 610f d5bd
00000140: 1c9b a83d 47c6 33be 594a 97bd 9d1f bf3d
00000150: 8059 b5bd 6c8a d53d ac77 01bd eaaf c6bb
00000160: 6a43 50bd 7aeb 8eb9 7a73 52bd ded3 2d3d
00000170: 6e57 77bd 960b 1839 7df2 87bc 3983 9b3e
00000180: aba3 c1bc 36e2 b1bd 092a 94bc 621c d1bc
00000190: 0bdf 1abd 989d 0a3d eefa 083e 0d9a d5bc
000001a0: 2274 01bd 322a b6bd 3de8 38bc 1cd7 e13b
000001b0: 1429 b23c 3fe5 993d 7d2f 723e e012 8c3d
000001c0: 9e8a 953e 7c9d d03e 3bf5 6fba 453c bdbc
000001d0: ba1d a1bc 584d c2bb b380 3abd 8530 893d
000001e0: f159 9dbc 7f30 e2bd e75f 503d 03da cf3d
000001f0: d9e1 b83c e0c7 4e38 88db d8bc c7af b9bd
00000200: 9cbe 393c 91cf 02be fa64 b9bd 5e67 debd
00000210: 159b 6cbd ec00 ccbd 46c4 753b c565 7abc
00000220: 7f1f a4bd f6c6 0abc 581c bb3d c358 94bd
00000230: 8010 16bb bb80 84bc 6f84 b53b 30e2 573d
00000240: acbe d5bd 3b9c 6c3c 9050 6bbc 4cda 17bd
00000250: 6001 8d3d 8c6e cfbd 7978 4d3c 7aae 86bd
00000260: 4109 3e3c d845 02bc 528b 7f3d fdb7 063b
00000270: be2e 99bd 80af d53c 2531 963d e9fe e33d
00000280: 9ac8 69bc 9c81 7ebc b775 90bd 3b3f a3bc
00000290: 5cd3 97bc bb79 c1bd 9330 cfbd de38 24bd
000002a0: f6ed 77bd 541e 4d3c c8d3 093e db47 f03c
000002b0: 229f 3f3c 0864 37be d232 24bd ad65 183c
000002c0: 06d6 08bd 7d6a 86bd 36ca 6bbd 6839 b6bc
000002d0: d5b5 22bd b38a 1e3c 3890 10bd d945 26bc
000002e0: 3881 54ba d66c d43d 9560 ffbc 4fd1 d03b
000002f0: ec43 d5bd 70de c5bd fc60 873c 4ec5 d0bc
00000300: d684 06bd ce7d 56bd 57f5 a93d 3ac9 533d
00000310: 413d 69bd a28b 393b 0436 afbd d422 913c
00000320: b6ec 06bd ae99 b33d 1c72 eabc dd63 843d
00000330: 2b22 cfbd d5be ddbd c410 cd3d 2fe8 dfbd
00000340: 2d04 3d3c 0aa9 42bd c22d d5bc a796 0b3c
00000350: 65b6 a7bd 80da 68bb 8377 9a3e 8912 afba
00000360: c081 ddbc 7673 513d 057c 10bc c3a8 4b3d
00000370: 71ae da3d 5bb8 97bc fb5f 80bd 1d34 a73d
00000380: c173 e83d c1db 8dbd 7d21 093a ed0c 9dbd
00000390: 64fb 423c 4d49 a7bc 27b8 9abd 3aef 8f3c
000003a0: 144e e13d a127 9bbd 8a25 923d 78f1 8a3c
000003b0: 7278 3b3c 90ce 22bd 9636 87bc 7db4 8c3e
000003c0: 3a20 88bd cb6f 34be 9584 b2bd 7119 1bbc
000003d0: c559 16bd 0d17 38bd e309 d6bd 32c8 f03c
000003e0: 9556 973e 2e49 753d c794 2c3d 9ea1 953d
000003f0: a5b2 6f3e ab65 013d fe74 003a 68bc cf3c

fc_mu.bias f4 [4]
0.005357471 -0.1723422 -0.6105987 -0.012591315
00000000: b98d af3b 797a 30be 3250 1cbf ce4b 4ebc

fc_logvar.weight f4 [4, 250]
-0.09939515 -0.0744439 -0.25331882 -0.0592901 -0.11401012 -0.082056925 -0.083771296 -0.21606666
-0.37408075 -0.023895474 -0.05150091 -0.014185499 -0.11470998 -0.05342129 -0.09700867 -0.08507883
-0.052945852 -0.07651602 -0.06660154 -0.07109777 -0.031682923 -0.07547629 -0.10901755 -0.017342264
-0.07580743 0.015726812 -0.023324173 -0.0978537 -0.033011515 -0.046266295 -0.12069695 -0.00055528735
-0.06984452 -0.03255003 -0.078707784 -0.058057584 -0.08327634 0.07995771 -0.055449564 -0.105936855
-0.014321555 -0.037516683 -0.010657357 0.00055106904 -0.023186935 -0.021593487 0.023460984 -0.09068977
-0.064287975 0.013562899 -0.020354157 -0.04697929 -0.03448278 -0.093984686 -0.06543334 -0.010174266
-0.029614095 -0.10624992 -0.016700147 -0.02106788 -0.037775356 -0.08617846 -0.08153024 -0.06369104
-0.06478165 -0.11679105 -0.11029622 -0.04992865 -0.054140083 -0.0008254404 -0.090663 0.027812162
-0.029605074 -0.017553765 0.15721594 0.016031746 -0.08038413 -0.03144643 -0.040642302 -0.03125662
-0.112076044 -0.14902669 -0.07307632 -0.06505288 -0.087071754 -0.021378908 -0.07058772 -0.042372
-0.024793813 -0.016658029 -0.05148056 -0.005936073 -0.008052613 0.012243754 0.031742133 -0.19310124
-0.021467803 -0.09347212 -0.03395928 -0.009964127 -0.07522517 0.029128082 0.11226994 -0.11251719
0.025316702 -0.08018454 -0.005669077 -0.013042615 -0.06461466 -0.047562405 -0.19895102 -0.06256142
-0.22022934 -0.109098025 -0.1155021 -0.089282356 -0.04186618 -0.06407438 -0.11112506 -0.0058273305
0.05161927 -0.042045742 -0.06220922 -0.036095135 -0.008131954 0.012712427 -0.022613293 -0.04917075
-0.028444944 0.20713079 -0.045523904 -0.04298172 -0.022892712 -0.0307933 -0.12026483 -0.07262485
-0.119136244 0.046811685 0.03133478 -0.091749124 0.0028120968 -0.021058492 0.012091512 0.0038062248
-0.07366525 -0.07351357 -0.0012807939 -0.10423547 -0.03388575 -0.027617166 0.029221267 -0.11405052
-0.031010378 0.17329167 -0.04831043 -0.04439274 0.009528904 -0.06199563 -0.03119471 0.020778641
-0.05847525 -0.020498602 -0.06065007 0.03568675 -0.0829613 -0.115673214 -0.004187521 -0.07286651
-0.045060508 -0.10104682 0.12110865 0.05354415 0.080876864 0.15139948 0.06761328 0.015742986
-0.07830587 -0.055569824 -0.032237824 -0.08430017 0.044545196 -0.07116827 -0.044903386 -0.099687204
-0.045557488 0.04469689 -0.0077220737 0.01751758 -0.10935805 -0.0864241 -0.0069245277 -0.03761596
-0.10534457 -0.046366315 -0.038837224 0.0006476335 -0.026748184 -0.12035459 -0.05026838 -0.025285328
-0.07727248 -0.04291417 -0.076271966 -0.061576486 -0.04399766 -0.12551883 -0.02518813 0.05967307
-0.045294974 -0.06769383 0.03422293 -0.1750882 -0.11058606 0.010153553 0.028036768 -0.0038178223
-0.051768716 -0.012524302 -0.035627343 0.00500655 -0.02955253 -0.10075614 -0.052811358 -0.05847724
-0.017023182 -0.010548379 -0.03684131 -0.09884829 0.010162804 -0.015772227 -0.092714034 -0.12138654
-0.06760886 0.006957715 -0.092588045 -0.05987485 -0.041822694 -0.035838336 -0.00418174 0.21695368
-0.109375924 -0.09891399 0.033717822 -0.012640976 -0.01838506 -0.07399235 -0.12656413 -0.045985166
-0.024418455 -0.07459116 -0.07183337 0.0030065256 -0.43753248 -0.051527373 -0.016408749 -0.0791552
00000000: af8f cbbd 0b76 98bd 01b3 81be 2dda 72bd
00000010: 237e e9bd 760d a8bd 4990 abbd 9440 5dbe
00000020: 8387 bfbe 71c0 c3bc 9ef2 52bd 4c6a 68bc
00000030: 11ed eabd 48d0 5abd 7bac c6bd cf3d aebd
00000040: c0dd 58bd 6eb4 9cbd 6366 88bd b59b 91bd
00000050: f4c5 01bd 5093 9abd 9844 dfbd 5d11 8ebc
00000060: ed40 9bbd 84d5 803c 5612 bfbc 8567 c8bd
00000070: 1537 07bd ba81 3dbd f62f f7bd b490 11ba
00000080: a50a 8fbd 2e53 05bd 8c31 a1bd cacd 6dbd
00000090: c98c aabd dec0 a33d 151f 63bd 6cf5 d8bd
000000a0: f5a4 6abc 18ab 19bd 329c 2ebc 9e75 103a
000000b0: 87f2 bdbc d3e4 b0bc 4031 c03c 8fbb b9bd
000000c0: 6aa9 83bd ec36 5e3c c3bd a6bc 5b6d 40bd
000000d0: d13d 0dbd 0b7b c0bd ea01 86bd f7b1 26bc
000000e0: 4299 f2bc 8f99 d9bd bfce 88bc 8c96 acbc
000000f0: 55ba 1abd 557e b0bd 54f9 a6bd 7370 82bd
00000100: 3eac 84bd 2530 efbd fce2 e1bd fc81 4cbd
00000110: fec1 5dbd 5e62 58ba 86ad b9bd 55d6 e33c
00000120: 5786 f2bc eacc 8fbc 37fd 203e 0255 833c
00000130: 6fa0 a4bd f9cd 00bd 8b78 26bd f106 00bd
00000140: 2088 e5bd 749a 18be 0aa9 95bd 723a 85bd
00000150: ad52 b2bd d222 afbc 4b90 90bd 438e 2dbd
00000160: 651c cbbc 6b76 88bc 48dd 52bd 6483 c2bb
00000170: 1bef 03bc 079a 483c 0a04 023d 55bc 45be
00000180: 3fdd afbc 506e bfbd e318 0bbd 9440 23bc
00000190: a70f 9abd 049e ee3c c8ed e53d 6a6f e6bd
000001a0: f964 cf3c cb37 a4bd aac3 b9bb b1b0 55bc
000001b0: b154 84bd ccd0 42bd d1b9 4bbe 3420 80bd
000001c0: cd83 61be c96e dfbd 5d8c ecbd abd9 b6bd
000001d0: df7b 2bbd 6e39 83bd 8995 e3bd 31f3 bebb
000001e0: ba6e 533d 2838 2cbd 18cf 7ebd 7ed8 13bd
000001f0: e33b 05bc c947 503c 833f b9bc 4567 49bd
00000200: 5f05 e9bc 181a 543e 4677 3abd 9a0d 30bd
00000210: 7f89 bbbc 3b42 fcbc 684d f6bd 56bc 94bd
00000220: b4fd f3bd 9cbd 3f3d e658 003d f7e6 bbbd
00000230: 284b 383b dc82 acbc 7a1b 463c db71 793b
00000240: cedd 96bd 488e 96bd 50e0 a7ba 6879 d5bd
00000250: c9cb 0abd 653d e2bc 7061 ef3c 5293 e9bd
00000260: 7a09 febc 5f73 313e 28e1 45bd 29d5 35bd
00000270: 1f1f 1c3c 21ef 7dbd 0c8c ffbc f837 aa3c
00000280: be83 6fbd afec a7bc 356c 78bd 452c 123d
00000290: 9de7 a9bd 14e6 ecbd 7937 89bb 093b 95bd
000002a0: 5e91 38bd a3f1 cebd d007 f83d 1c51 5b3d
000002b0: c5a2 a53d 7708 1b3e d578 8a3d 6ff7 803c
000002c0: d45e a0bd 2f9d 63bd cf0b 04bd 91a5 acbd
000002d0: 0675 363d acc0 91bd 9dec 37bd ce28 ccbd
000002e0: 7d9a 3abd 1614 373d 7309 fdbb 0781 8f3c
000002f0: 1df7 dfbd 1eff b0bd 26e7 e2bb 3113 1abd
00000300: e5be d7bd 9bea 3dbd c813 1fbd f3c5 293a
00000310: 021f dbbc 787c f6bd 38e6 4dbd 2d23 cfbc
00000320: 0941 9ebd c5c6 2fbd 7a34 9cbd a037 7cbd
00000330: e436 34bd 0288 00be 5657 cebc c06b 743d
00000340: 3987 39bd 10a3 8abd 582d 0c3d 524a 33be
00000350: f27a e2bd 175b 263c 5dad e53c 6e34 7abb
00000360: 6f0b 54bd bb32 4dbc faed 11bd fc0d a43b
00000370: 2618 f2bc 3c59 cebd b950 58bd d585 6fbd
00000380: 3374 8bbc 1cd3 2cbc eae6 16bd f970 cabd
00000390: e481 263c c234 81bc dbe0 bdbd 8299 f8bd
000003a0: 8476 8abd 8bfd e33b cd9e bdbd 553f 75bd
000003b0: 464e 2bbd 38cb 12bd fa06 89bb 1b29 5e3e
000003c0: 7c00 e0bd 6b93 cabd b31b 0a3d 191c 4fbc
000003d0: 449c 96bc 4d89 97bd 079a 01be f15a 3cbd
000003e0: 3609 c8bc 40c3 98bd 601d 93bd 2109 453b
000003f0: 4204 e0be 5e0e 53bd a46b 86bc 1f1c a2bd

fc_logvar.bias f4 [4]
0.09905718 -0.6042859 -0.35596454 0.07255622
00000000: 7ede ca3d 7bb2 1abf fc40 b6be 5b98 943d

decoders.0.weight f4 [250, 4]
-0.0008749769 -0.013879177 -0.0032759917 -0.004318927 -0.0005714978 0.0015926014 -0.0008392582 0.0004951806
0.012544885 0.08474197 -0.04051323 -0.05566005 -0.025534876 0.078056544 -0.9985432 0.018401053
0.09950466 -0.03878925 -0.07457079 0.035370328 0.021213619 -0.09401555 -0.18465878 0.0063409363
0.010437288 -0.8556711 -0.5896174 -0.009137597 -0.020413948 -0.6848486 -0.26366252 0.01759201
-0.0060316618 -0.002426614 0.0069546364 0.002479961 -0.06247776 0.08317686 -0.027375178 -0.01625874
0.0011921304 0.009587326 0.004306706 0.00046053834 0.037048295 -0.9415205 -0.28962177 -0.0007295282
0.013004196 0.008950456 0.008490392 0.010889706 0.026659735 -0.002545582 0.021899544 0.012560404
-0.01906718 -0.10770412 -0.026523015 0.0010644774 -0.0019357802 -0.11799931 0.04439356 0.01059066
-0.006006266 -0.9725462 0.29562065 0.03341692 0.0045658904 -0.50176245 0.07256634 -0.015650235
-0.011397707 -0.1686754 0.15256241 0.0030235758 0.065753 0.09657446 0.119347006 -0.01947469
0.0042819353 -0.019220004 -0.009365833 0.0044896766 -0.052416794 -0.08662576 0.055535614 0.033885635
0.081981815 0.16798371 0.11747296 -0.060036045 -0.14121015 0.20797347 0.10788285 0.04366732
0.016406594 0.09975031 0.09376186 0.066759326 -0.004236906 0.015013715 0.0064969137 7.617443e-06
0.012558448 0.06420576 0.06708483 -0.0012916474 -0.010117417 -0.14065948 0.09241765 -0.0038935535
0.010852121 -1.2300012e-05 0.008233146 -0.013116266 0.020999715 0.07221376 -0.0065398724 0.010142001
0.029646372 0.033823594 0.010139739 -0.0073955134 0.010064861 -0.0495267 -0.02614042 -0.01745117
0.038407825 -0.080376014 -0.03698927 -0.095524065 0.011697975 -0.18376283 0.10215312 0.011022383
0.004486375 -0.14266853 0.08519005 -0.019007389 -0.029110307 0.04465293 0.08892605 -0.0069852895
-0.009370123 0.028275482 -0.005095807 -0.044270568 -0.019469501 -0.13439146 -0.046510372 -0.016569212
-0.0013860539 0.025339782 -0.0010392165 -0.00501429 -0.00248606 -0.47052678 -0.11661024 0.0017915792
-0.103611074 0.0055978503 -0.047756158 -0.05645078 -0.006792542 0.015856907 -0.0035634625 -0.0055874153
-0.008082286 -0.38284084 0.43704426 -0.015710419 -0.03190759 0.0054561556 -0.019316422 0.05187316
-0.0058874018 0.0077714887 -0.0071745757 0.008810153 0.033318542 0.22105633 0.12783313 -0.0022070857
0.14666171 0.14717953 -0.06997301 0.032543104 0.013068979 -0.19232228 -0.54418135 -0.0038200712
0.056636628 0.1151163 0.081039645 0.06761365 -0.014290686 -0.6686481 0.39770088 0.015935963
0.007042281 -0.01151637 -0.010986406 -0.018311657 -0.00056792685 0.00200496 0.0010554289 -0.0014136089
0.0033238 -0.051045816 0.00046296135 -0.0017933466 0.0006130652 0.0031129469 0.0014329684 0.0025682284
0.01392456 0.09856588 -0.009148855 0.012545207 0.088311024 0.027744139 -0.028279258 0.07809238
-0.072312415 0.04302493 -0.032321315 0.04566754 -0.0020415792 -0.07341526 -0.122401014 -0.0094575565
-0.017529184 0.035196334 0.017856333 -0.038569205 -0.022853274 -0.10222884 0.16842447 -0.00693451
-0.034807444 0.0024677683 0.111208946 0.038555257 -0.056993503 0.12877035 0.036454476 -0.046076182
-0.06054338 -0.14287196 -0.14258084 -0.032423202 -0.04290281 0.004602444 0.055050433 0.06692891
00000000: b55e 65ba 7d65 63bc 05b2 56bb c985 8dbb
00000010: 91d0 15ba d6be d03a aa01 5cba 02cf 013a
00000020: 1089 4d3c 338d ad3d 33f1 25bd cbfb 63bd
00000030: 842e d1bc 1cdc 9f3d 87a0 7fbf cebd 963c
00000040: 19c9 cb3d 7ae1 1ebd 92b8 98bd 7ae0 103d
00000050: 2fc8 ad3c 3a8b c0bd 3117 3dbe a1c7 cf3b
00000060: 2901 2b3c 430d 5bbf 2af1 16bf dcb5 15bc
00000070: 273b a7bc 3d52 2fbf c6fe 86be 1e1d 903c
00000080: 3fa5 c5bb d407 1fbb b8e3 e33b d786 223b
00000090: aee8 7fbd a158 aa3d e941 e0bc 0d31 85bc
000000a0: 4241 9c3a 2914 1d3c 451f 8d3b 6974 f139
000000b0: f4bf 173d 7d07 71bf 4e49 94be cf3d 3fba
000000c0: 8d0f 553c efa4 123c 491b 0b3c bd6a 323c
000000d0: 8465 da3c c7d3 26bb ac66 b33c 27ca 4d3c
000000e0: c632 9cbc fa93 dcbd cb46 d9bc ef85 8b3a
000000f0: 01ba fdba 9fa9 f1bd 06d6 353d 7384 2d3c
00000100: 36d0 c4bb caf8 78bf 975b 973e 2ee0 083d
00000110: 779d 953b 8173 00bf a99d 943d ec34 80bc
00000120: 73bd 3abc 3eb9 2cbe 5239 1c3e 2f27 463b
00000130: 82a9 863d d5c8 c53d 346c f43d 6389 9fbc
00000140: 7a4f 8c3b 4573 9dbc 2773 19bc 231e 933b
00000150: feb2 56bd d968 b1bd 5079 633d aacb 0a3d
00000160: 15e6 a73d ec03 2c3e aa95 f03d 5be8 75bd
00000170: 6599 10be fff6 543e aff1 dc3d 81dc 323d
00000180: 1f67 863c e449 cc3d 3806 c03d 1db9 883d
00000190: bed5 8abb 16fc 753c 10e4 d43b 5699 ff36
000001a0: f3c1 4d3c 4f7e 833d c563 893d 7f4c a9ba
000001b0: 86c3 25bc 0a09 10be 7745 bd3d fd2a 7fbb
000001c0: 18cd 313c 265c 4eb7 51e4 063c 9be5 56bc
000001d0: 9807 ac3c cfe4 933d 6d4c d6bb a32a 263c
000001e0: f3dc f23c 9c8a 0a3d 2621 263c 1056 f2bb
000001f0: 16e7 243c 82dc 4abd 6f24 d6bc c2f5 8ebc
00000200: 8651 1d3d 2e9c a4bd 1082 17bd 1fa2 c3bd
00000210: dda8 3f3c 532c 3cbe a835 d13d 3a97 343c
00000220: 7102 933b b317 12be 1f78 ae3d 62b5 9bbc
00000230: bd78 eebc fee5 363d dc1e b63d dbe4 e4bb
00000240: 2585 19bc fca1 e73c bafa a6bb 0e55 35bd
00000250: 817e 9fbc ea9d 09be a981 3ebd 28bc 87bc
00000260: 40ac b5ba 6095 cf3c 5236 88ba ea4e a4bb
00000270: 2aed 22bb e3e8 f0be 59d1 eebd 6cd3 ea3a
00000280: 0b32 d4bd 2c6e b73b f69b 43bd ef38 67bd
00000290: f993 debb 58e6 813c fb88 69bb a316 b7bb
000002a0: 916b 04bc b703 c4be 44c4 df3e 23b3 80bc
000002b0: 88b1 02bd 8dc9 b23b 793d 9ebc f378 543d
000002c0: 1beb c0bb f9a7 fe3b b418 ebbb 7658 103c
000002d0: 0679 083d 975c 623e b0e6 023e c1a4 10bb
000002e0: 7d2e 163e 3bb6 163e 024e 8fbd eb4b 053d
000002f0: 451f 563c 22f0 44be 784f 0bbf 295a 7abb
00000300: cffb 673d 18c2 eb3d 1df8 a53d 0679 8a3d
00000310: 7b23 6abc 862c 2bbf 739f cb3e 238c 823c
00000320: efc2 e63b 28af 3cbc 5400 34bc 5402 96bc
00000330: ede0 14ba a665 033b 5156 8a3a d848 b9ba
00000340: 1cd4 593b 6b15 51bd 9fb9 f239 ba0e ebba
00000350: 1cb6 203a 9502 4c3b 71d2 bb3a b94f 283b
00000360: d623 643c e8dc c93d 14e5 15bc 698a 4d3c
00000370: 69dc b43d ad47 e33c e7a9 e7bc e6ee 9f3d
00000380: 8818 94bd e93a 303d 5b63 04bd e30d 3b3d
00000390: 04cc 05bb bd5a 96bd 62ad fabd def3 1abc
000003a0: 5d99 8fbc 082a 103d 7247 923c befa 1dbd
000003b0: ca36 bbbc 5b5d d1bd 7777 2c3e e33a e3bb
000003c0: 4092 0ebd 48ba 213b 84c1 e33d 1eec 1d3d
000003d0: 0572 69bd 60dc 033e 4a51 153d 61ba 3cbd
000003e0: 56fc 77bd 074d 12be b600 12be 31ce 04bd
000003f0: dbba 2fbd 19d0 963b 907c 613d 0612 893d

decoders.0.bias f4 [250]
-0.075547546 -0.012406521 -0.6499379 -2.8169956 -0.946755 -1.1915113 -2.8204656 -0.70987445
-0.080210485 -0.9614309 -0.060991175 -2.3985822 -0.17555362 -0.748374 -0.7628583 -0.5321347
-3.2835805 -0.55581766 -0.013839579 -0.9673907 -0.1140811 -0.69823277 -1.2043492 -1.6004368
-0.7543827 -0.08888711 -0.6652283 -0.70986295 -0.09495147 -0.52441 -0.35131112 -0.303418
-0.91342556 -1.0116488 -0.67625356 -0.60818434 -0.30932048 -0.70099306 -0.14528002 0.30722305
-0.67320675 -0.087000675 0.45044717 -0.5743852 -0.07759553 -1.1710805 -1.1714374 -0.48349535
-0.81351745 -1.4944415 -0.16643874 -0.014048246 -0.24052517 -0.022629946 -0.6103353 -1.1107706
-1.2668706 -0.88880235 -1.0314466 -1.014126 -0.58448726 -0.82797843 -1.0422044 -0.60651517
-0.3452931 -0.4499961 -0.9182203 -1.4162962 -2.8517897 -0.13278557 -0.21834214 -2.1084013
-0.39377737 -0.18303195 -0.91553986 -1.035485 -1.0813355 -0.16989829 -0.20395212 -0.30356333
-2.2910078 -0.032586087 -1.0377762 -0.08803341 -1.064486 -0.8099972 -0.5973648 -1.0362902
-1.0351752 -0.42080674 -0.2931552 -0.84771496 -0.77872247 -0.30035165 -1.6638875 -0.099711895
-1.6154525 -0.295728 -0.06592021 -0.08331044 -0.9063812 -0.5699811 -0.21506868 -0.70699805
-0.31660566 -0.20147169 -0.44166097 -0.010503093 -0.84364045 -0.49458724 -1.2573925 -0.41843125
-0.5578673 -0.307442 -0.79726607 -0.32684633 -0.3899551 -0.14778097 -0.45885584 -0.05203895
-0.41678864 -0.18995696 -0.58611584 -0.7352484 0.1850101 -0.4153965 -0.4825306 -0.02602029
-0.7993728 -0.8046244 -0.36149806 -0.042870756 -0.30600807 -0.4942932 -1.306873 -0.43245846
-1.1197867 -2.2904904 -0.35108837 -0.98568875 -0.22608082 -0.039850198 -0.8264395 -0.5018638
-1.4247146 -0.3636334 -0.9683775 -1.0145425 -0.8386791 -1.1689637 -0.070752665 -0.37972954
-2.4631915 -0.3419265 -0.29776746 -0.026193837 -0.11522804 -0.017949732 -1.040516 -0.9982763
-0.44737077 -1.2703335 -0.78533083 -1.1043311 -1.9749733 -0.2918721 -0.39338982 -0.18152015
-0.025606329 -1.0458752 -0.2344237 -0.06514962 -1.1069604 -0.08269162 -0.36825374 -1.3536513
-0.056091655 -1.0804453 -0.79963535 -0.84901613 -0.5572911 -1.1317827 -0.78807473 -0.9422213
0.06506913 -0.120179474 -0.8079337 -3.2361891 -2.3534567 -0.9399582 0.07556044 -1.141966
-0.9503532 -0.43723333 -1.9773613 -1.1650878 -0.13686952 -0.30110854 -1.1185025 -0.13817841
-0.36258915 0.11832676 -0.6123167 -2.2977397 -0.92782444 -0.26356143 -1.414338 -0.2699355
-2.9247375 -0.15734115 -0.47048315 -0.5251069 -1.7240262 -0.6100491 -0.05282783 -2.2697458
-1.1223379 -1.2164501 -0.6656214 -0.86905766 -0.63576376 -0.3236952 -0.62960774 -0.09173734
-1.4156328 -0.98597205 -0.16948743 -0.20062259 0.0367139 -0.5863733 -0.6204622 -0.91387147
-0.15355918 -0.7262202 -3.0129352 -0.024725348 -1.1349398 -0.56889915 -0.4219706 -1.1437049
-0.14574616 -0.11591257 -0.90185 -0.8414264 -0.26099443 -2.020843 -0.77737826 -1.0898523
-1.7227745 -1.3670765
00000000: acb8 9abd b844 4bbc 5562 26bf a849 34c0
00000010: 895e 72bf 7183 98bf 8282 34c0 55ba 35bf
00000020: 6545 a4bd 5620 76bf e2d1 79bd 5f82 19c0
00000030: 54c4 33be 7095 3fbf ae4a 43bf fb39 08bf
00000040: 2f26 52c0 114a 0ebf 67bf 62bc eba6 77bf
00000050: 5aa3 e9bd 62bf 32bf 1d28 9abf 1ddb ccbf
00000060: 3a1f 41bf 720a b6bd 674c 2abf 94b9 35bf
00000070: eb75 c2bd bc3f 06bf 0ddf b3be 9b59 9bbe
00000080: 42d6 69bf b57d 81bf f41e 2dbf f8b1 1bbf
00000090: 415f 9ebe 4874 33bf 49c4 14be 574c 9d3e
000000a0: 4757 2cbf 692d b2bd 03a1 e63e e90a 13bf
000000b0: 68ea 9ebd f7e5 95bf a9f1 95bf b48c f7be
000000c0: ae42 50bf dc49 bfbf eb6e 2abe 9d2a 66bc
000000d0: 3b4c 76be 7062 b9bc ef3e 1cbf bb2d 8ebf
000000e0: d128 a2bf 8d88 63bf 7106 84bf e1ce 81bf
000000f0: f5a0 15bf 65f6 53bf f466 85bf 9444 1bbf
00000100: 42ca b0be e465 e6be 7c10 6bbf 3249 b5bf
00000110: b983 36c0 f1f8 07be 1595 5fbe 0cf0 06c0
00000120: 309d c9be ba6c 3bbe d260 6abf c68a 84bf
00000130: 3469 8abf d1f9 2dbe d3d8 50be a76c 9bbe
00000140: df9f 12c0 fd78 05bd dad5 84bf dc4a b4bd
00000150: 1441 88bf fa5b 4fbf e6ec 18bf 28a5 84bf
00000160: 9f80 84bf fb73 d7be 7018 96be d903 59bf
00000170: 5b5a 47bf b1c7 99be 44fa d4bf c035 ccbd
00000180: 26c7 cebf a969 97be 2d01 87bd aa9e aabd
00000190: 9908 68bf 48ea 11bf f73a 5cbe d3fd 34bf
000001a0: 231a a2be 984e 4ebe 6321 e2be 2a15 2cbc
000001b0: d2f8 57bf 8a3a fdbe 3df2 a0bf 9f3c d6be
000001c0: 64d0 0ebf 0a69 9dbe a119 4cbf 6758 a7be
000001d0: 32a8 c7be e553 17be 27ef eabe cb26 55bd
000001e0: 5265 d5be 1484 42be b00b 16bf 3d39 3cbf
000001f0: 4a73 3d3e daae d4be 400e f7be 8128 d5bc
00000200: b2a3 4cbf ddfb 4dbf 4616 b9be 3f99 2fbd
00000210: 17ad 9cbe 0014 fdbe 9d47 a7bf 326b ddbe
00000220: 2c55 8fbf 6597 12c0 dbc1 b3be 1956 7cbf
00000230: bb81 67be f639 23bd 8a91 53bf 257a 00bf
00000240: 0c5d b6bf 282e babe 96e7 77bf 87dc 81bf
00000250: acb3 56bf 9aa0 95bf c6e6 90bd e96b c2be
00000260: eea4 1dc0 fd10 afbe fa74 98be 7594 d6bc
00000270: aefc ebbd 510b 93bc a12f 85bf 098f 7fbf
00000280: c80d e5be 4a9a a2bf 710b 49bf b95a 8dbf
00000290: edcb fcbf 4370 95be 646a c9be 6be0 39be
000002a0: 5dc4 d1bc 3ddf 85bf c40c 70be 2a6d 85bd
000002b0: e1b0 8dbf 395a a9bd c18b bcbe 7244 adbf
000002c0: 5dc0 65bd 084c 8abf e7b4 4cbf 1f59 59bf
000002d0: a1aa 0ebf 41de 90bf 44bf 49bf 6a35 71bf
000002e0: f742 853d a820 f6bd bed4 4ebf b91d 4fc0
000002f0: 099f 16c0 1aa1 70bf 6fbf 9a3d f12b 92bf
00000300: 594a 73bf 0cdd dfbe 2d1a fdbf 9921 95bf
00000310: 8627 0cbe e62a 9abe 172b 8fbf a47e 0dbe
00000320: 49a5 b9be 4d55 f23d cac0 1cbf 2b0e 13c0
00000330: e785 6dbf 86f1 86be 0709 b5bf fc34 8abe
00000340: e62e 3bc0 0a1e 21be 2be3 f0be 686d 06bf
00000350: e4ac dcbf 2e2c 1cbf ff61 58bd 8443 11c0
00000360: c5a8 8fbf a3b4 9bbf 2a66 2abf 907a 5ebf
00000370: 6ac1 22bf 61bb a5be f92d 21bf c9e0 bbbd
00000380: 7533 b5bf aa68 7cbf 1d8e 2dbe 0270 4dbe
00000390: 5061 163d 901c 16bf 9cd6 1ebf 7bf3 69bf
000003a0: 9e3e 1dbe 91e9 39bf eed3 40c0 d08c cabc
000003b0: b545 91bf 60a3 11bf 880c d8be ec64 92bf
000003c0: 7b3e 15be 9263 edbd a4df 66bf b867 57bf
000003d0: 10a1 85be 7e55 01c0 4302 47bf 4880 8bbf
000003e0: e083 dcbf 5dfc aebf
